models/CIC_best_mlp_multiclass_20250911_161451.pth (torch, 82741 bytes, 21 tensors)

network.0.weight f4 [128, 48]
0	0x3d2272b7	0.03966018
1	0x3d0383d5	0.032108147
2	0x3bce5dea	0.0062978165
3	0x3ab0d47e	0.0013491062
4	0xbbed7fc7	-0.0072478983
5	0xbb7d9911	-0.003869597
6	0xbd6852eb	-0.0567197
7	0xbcb90228	-0.022584036
8	0xb93b7772	-0.00017878207
9	0x3c5da8fa	0.013529057
10	0xbcb2c1b1	-0.021820875
11	0x3d7613f8	0.060077637
12	0x3c8d15b3	0.017222261
13	0xbcee20a0	-0.029068291
14	0xbd3530ad	-0.044235874
15	0xbcca598e	-0.024700906
16	0xbc6b2fbc	-0.0143546425
17	0x3c1e498a	0.009661088
18	0xbdd67ae9	-0.10472662
19	0x3e068a3b	0.13138668
20	0x3c0752ba	0.00825947
21	0xbb6c6a17	-0.0036073977
22	0x3cb6cd25	0.022314617
23	0xbc5d959a	-0.013524437
24	0x3ab362e1	0.0013686084
25	0xbb69ab38	-0.0035655033
26	0xbce5cd60	-0.028052032
27	0xbd16e619	-0.036840532
28	0x3cdedc19	0.02720456
29	0x3bb8054f	0.005615867
30	0xbacfc8f0	-0.0015852731
31	0xbc9f4d81	-0.019446136
32	0x3d4e46c9	0.050360475
33	0xbca2a907	-0.01985599
34	0xbc8625dc	-0.016375475
35	0xbc865f9f	-0.016403018
36	0x3be010a8	0.006837923
37	0xba6ca496	-0.0009027211
38	0xbe130b36	-0.14359745
39	0x3cb5b740	0.022182107
40	0x3d453587	0.04814675
41	0x3c07978c	0.008275878
42	0x3d28f934	0.041253284
43	0x3d0d7c9f	0.034542676
44	0xbaed3c6f	-0.0018099676
45	0x3b054104	0.0020332942
46	0xbc69af72	-0.014263021
47	0x3cc88509	0.024477499
48	0x3b721d83	0.003694386
49	0x3ad61c0c	0.0016335263
50	0x3ba8b61a	0.0051486613
51	0x3b9bad97	0.004750918
52	0xbab832ca	-0.0014053222
53	0x3ae8317d	0.0017714944
54	0x3bb30e28	0.005464334
55	0xbb2c3bc9	-0.0026280752
56	0x3902bb57	0.00012467556
57	0xbac0d8f4	-0.0014713095
58	0x3b0e2ca9	0.00216941
59	0x3ba3b34b	0.0049957386
60	0x3a832632	0.001000589
61	0x3b5109e8	0.0031896774
62	0xbb45a7f4	-0.0030159922
63	0x39294c77	0.00016145581
64	0x3b2a731d	0.0026008554
65	0xbb1fea8c	-0.0024401275
66	0xbb2c1756	-0.0026259026
67	0x3b52e860	0.0032181963
68	0xba769b32	-0.0009407281
69	0x3a19dec3	0.0005869681
70	0x38b27505	8.509498e-05
71	0x3be5ea1f	0.007016435
72	0xba0fd868	-0.0005487264
73	0x39b724ae	0.00034931808
74	0xbb1770db	-0.0023108039
75	0xb9b42c8f	-0.00034365474
76	0x3aaaead8	0.001303996
77	0x3920e5ba	0.00015344369
78	0x3bab9edd	0.005237444
79	0xbb276395	-0.0025541533
80	0x3b5f2799	0.0034050702
81	0x3a27a9d8	0.0006395853
82	0x3b03b399	0.0020096062
83	0xbb5a216e	-0.0033284086
84	0x3a592d1b	0.00082846143
85	0x3c1e58ff	0.009664773
86	0x3b9d84c0	0.004807085
87	0xba2f5952	-0.000668903
88	0x3ba5ea8d	0.005063361
89	0xbad34b10	-0.0016120393
90	0x3a2d14b4	0.0006602511
91	0xbb1e6755	-0.0024170477
92	0xbad25db5	-0.0016049655
93	0xbb0cbe96	-0.0021475903
94	0x3b615494	0.0034382688
95	0xbaf95a12	-0.0019024035
96	0xbb695a97	-0.0035606974
97	0xbd98d15a	-0.07461806
98	0xbce47428	-0.027887419
99	0x3c846996	0.016163629
100	0xbd38f6a1	-0.04515708
101	0xbc031dc0	-0.008002698
102	0x3d2ea5e6	0.04263868
103	0xbb3f8f4b	-0.0029229696
104	0xbb9f003b	-0.0048523224
105	0xbc011fa1	-0.007881076
106	0xbd8f407b	-0.069947205
107	0xbd968042	-0.07348682
108	0x3b283264	0.00256648
109	0xbd5002cb	-0.050783914
110	0x3d632f6b	0.055465143
111	0x3d472038	0.04861471
112	0xbd4cfd8f	-0.0500465
113	0xbd0c409d	-0.034241308
114	0xbd80b6e3	-0.06284883
115	0xbd66b8f5	-0.056328733
116	0x3cdfcfed	0.027320826
117	0xbccd2b60	-0.025045097
118	0xbc89e94e	-0.016834881
119	0x3ba458ef	0.0050154845
120	0xb9ea7c36	-0.00044724502
121	0xbb93a95c	-0.004506273
122	0x3ccb8398	0.024843022
123	0xbc89ff4b	-0.016845366
124	0xbcbdccd4	-0.023168959
125	0x3a9a7185	0.0011783099
126	0xbd124c34	-0.035717204
127	0x3d016c9a	0.03159771
128	0x3dc72aef	0.09724986
129	0xba6bfb59	-0.00090019923
130	0x3cd8ebd2	0.026479635
131	0x3c5b50f6	0.013386002
132	0x3cdb48c6	0.0267681
133	0xbcaaa2b3	-0.020829534
134	0xbe2784f3	-0.1635931
135	0x3ceae526	0.02867372
136	0xbd57f16f	-0.052720483
137	0x3beed873	0.0072889864
138	0xbc4fd413	-0.01268484
139	0x3d831a57	0.06401508
140	0x3c10b072	0.00883113
141	0x3c950b10	0.018193752
142	0xbc6d6206	-0.014488703
143	0xbc2d8306	-0.01059032
144	0x3d43af6d	0.04777472
145	0xbca44567	-0.020052625
146	0x3bb6aa08	0.0055744685
147	0x3c03ba29	0.0080399895
148	0xbc3ab2c7	-0.011395163
149	0xbb7bbf60	-0.003841363
150	0xbc938956	-0.018009823
151	0x3c91c6d2	0.017795
152	0x3c2e3113	0.010631817
153	0xbb59fee1	-0.0033263492
154	0x3c9a1b67	0.018811895
155	0x3b4e3f74	0.0031470926
156	0x3ce807e2	0.028324071
157	0x3bc433f0	0.0059876367
158	0xbcca09eb	-0.024662932
159	0x3d2ccca7	0.04218736
160	0x3c55e46a	0.013054946
161	0x3c1590db	0.0091287745
162	0xbd326e6d	-0.04356234
163	0x3da354b1	0.07975138
164	0xbce9e756	-0.028552692
165	0x3d0bd1d9	0.034135673
166	0xbc052e4c	-0.008128714
167	0xbbcc25b0	-0.0062300786
168	0x3b90d5d5	0.004420022
169	0x3ceae610	0.028674155
170	0x3c8c1b04	0.017102726
171	0xbd4d0047	-0.050049093
172	0x3cda954c	0.026682518
173	0xbc320d75	-0.010867466
174	0xbbe974e8	-0.007124532
175	0x3c5890a5	0.01321808
176	0xbd95f614	-0.07322326
177	0xbcb0afd0	-0.021568209
178	0xbc8b5983	-0.017010456
179	0xbcae7f7b	-0.021301022
180	0xbc850e9e	-0.016242322
181	0x3c83dded	0.016097033
182	0xbdd0081f	-0.10157799
183	0xbce6cfd3	-0.02817527
184	0x3e3715b7	0.17879377
185	0x3cca8c9a	0.024725247
186	0x3cc2eb70	0.023793906
187	0xbad23161	-0.0016036445
188	0x3b311d0f	0.0027025377
189	0x3c1c972a	0.009557525
190	0xbbf0f787	-0.0073537263
191	0x3c1357ed	0.008993131
192	0x3ce7e6dd	0.028308326
193	0x3c3a6cd9	0.01137849
194	0xbcaaad8a	-0.020834703
195	0xbc180597	-0.0092786765
196	0xbc745eaf	-0.014915152
197	0xbb676979	-0.003531067
198	0x3d20b8ba	0.03923867
199	0xbce87335	-0.028375247
200	0x3d01ed6d	0.031720567
201	0xbc7d8e2e	-0.015475793
202	0xbcb2901a	-0.021797229
203	0x3cc044c2	0.023470286
204	0xbca8363a	-0.02053367
205	0xbc3d476f	-0.011552676
206	0x3c85225a	0.016251732
207	0xbcafb146	-0.021446835
208	0xbc6e11f3	-0.014530647
209	0x3c75b5a4	0.01499692
210	0x3d1b9531	0.037984077
211	0xbd209982	-0.039208896
212	0x38e0ebd2	0.00010725077
213	0x3b993899	0.0046759364
214	0xbc031f33	-0.008003044
215	0x3cb726b6	0.022357326
216	0xbc076d91	-0.008265869
217	0xbb009ed0	-0.001962591
218	0xbc13f967	-0.00903163
219	0x3c6f9bdb	0.014624561
220	0xbcafe44d	-0.021471167
221	0x3cc38d71	0.023871155
222	0xbb93e916	-0.00451387
223	0xbb32e28d	-0.002729568
224	0xbd5743ed	-0.052555013
225	0xbb766f37	-0.003760291
226	0xbcba1677	-0.02271579
227	0xbc433aff	-0.011915921
228	0x38e10702	0.000107301414
229	0x3c0de721	0.008661062
230	0x3d9af771	0.07566727
231	0x3a02f7b8	0.00049960194
232	0x3d9cf4cc	0.07663879
233	0xbd18f318	-0.037341207
234	0xbd578a58	-0.05262217
235	0xbc74c10b	-0.014938603
236	0x3b06eeda	0.0020589144
237	0xbcfd9b4c	-0.03095784
238	0xbc516dbb	-0.012782509
239	0x3c939e43	0.018019801
240	0xbc17e269	-0.009270289
241	0xbb9532dc	-0.004553182
242	0x3b216385	0.0024625969
243	0xbb936499	-0.004498076
244	0x3b904af0	0.0044034645
245	0xbaa91bb0	-0.0012901928
246	0xbb967743	-0.004591854
247	0xbb1ef7ef	-0.0024256667
248	0x3886557f	6.405543e-05
249	0xba4c53ae	-0.00077944517
250	0xbb64e2f0	-0.0034925304
251	0xbb4678c1	-0.0030284377
252	0xbb8a576e	-0.004221848
253	0xbad46c59	-0.0016206607
254	0xbb5b49ad	-0.0033460662
255	0x3ac360b3	0.0014906138

network.0.bias f4 [128]
0	0xbda4e5b1	-0.08051623
1	0xbbb270bd	-0.0054455684
2	0xbcb7a97e	-0.022419687
3	0xbcc9109d	-0.024544055
4	0x3a5c9851	0.0008415031
5	0xbbc8fceb	-0.006133666
6	0xbaace0f7	-0.0013189603
7	0xbd5811c8	-0.052751333
8	0xbcb879ee	-0.022519078
9	0xbbc7e766	-0.006100583
10	0xbd4eb2f7	-0.050463643
11	0xbda55306	-0.08072476
12	0x3c16339c	0.009167578
13	0xbd90dbfd	-0.070732094
14	0xb9c5fbd9	-0.0003776241
15	0x39336b92	0.00017110843
16	0x397076b7	0.00022932408
17	0x3b80cd92	0.003930756
18	0xba5b650d	-0.0008369245
19	0xbb835576	-0.0040079905
20	0x3ab49bde	0.0013779362
21	0xbb81999e	-0.00395508
22	0xbbf124a7	-0.0073591056
23	0xbbdaa599	-0.006672573
24	0x3b3afd14	0.0028532194
25	0x3bed7470	0.0072465464
26	0xbdebf0ba	-0.11520524
27	0xbd023ef6	-0.031798325
28	0xbbd487d2	-0.0064859176
29	0x3a833a3e	0.0010011864
30	0x3c07a113	0.008278149
31	0xbb25cab0	-0.0025297813
32	0xbde5e0c5	-0.11224512
33	0xbc8cf79c	-0.017207913
34	0x3c09cd11	0.008410708
35	0xbb0c776a	-0.002143348
36	0xbacd02da	-0.0015641109
37	0x3b816001	0.003948212
38	0xbcb8a950	-0.022541672
39	0xbdbc99e4	-0.0920904
40	0xb922219e	-0.00015462047
41	0x3c0eda6c	0.008719068
42	0xbbb88615	-0.005631218
43	0xbb1525c3	-0.0022758103
44	0xbcd6c71b	-0.026217988
45	0x3b96b205	0.0045988583
46	0xbdb2165b	-0.0869567
47	0xbda87711	-0.08225835
48	0xbd2a01b7	-0.04150554
49	0xbb655168	-0.003499115
50	0xbb77cfc0	-0.0037813038
51	0x3c24b1db	0.01005217
52	0x3b56d7f1	0.003278252
53	0xbd43446f	-0.047672685
54	0xbaaeb068	-0.001332772
55	0xbcd5bf4e	-0.026092198
56	0xbe077efe	-0.13232037
57	0x3ba0652a	0.004894872
58	0xbd2d99b3	-0.042382907
59	0xbaff835a	-0.0019494102
60	0xbaa933b7	-0.0012909089
61	0x3b387f0f	0.0028151905
62	0xbbd140cb	-0.0063858978
63	0x3c083b9e	0.008314995
64	0xbce26be1	-0.027639331
65	0xbd55f388	-0.052234203
66	0xbdb25110	-0.08706868
67	0xbd368032	-0.04455585
68	0xbc8ccf94	-0.017188825
69	0xbc9884ad	-0.018617952
70	0x3ab88ded	0.0014080383
71	0x3b6e1f5c	0.003633461
72	0xbafd1fdc	-0.0019311863
73	0xbc76baad	-0.015059155
74	0xbc65c0e2	-0.014023038
75	0xbd077783	-0.03307296
76	0xbbe83fdd	-0.007087691
77	0x3c5cdd3b	0.01348048
78	0xbcb25385	-0.02176834
79	0xbbfc4de2	-0.007699714
80	0xbd5f17bc	-0.054465994
81	0xbbd3830f	-0.0064548324
82	0xbcbea453	-0.023271715
83	0xbe083a29	-0.13303436
84	0xbd9518c7	-0.072801165
85	0xbd05d615	-0.032674868
86	0xbab94fa3	-0.0014138113
87	0xba9134e2	-0.0011078382
88	0x3a67c698	0.00088415435
89	0xbd5561ff	-0.05209541
90	0xbbdb4bed	-0.0066924007
91	0x3b97bc42	0.0046305964
92	0xbd457360	-0.048205733
93	0xbb12e4e0	-0.0022414252
94	0xbbd19fd3	-0.0063972264
95	0x3bf83e42	0.007575781
96	0x3a140ea2	0.00056479324
97	0x3a7be795	0.00096093985
98	0xb9c4c018	-0.00037527154
99	0xbba12b2e	-0.0049184775
100	0xbd9ebe31	-0.0775112
101	0x3c053d0a	0.008132229
102	0xbd555563	-0.052083384
103	0xbd895403	-0.06705477
104	0xbc4a076f	-0.012330874
105	0xbd02ea68	-0.03196183
106	0xba76d881	-0.0009416417
107	0x3cf4f3c4	0.029901393
108	0x3b601dfd	0.0034197562
109	0xbd26dbc3	-0.040736925
110	0xbc9a0a92	-0.018803868
111	0x3b812354	0.003940979
112	0xbc0934b8	-0.008374386
113	0x3c804b30	0.015660852
114	0xbdb545c7	-0.088511996
115	0xbd55c143	-0.05218626
116	0x3b25a90e	0.0025277766
117	0xbbc1a2a1	-0.0059092795
118	0xbd861745	-0.06547407
119	0x3b46cd74	0.0030334862
120	0xbbfa208b	-0.007633274
121	0xbba3da0b	-0.005000358
122	0xbd85014a	-0.064943865
123	0xbafe0241	-0.0019379334
124	0xbbb6e8df	-0.0055819596
125	0xbd84d770	-0.06486404
126	0xbd0f8de8	-0.03504744
127	0x3d232fad	0.03984039

network.2.weight f4 [128]
0	0x3deba4c6	0.115060374
1	0x3a9668a6	0.001147528
2	0x3dcca7a3	0.09992912
3	0x3df970ae	0.12179695
4	0x3d6de8eb	0.058083456
5	0xbc1d9aa3	-0.009619388
6	0x3b8499b8	0.004046645
7	0x3de8c7d7	0.113662414
8	0x3d66af56	0.056319557
9	0xbbbf16db	-0.005831582
10	0x3da06eed	0.078336574
11	0x3dcde2d0	0.10053027
12	0x3dc51db0	0.09624803
13	0x3dd7fa30	0.10545766
14	0x3a505239	0.00079468224
15	0xbb5f7a45	-0.0034099978
16	0x3a64ccb0	0.00087280106
17	0x3b9d4134	0.0047990326
18	0x38789c0e	5.9273145e-05
19	0xba10c2de	-0.00055222015
20	0xb98055dc	-0.00024478033
21	0xba9f8dd4	-0.0012173005
22	0xbb2838f9	-0.0025668724
23	0xbb443d0c	-0.0029943613
24	0xbad3fcd2	-0.0016173369
25	0x38c68dd1	9.467791e-05
26	0x3d9e7e1d	0.07738898
27	0x3e04e129	0.12976517
28	0x3bdf3516	0.0068117483
29	0xbbdcad23	-0.0067345067
30	0x3d95ff83	0.073241256
31	0x3c829251	0.01593891
32	0x3e130203	0.14356236
33	0x3d5b0f03	0.053481113
34	0xbb6b9d50	-0.003595192
35	0x3a04b2a8	0.0005062022
36	0x3d8f7d17	0.07006281
37	0xbb546c3a	-0.003241314
38	0x3dcd5569	0.10026056
39	0x3e0fbb7e	0.14036366
40	0x3de0c6b8	0.109754026
41	0x3d4b0c44	0.049572244
42	0x3de26cce	0.11055909
43	0xba2af7aa	-0.000652189
44	0x3db8567a	0.09000869
45	0x3db990f3	0.0906085
46	0x3db777ce	0.08958398
47	0x3dce8ba8	0.10085231
48	0x3da1f6b5	0.07908384
49	0xba5e2ed1	-0.0008475604
50	0xba5b37fb	-0.0008362529
51	0x3d9b988c	0.075974554
52	0xbbda71db	-0.0066664047
53	0x3dc2de35	0.09515039
54	0xbbbe206e	-0.0058022058
55	0x3d8bf1c0	0.068332195
56	0x3e20e727	0.15713178
57	0x3bb8e7fc	0.005642889
58	0x3e18daab	0.14927165
59	0x39e3761a	0.00043384806
60	0x3a7d452f	0.0009661493
61	0xb9f15dd2	-0.00046037004
62	0x3be98c87	0.007127348
63	0x3cc30661	0.023806753
64	0x3da73afe	0.08165549
65	0x3d9aec62	0.07564618
66	0x3db605a5	0.08887795
67	0x3db85268	0.09000093
68	0xbc260ca4	-0.01013485
69	0x3c73d7d2	0.014882999
70	0xb98d2c8f	-0.00026926814
71	0xbc0ef4a9	-0.008725324
72	0xba61b890	-0.0008610571
73	0x3d8f1b14	0.069875866
74	0x3d922fd9	0.071380325
75	0x3de76fdc	0.11300632
76	0x3b9ab455	0.0047212043
77	0xbb0ccffd	-0.0021486275
78	0x3d9b8173	0.0759305
79	0xbc3357a0	-0.010946184
80	0x3dff144f	0.124550454
81	0x3b7f71ba	0.0038977698
82	0x3d859078	0.06521696
83	0x3dea8e45	0.11452917
84	0x3dc95e0f	0.098323934
85	0x3d90fc85	0.07079414
86	0x3e16d965	0.14731367
87	0x3b3ec048	0.0029106308
88	0xbbc8f066	-0.0061321734
89	0x3da82bc0	0.0821147
90	0x3ae50dce	0.0017475428
91	0x3afbb9c3	0.0019205142
92	0x3d997cac	0.074944824
93	0x39981e88	0.00029014447
94	0x3b066f3e	0.0020513083
95	0xbb795da4	-0.00380502
96	0xb9ecf021	-0.00045192338
97	0xba603e3f	-0.0008554197
98	0x3dba67a7	0.09101801
99	0x3ce6ca00	0.028172493
100	0x3dcd1739	0.10014195
101	0xbba9ff49	-0.005187903
102	0x3d9c1c8c	0.076226324
103	0x3d21e2c7	0.039522912
104	0xbb241aaa	-0.0025040307
105	0x3dd8d4d0	0.10587466
106	0x39bc170b	0.00035875323
107	0x3d8463d6	0.06464355
108	0xbab25d4c	-0.0013608127
109	0x3d6a344b	0.057178777
110	0x3d4167ba	0.047218062
111	0xbc0c2bf0	-0.008555397
112	0x3d1f3cfb	0.038876515
113	0x3de722b8	0.11285919
114	0x3df973a8	0.12180263
115	0x3d8531cf	0.06503641
116	0xbb101443	-0.0021984733
117	0xbbf4900e	-0.0074634617
118	0x3d9b7be5	0.075919904
119	0x3ba0a532	0.0049025053
120	0x3dd3f7a0	0.10349965
121	0x3ddc6ba3	0.107627176
122	0x3dd2d1a5	0.10293893
123	0x3a6402ad	0.00086979085
124	0x3d858fe4	0.065215856
125	0x3da34edb	0.07974025
126	0x3dc1bc5b	0.09459754
127	0x3e0eba0d	0.1393816

network.2.bias f4 [128]
0	0x3d5672b5	0.052355487
1	0x3a4d0c81	0.00078219926
2	0x3d22f8c6	0.03978803
3	0x3d78c314	0.060732916
4	0x3cfc9c08	0.03083612
5	0x3b1c2def	0.002383109
6	0x3b16d2d9	0.0023013859
7	0x3d8cc13d	0.06872795
8	0xbb1cc7ba	-0.0023922757
9	0xbbc15123	-0.005899565
10	0xbc982d7b	-0.018576374
11	0xbb8ff227	-0.0043928805
12	0x3d3afb87	0.04565003
13	0x3c390dfc	0.011294838
14	0x39feea01	0.00048621002
15	0x3af33315	0.0018554652
16	0xbaec2359	-0.0018015906
17	0xbb81ee22	-0.003965155
18	0x3b19bf52	0.0023459983
19	0xba8a8c8d	-0.0010570452
20	0x3a30b061	0.00067401497
21	0x3b28c115	0.0025749851
22	0x3b7f10d3	0.003891994
23	0x3ae6c969	0.0017607632
24	0xbc0d64fc	-0.008630034
25	0xbb7c32f4	-0.003848252
26	0x3bb6e412	0.0055813873
27	0x3da3fd89	0.08007342
28	0x3b2fa984	0.002680392
29	0xbb311868	-0.0027022604
30	0x3d088b6c	0.033336088
31	0xbc1a40f5	-0.009414901
32	0x3d8c2c2c	0.068443626
33	0x3b438035	0.0029831056
34	0x386c146b	5.62858e-05
35	0xb9205bdc	-0.0001529301
36	0xbd69467d	-0.05695199
37	0xbb5b9bb0	-0.0033509545
38	0x3d44f085	0.04808094
39	0x3d4e8763	0.050422084
40	0xba9409fe	-0.0011294482
41	0x3baf70b6	0.0053540124
42	0x3db9d3dd	0.09073613
43	0xbaa45889	-0.0012538593
44	0x3d573e8f	0.052549895
45	0x3d76bb3e	0.06023716
46	0x3cf4b96f	0.029873578
47	0x3baa994b	0.005206262
48	0x3d55df16	0.052214704
49	0xb9a96881	-0.00032312053
50	0xbb4a74c7	-0.0030892359
51	0x3d5b3d1b	0.05352507
52	0x3c0c8334	0.008576203
53	0x3bd208c3	0.006409736
54	0xbb8188da	-0.0039530816
55	0x3bb2011a	0.00543226
56	0x3d1b3744	0.037894502
57	0xbaa6909a	-0.001270789
58	0x3d15dca2	0.036587365
59	0xba97e2d1	-0.0011587982
60	0xba27133e	-0.0006373412
61	0x3a32c98c	0.0006820194
62	0xbb063763	-0.002047979
63	0x3c24bba8	0.010054506
64	0x3d9a3628	0.07529861
65	0xbc86c958	-0.01645343
66	0x3bfbf7c0	0.007689446
67	0x3cbe0429	0.023195343
68	0xbbe9cf73	-0.0071353256
69	0x3a94a4a0	0.0011340566
70	0xba88bdb4	-0.0010432512
71	0x38c7d460	9.5286174e-05
72	0xbaead9b2	-0.0017917661
73	0x3bea7071	0.0071545173
74	0xbd18a570	-0.03726715
75	0x3d2ea244	0.042635217
76	0xbb2bde0f	-0.0026224887
77	0x3bb73896	0.0055914624
78	0x3bcf7b11	0.0063318093
79	0x3a2098c9	0.00061262824
80	0x3d26a010	0.04067999
81	0x3b77353f	0.0037720946
82	0xbaeaae0c	-0.0017904653
83	0x3c66642e	0.014061971
84	0x3d39d91b	0.045373064
85	0xbb90bc34	-0.004416967
86	0x3da84c28	0.08217651
87	0x39da2135	0.0004160494
88	0x3acf1863	0.0015800114
89	0x3cd8c198	0.0264595
90	0xba5c502d	-0.0008404281
91	0xbbba1f4f	-0.005680002
92	0x3cc7dd73	0.024397587
93	0x3b60e971	0.003431883
94	0xbbc1347b	-0.0058961487
95	0x3b52c2a3	0.003215947
96	0x3a8ad051	0.0010590648
97	0x3aa8733d	0.0012851726
98	0x3c78b87f	0.015180706
99	0x3c92e1ac	0.017929874
100	0x3d317225	0.043321747
101	0xbac32740	-0.0014889017
102	0xbd89f8a9	-0.06736881
103	0x3b5ae7f6	0.003340242
104	0xbb564153	-0.0032692745
105	0x3d2d1c5a	0.042263366
106	0xbc0463c9	-0.008080431
107	0x3cd251ba	0.025673736
108	0x3b4bfbbd	0.003112539
109	0x3c857e80	0.016295671
110	0xbcb61e00	-0.022231102
111	0xbc0fa073	-0.008766281
112	0xbc2a9981	-0.010412575
113	0x3d58b84d	0.052910138
114	0x3d3809da	0.04493127
115	0x3c6866de	0.014184682
116	0x3b4335fd	0.0029786818
117	0x3b0450fe	0.0020189877
118	0xbcf3d66d	-0.029765332
119	0x3c77b83a	0.015119607
120	0x3d6e45b3	0.05817194
121	0x3d8e70a2	0.06955077
122	0x3d18c02e	0.03729265
123	0x3a0fab1b	0.0005480514
124	0x3d446f47	0.047957685
125	0x3c120138	0.008911423
126	0x3d2388f3	0.039925527
127	0x3d94f2d3	0.072728775

network.2.running_mean f4 [128]
0	0x3d71c3cf	0.05902463
1	0x3c24aff1	0.010051713
2	0x3dbd4ec7	0.09243541
3	0x3de0df8f	0.109801404
4	0x3dbc21aa	0.091861084
5	0x3d094389	0.033511672
6	0x3cc9866d	0.024600232
7	0x3db9db96	0.09075086
8	0x3d34cb59	0.04413924
9	0x3d40e577	0.047093835
10	0x3da6ca56	0.08144061
11	0x3d8f9ed8	0.07012719
12	0x3e1dae76	0.15398583
13	0x3d8cd1d2	0.068759575
14	0x3c3c3e2e	0.011489434
15	0x3d077e58	0.033079475
16	0x3c9c03af	0.019044725
17	0x3caad9a2	0.020855729
18	0x3cad5f15	0.021163503
19	0x3c7405d4	0.014893968
20	0x3ca4ca50	0.020116001
21	0x3d0e8713	0.034796786
22	0x3d1df3d4	0.03856261
23	0x3c7a9f68	0.0152967945
24	0x3d068c67	0.03284874
25	0x3d13b9a3	0.03606571
26	0x3d03ec90	0.032208025
27	0x3dbf35cf	0.09336435
28	0x3d3bd72a	0.045859493
29	0x3d03a590	0.032140315
30	0x3e17b0d6	0.14813551
31	0x3da3a367	0.07990151
32	0x3da9a925	0.08284215
33	0x3dadc3a4	0.08484581
34	0x3d10bab0	0.03533429
35	0x3ca6fd06	0.020384323
36	0x3dd20184	0.10254195
37	0x3ce7eaca	0.028310198
38	0x3d8085b8	0.06275505
39	0x3d89f12a	0.067354515
40	0x3df8870c	0.12135133
41	0x3df90aee	0.12160288
42	0x3dcb246f	0.099190585
43	0x3d0723a4	0.032992974
44	0x3dc89b09	0.097951956
45	0x3dc8602e	0.0978397
46	0x3d166197	0.036714163
47	0x3d5c8bda	0.05384431
48	0x3de33f6a	0.1109608
49	0x3caa3679	0.020777928
50	0x3c45448c	0.012040269
51	0x3df7645e	0.120796904
52	0x3d1b5322	0.03792108
53	0x3d65a5ef	0.05606645
54	0x3cfe1400	0.031015396
55	0x3dc7ec38	0.09761852
56	0x3d3490df	0.044083472
57	0x3cd167a9	0.025562124
58	0x3d86c251	0.06580032
59	0x3d059d33	0.03262062
60	0x3c1a6b22	0.0094249565
61	0x3c5ee00a	0.01360322
62	0x3d1dfacf	0.038569268
63	0x3d43ee0a	0.047834434
64	0x3e1132ae	0.14179489
65	0x3d96b7df	0.073592894
66	0x3d2ebe32	0.042661853
67	0x3d83ec14	0.06441513
68	0x3d31f0e4	0.04344262
69	0x3d47a389	0.048739944
70	0x3cb5b012	0.022178683
71	0x3cf03e39	0.029326545
72	0x3cc736f4	0.024318196
73	0x3dc7f29f	0.09763073
74	0x3d9109f3	0.07081976
75	0x3d9d636b	0.07684978
76	0x3c1c76da	0.009549821
77	0x3d3aff19	0.045653436
78	0x3dba1c09	0.090873785
79	0x3cf6746d	0.030084813
80	0x3dd95f3f	0.1061387
81	0x3c8288c7	0.015934361
82	0x3d9d5450	0.07682097
83	0x3d149c2b	0.036281746
84	0x3d2145b5	0.03937312
85	0x3d9c9b04	0.076467544
86	0x3e1de508	0.154194
87	0x3ca823be	0.020524856
88	0x3cf29d44	0.029616006
89	0x3d4cc957	0.0499967
90	0x3cca74f3	0.024713969
91	0x3d02ae84	0.031904712
92	0x3d949cf8	0.07256502
93	0x3c89d262	0.016823951
94	0x3cb15989	0.021649139
95	0x3ce9b219	0.028527306
96	0x3c6f1b34	0.014593888
97	0x3cc605c6	0.024172675
98	0x3d8e3260	0.06943202
99	0x3dc0b206	0.09408955
100	0x3d6fca8f	0.058542784
101	0x3d068d90	0.03284985
102	0x3d85c9cf	0.065326326
103	0x3cbce6f5	0.023059348
104	0x3c973488	0.018457666
105	0x3d85a0d8	0.06524819
106	0x3d0ac709	0.03388122
107	0x3e16618c	0.14685649
108	0x3c8c3d5f	0.017119108
109	0x3dc12fd8	0.094329536
110	0x3da3557e	0.07975291
111	0x3d5879c6	0.052850507
112	0x3d7bd5c0	0.061483145
113	0x3dbe7cf6	0.09301178
114	0x3d4aef1d	0.049544442
115	0x3d6bb1d3	0.057542633
116	0x3d3bd69c	0.045858964
117	0x3cc3a043	0.02388013
118	0x3d84b190	0.0647918
119	0x3d1c43c0	0.03815055
120	0x3df5e9a0	0.12007451
121	0x3dee94c5	0.11649469
122	0x3d6b780d	0.057487536
123	0x3c74f1d7	0.014950237
124	0x3e0b10a3	0.13580565
125	0x3d86715d	0.06564591
126	0x3da8a3ec	0.082343906
127	0x3e08da12	0.13364437

network.2.running_var f4 [128]
0	0x3c4e19b1	0.0125793675
1	0x3a0ae63d	0.00052985904
2	0x3c145e26	0.00905565
3	0x3d1102b9	0.035402987
4	0x3c768b83	0.015047911
5	0x3af5a9ca	0.0018742618
6	0x3b830e4c	0.003999507
7	0x3cab5095	0.020912448
8	0x3c3bfa02	0.011473181
9	0x3bb82f5d	0.0056208805
10	0x3c5a3ca3	0.013320121
11	0x3cb30bfa	0.021856297
12	0x3cf7ba76	0.030240279
13	0x3c6ac907	0.014330155
14	0x3a360ec0	0.0006944947
15	0x3b0f2ed2	0.0021847975
16	0x3ae1b50c	0.0017220094
17	0x3ad215da	0.0016028241
18	0x3b0b7d2c	0.0021284325
19	0x3a36c361	0.0006971863
20	0x3a1cee1f	0.00059864105
21	0x3be13562	0.006872819
22	0x3b282fe7	0.0025663318
23	0x3abfa63a	0.0014621683
24	0x3b969d10	0.00459636
25	0x3b25135c	0.002518854
26	0x3bd55188	0.0065099634
27	0x3c8e8c4c	0.017400883
28	0x3b4694a4	0.0030301
29	0x3ae35461	0.0017343872
30	0x3cdb2700	0.026751995
31	0x3c138377	0.009003512
32	0x3c35cdb6	0.011096409
33	0x3d606154	0.05478032
34	0x3b1289b4	0.002235991
35	0x3b1c48ed	0.0023847178
36	0x3c238b8e	0.009982003
37	0x3b5e5d1f	0.0033930016
38	0x3c458ad4	0.012057025
39	0x3ca9bea1	0.020720782
40	0x3c780f9e	0.015140442
41	0x3c97b8ff	0.01852083
42	0x3c7e20e9	0.015510776
43	0x3aeb7bf5	0.0017966019
44	0x3c7f8d6f	0.015597685
45	0x3c59e925	0.013300215
46	0x3ba47ff4	0.005020136
47	0x3cee2d41	0.029074313
48	0x3cc7c56e	0.024386134
49	0x3b5f61c1	0.0034085365
50	0x3a575996	0.00082149485
51	0x3c9c3299	0.019067096
52	0x3b412930	0.0029474013
53	0x3be36672	0.0069397027
54	0x3b11e972	0.0022264388
55	0x3c1b24cd	0.009469223
56	0x3c3b7ace	0.011442853
57	0x3ac89f5c	0.0015306282
58	0x3c603043	0.0136833815
59	0x3c014db1	0.007892058
60	0x3a45c468	0.00075442204
61	0x39a7bd6d	0.00031993855
62	0x3b8e7f2d	0.0043486566
63	0x3c2c9ea5	0.010535871
64	0x3d356252	0.04428322
65	0x3c136ef1	0.008998618
66	0x3c23d6ac	0.009999912
67	0x3c7d0b23	0.01544455
68	0x3c90ef8a	0.017692346
69	0x3c329f4f	0.01090224
70	0x3a32f58a	0.00068267493
71	0x3b769e43	0.0037630952
72	0x3a725853	0.0009244729
73	0x3c66f7f8	0.014097206
74	0x3c3382c0	0.010956466
75	0x3cec5bad	0.028852308
76	0x3abc13dd	0.0014349181
77	0x3b8535ef	0.0040652673
78	0x3ced926c	0.029000483
79	0x3ba53fd8	0.005043011
80	0x3c73e095	0.0148850875
81	0x3aac0cac	0.0013126335
82	0x3c6736df	0.014112203
83	0x3b6842fa	0.0035440312
84	0x3b44eb83	0.0030047602
85	0x3c9bf029	0.019035416
86	0x3d2ddf6c	0.0424494
87	0x3a31ea4d	0.00067869277
88	0x3a972806	0.0011532314
89	0x3c368844	0.011140887
90	0x3ba40ad0	0.0050061718
91	0x3acb6074	0.0015516416
92	0x3c5048d8	0.01271268
93	0x3ad70b4b	0.0016406564
94	0x3b3f0bfd	0.0029151433
95	0x3a01f175	0.00049569394
96	0x3aa3ffec	0.0012512184
97	0x3b2f3a8d	0.002673778
98	0x3c34d202	0.011036398
99	0x3c5d368c	0.0135017745
100	0x3c81d133	0.015846824
101	0x3b3b209f	0.002855338
102	0x3c2e72f3	0.010647523
103	0x3c227e67	0.009917832
104	0x3b058fc3	0.0020379878
105	0x3c50adc4	0.012736741
106	0x3bbd8e1c	0.005784763
107	0x3cf2f2e4	0.029656835
108	0x3aa3ae8f	0.0012487936
109	0x3cae8dba	0.021307815
110	0x3d19ea41	0.037576918
111	0x3b8cf8a9	0.0043021035
112	0x3bec25ba	0.007206646
113	0x3ca8666f	0.020556657
114	0x3c413942	0.0117934365
115	0x3ba1f10b	0.0049420646
116	0x3b7fd54a	0.0039037042
117	0x3a6343d7	0.0008669472
118	0x3c5f4886	0.013628131
119	0x3b853377	0.004064973
120	0x3c92eb5c	0.017934494
121	0x3c807922	0.01568276
122	0x3bbf3249	0.005834852
123	0x3a651947	0.00087394234
124	0x3cde5083	0.027138
125	0x3cb5a181	0.022171738
126	0x3c25f9ca	0.010130355
127	0x3cdb9003	0.026802069

network.4.weight f4 [64, 128]
0	0xbcb22edd	-0.021750862
1	0x3b2c4b66	0.0026290058
2	0xbcce036b	-0.025148114
3	0xbd2cdef1	-0.0422048
4	0x3c2a1541	0.010381044
5	0x3c630db1	0.013858245
6	0xba60a25a	-0.0008569114
7	0xbc861d3f	-0.016371367
8	0xbc771c70	-0.015082464
9	0xbc40a3e3	-0.011757824
10	0xbc288bb0	-0.01028721
11	0x3cbc306c	0.022972308
12	0xbc0a52d1	-0.0084425965
13	0x3d0fc6b6	0.035101615
14	0x3a1934b5	0.0005844341
15	0x3c2a9bee	0.010413153
16	0xb9ccd34b	-0.00039067338
17	0x3b80344f	0.0039124857
18	0x3b3f21cc	0.0029164432
19	0x3b163fca	0.0022926205
20	0x3a8f46ec	0.001093117
21	0x3a093f85	0.00052356004
22	0x3b96c35e	0.0046009263
23	0x3b630a6d	0.0034643665
24	0xbbc31877	-0.005953844
25	0x3bf15b79	0.0073656407
26	0xbc398b2c	-0.011324685
27	0xbce25591	-0.027628692
28	0xbbd1a16e	-0.0063974177
29	0xbb7332db	-0.003710917
30	0x3d25610e	0.04037576
31	0x3bf13200	0.007360697
32	0xbd1da48a	-0.038486995
33	0x3b22683b	0.0024781364
34	0x3c08fbcc	0.008360814
35	0xb85ce6ba	-5.266697e-05
36	0x3c014cf3	0.007891881
37	0x3c1120df	0.008857935
38	0xbd04cfa9	-0.032424603
39	0xbd4a5e0e	-0.049406104
40	0xbb8236cc	-0.0039738175
41	0x3bb83ee8	0.0056227334
42	0xbd0429f7	-0.032266583
43	0xbb8b2327	-0.004246134
44	0x3cdebf5a	0.027190853
45	0xbca6019b	-0.020264437
46	0xbc1cf623	-0.009580168
47	0xbcadd8e0	-0.021221578
48	0xbc8c2089	-0.017105358
49	0x38eddcd5	0.00011342174
50	0xbaa953c1	-0.0012918637
51	0x3b22cab7	0.0024840066
52	0xbbef582f	-0.0073042135
53	0xbd0bf629	-0.034170303
54	0xbba264e3	-0.0049558743
55	0xbd14c000	-0.036315918
56	0xbd20acbd	-0.039227236
57	0xbc104d9d	-0.008807567
58	0xbcdbd2da	-0.02683394
59	0x3b65e3e2	0.0035078456
60	0x3bafbee8	0.005363334
61	0xbb3d281b	-0.0028863016
62	0xb9d9e47a	-0.00041559694
63	0xbce3e5fb	-0.027819624
64	0xbcd21545	-0.025644908
65	0x3d621694	0.055197313
66	0xbc992cdc	-0.018698148
67	0xbc4e6f8c	-0.012599837
68	0xbc0ddbfb	-0.008658404
69	0xbb6d515a	-0.003621182
70	0x39c8102a	0.00038159016
71	0xbbfa1fb5	-0.0076331743
72	0x3b496912	0.0030732793
73	0xbcb8984b	-0.022533556
74	0x3d26dd88	0.040738612
75	0xbcb4d7a2	-0.022075478
76	0x3b964efd	0.004587053
77	0xbb8b175d	-0.0042447285
78	0xbcc97599	-0.024592208
79	0x3c1be7b7	0.009515694
80	0xbd4f7038	-0.05064413
81	0xbbdba4bb	-0.006702987
82	0x3d2214d9	0.039570663
83	0xbd050268	-0.032472998
84	0xbc83890f	-0.016056566
85	0x3bdcfdbc	0.0067441147
86	0xbca5aa00	-0.020222664
87	0xbbdebab9	-0.0067971614
88	0x3b381099	0.0028086065
89	0x3bef8f03	0.0073107495
90	0x3c351b71	0.011053906
91	0xbb52c1ec	-0.0032159043
92	0xbcec3fc8	-0.028839007
93	0xbb6c663c	-0.0036071679
94	0x3a535120	0.00080611
95	0x3bb76745	0.0055970275
96	0x3ba44c02	0.0050139436
97	0xbba36591	-0.004986473
98	0xbd1032b5	-0.035204608
99	0x3cc0370c	0.023463748
100	0xbc70e391	-0.014702694
101	0x3c01a332	0.007912444
102	0x3c93ffed	0.01806637
103	0xbc7d722d	-0.015469116
104	0xbc10e70c	-0.008844148
105	0xbd028a85	-0.031870384
106	0xbb4bc802	-0.0031094556
107	0xbc965c45	-0.018354544
108	0x3c743a83	0.014906528
109	0xbd461d63	-0.04836787
110	0x3b8bd880	0.004267752
111	0xb9ec667b	-0.00045089782
112	0xbd19b1d9	-0.037523124
113	0x3baf55fe	0.0053508272
114	0xbc392242	-0.011299672
115	0xbccb975d	-0.02485245
116	0xbc950cf3	-0.018194651
117	0x3a0cd906	0.0005372915
118	0x3b32c59d	0.0027278431
119	0x3ce3c868	0.027805522
120	0xbba18ea8	-0.004930336
121	0xbc32b714	-0.010907907
122	0xbc2a7699	-0.010404252
123	0xba926a85	-0.0011170661
124	0x3b8f806b	0.0043793223
125	0xbd037c6c	-0.03210108
126	0xbce2d4f7	-0.02768944
127	0xbcd246a5	-0.025668452
128	0xb74d3b3c	-1.2232744e-05
129	0x9e76ff15	-1.3075881e-20
130	0xb58f3ce2	-1.067205e-06
131	0xb7da61e2	-2.6033205e-05
132	0xb7c506db	-2.3487422e-05
133	0x1dac1b09	4.5555975e-21
134	0x9f023faa	-2.7581232e-20
135	0xb792f698	-1.7519385e-05
136	0xb616595e	-2.240376e-06
137	0x1c27a6a4	5.5471043e-22
138	0x379f9405	1.9023204e-05
139	0x369ed1df	4.733199e-06
140	0xb87e2000	-6.058812e-05
141	0x38153b01	3.557932e-05
142	0x1e11cf8a	7.719154e-21
143	0xab051a8f	-4.728795e-13
144	0x1d92436e	3.87156e-21
145	0x9d4ad8de	-2.6846595e-21
146	0x1e5cb17e	1.16834075e-20
147	0x9eb5d012	-1.9250176e-20
148	0x1dcb4185	5.38014e-21
149	0x9d0140de	-1.7106543e-21
150	0x1e17122c	7.997631e-21
151	0x9f23b785	-3.4668396e-20
152	0x9e05d144	-7.0842365e-21
153	0x1e903491	1.5268334e-20
154	0xb6e0764f	-6.689493e-06
155	0xb7ea0b63	-2.7900276e-05
156	0xaa2f2984	-1.5557526e-13
157	0x2e5dc0e7	5.0420914e-11
158	0xb9a7f435	-0.0003203467
159	0x29b81dc3	8.176404e-14
160	0xb89c57f7	-7.4550444e-05
161	0xb75a0f2a	-1.2997343e-05
162	0x1c9c92cf	1.0361163e-21
163	0x1c2f8646	5.8076187e-22
164	0xb7972630	-1.8018385e-05
165	0x1e00e302	6.823208e-21
166	0x35f57e98	1.8290766e-06
167	0x38306bae	4.2061954e-05
168	0xb9db9ec3	-0.00041889222
169	0x366b4cd2	3.5062444e-06
170	0xb8e4d32e	-0.000109112225
171	0x9ea37197	-1.7305276e-20
172	0x3988b43e	0.00026074232
173	0x37ade33f	2.0729027e-05
174	0x381c8753	3.731933e-05
175	0xb77c84d2	-1.5051295e-05
176	0xb988bdbc	-0.00026081305
177	0x1c85ad6d	8.846031e-22
178	0x1e652ed9	1.2132847e-20
179	0xb91b4fde	-0.00014811705
180	0x9e5fda50	-1.1850668e-20
181	0x361c4e90	2.329154e-06
182	0x1e9f85eb	1.6890167e-20
183	0x359084d3	1.0767493e-06
184	0xb8da3bdc	-0.000104062
185	0x1e53db5b	1.1215609e-20
186	0xb98d7950	-0.00026984
187	0x1b8e2446	2.351537e-22
188	0x9dabb070	-4.5445755e-21
189	0x1cc6b7a5	1.3150012e-21
190	0x21931216	9.965895e-19
191	0xa9236fc2	-3.6290205e-14
192	0xb93402bb	-0.00017167155
193	0x37936e55	1.7575143e-05
194	0xb82a3316	-4.0578736e-05
195	0xb6e02638	-6.6801695e-06
196	0x29843293	5.870751e-14
197	0x1b9eeac2	2.6290616e-22
198	0x9cfd69e7	-1.6769511e-21
199	0x1f5cfa5d	4.6793908e-20
200	0x9e400c1c	-1.01668995e-20
201	0xb6e02247	-6.6797106e-06
202	0x37fd21be	3.0175663e-05
203	0xb91df97a	-0.00015065624
204	0x1bec9f6b	3.9145946e-22
205	0x9c0d51a9	-4.675853e-22
206	0x36792d75	3.713035e-06
207	0x9dc6101f	-5.2426832e-21
208	0xb9aab3f0	-0.0003255899
209	0x1cc273fb	1.2867823e-21
210	0x3676fdd3	3.6804602e-06
211	0x3891397a	6.924845e-05
212	0xb7d0b56a	-2.488001e-05
213	0xb62be740	-2.561559e-06
214	0xba139938	-0.00056304364
215	0x9c445aa6	-6.496812e-22
216	0x9b10f450	-1.1990342e-22
217	0xb71010ed	-8.58701e-06
218	0x1f8831a7	5.7680383e-20
219	0x1981def3	1.3428336e-23
220	0x36a0d643	4.793315e-06
221	0x9c86c779	-8.918939e-22
222	0x1c0cc124	4.6571743e-22
223	0x9cce8291	-1.3665687e-21
224	0x1abf4bb9	7.9118085e-23
225	0x1af767d5	1.02324555e-22
226	0x379e6022	1.8879833e-05
227	0x343160f7	1.6519685e-07
228	0x38c41b97	9.351147e-05
229	0x9b16c0a1	-1.2469951e-22
230	0x38b4f226	8.6281725e-05
231	0xb3d3f221	-9.869496e-08
232	0x1e66627c	1.2196465e-20
233	0xb871ac59	-5.761939e-05
234	0x1ebc75ef	1.995405e-20
235	0xb7940f91	-1.7650224e-05
236	0x1e2bbf10	9.0921754e-21
237	0xb8182858	-3.6277197e-05
238	0xb8276885	-3.9913244e-05
239	0x1ef645d0	2.6075137e-20
240	0x36b81025	5.485507e-06
241	0x3827a686	3.997099e-05
242	0xb8ea0f20	-0.00011160807
243	0x36ea2619	6.9781786e-06
244	0x9ec86407	-2.1217194e-20
245	0x1bd2edc4	3.4895238e-22
246	0x37ce30b5	2.4579795e-05
247	0x1cd99c7a	1.4400304e-21
248	0xb923f796	-0.00015637124
249	0xb9d3a84b	-0.00040370444
250	0x3792ec87	1.7514698e-05
251	0x1c93ff9e	9.79372e-22
252	0x3645c904	2.9472294e-06
253	0x3746c0b9	1.1846591e-05
254	0x39307efc	0.00016831973
255	0xba30e184	-0.00067474716

network.4.bias f4 [64]
0	0xbcaa783c	-0.020809285
1	0xbb5fc76f	-0.0034145971
2	0xbd116872	-0.035499997
3	0xbc26eaca	-0.010187814
4	0x3bcc4d1c	0.006234778
5	0x3c24ef6f	0.010066851
6	0x3d315552	0.04329426
7	0xbcf9a770	-0.030475348
8	0xbc6395eb	-0.013890724
9	0xbd8fa041	-0.07012988
10	0x3c7e84c3	0.015534583
11	0xbd0ddd14	-0.034634665
12	0xbd0a6c24	-0.033794537
13	0xa553fc31	-1.8386778e-16
14	0x3c8d7e4e	0.01727214
15	0xbd910b98	-0.070822895
16	0xbcb543d0	-0.022127062
17	0xbc9870db	-0.018608501
18	0xbcb662be	-0.02226388
19	0xbcaff005	-0.021476755
20	0xb49e58d9	-2.9494439e-07
21	0xbcae8598	-0.021303937
22	0xbcc416f4	-0.023936726
23	0xbcf308ef	-0.029667346
24	0xbcea65b2	-0.028612945
25	0x3d8f3690	0.06992829
26	0x3cade506	0.021227371
27	0xbd114da9	-0.035474453
28	0xbc909ee5	-0.017653892
29	0x3d5bca5b	0.053659778
30	0xbcc7e718	-0.024402186
31	0x3ceae575	0.028673867
32	0xbc3189f3	-0.010836112
33	0x3d440b4d	0.04786234
34	0xbd42579c	-0.047446832
35	0x3c6aecd8	0.0143386945
36	0xbd1208f1	-0.03565306
37	0x3a7a8c15	0.0009557617
38	0x3b78dc4a	0.00379731
39	0xb9942ae8	-0.00028260727
40	0xbd0aad93	-0.03385694
41	0x3d24f685	0.04027416
42	0xbcd85867	-0.026409341
43	0xbc12808b	-0.00894178
44	0xbc37a003	-0.011207583
45	0xbc1a558b	-0.009419809
46	0xbccaf293	-0.024773872
47	0x3ca2b8b0	0.019863456
48	0xbd207260	-0.039171576
49	0xbcc8ce84	-0.024512537
50	0x3d264bc0	0.040599585
51	0x3a806ee0	0.0009798668
52	0xbca0dc49	-0.01963629
53	0xbd40765b	-0.046987873
54	0xbc9e9369	-0.0193574
55	0xbcbfc44e	-0.023409035
56	0xbd2ecac0	-0.042673826
57	0xbcb412d2	-0.02198163
58	0xbcddc325	-0.027070591
59	0xbd17045b	-0.036869388
60	0xb0c08736	-1.4008268e-09
61	0x3ced3787	0.028957142
62	0xbd195738	-0.037436694
63	0x3c516e45	0.012782638

network.6.weight f4 [64]
0	0x3e078c59	0.13237132
1	0xba0a5a29	-0.0005277717
2	0x3e2f60df	0.17126797
3	0x3da12848	0.07869011
4	0x3dab0f3e	0.083525166
5	0xbca90219	-0.020630883
6	0xbd6de231	-0.05807704
7	0x3e303728	0.1720854
8	0x3dee8e42	0.11648227
9	0xbdf8f3f8	-0.12155908
10	0x3da862f5	0.082219996
11	0x3db21de2	0.08697106
12	0x3e2f2a22	0.17105916
13	0x355660da	7.986215e-07
14	0x3d8f9856	0.07011478
15	0x3e4a6113	0.19763593
16	0x3e06df9d	0.13171239
17	0x3c52c50d	0.012864363
18	0x3e055570	0.13020873
19	0x3e10d5ac	0.1414401
20	0x3860f942	5.36379e-05
21	0xbe1058c5	-0.14096363
22	0x3e0df5d6	0.1386331
23	0x3df6a4a5	0.12043122
24	0xbddb1d0f	-0.10698902
25	0x3d6209d4	0.055185154
26	0x3de82e2b	0.11336931
27	0x3dfce466	0.12348251
28	0x3de42450	0.111397386
29	0x3d59b8b2	0.053154655
30	0x3b064072	0.002048519
31	0x3d821af7	0.063527994
32	0xbdb59cf8	-0.0886783
33	0x3ce5a699	0.028033542
34	0xbe5dd995	-0.21665032
35	0xbd763404	-0.0601082
36	0x3e4bd54f	0.1990559
37	0xbda4c2c8	-0.08044964
38	0x3db85a89	0.09001643
39	0x3a969687	0.0011488952
40	0x3e362085	0.17785843
41	0x3da30e4f	0.079617135
42	0xbdfeb3bd	-0.12436626
43	0x3dc8c247	0.098026805
44	0xbb2bac39	-0.0026195182
45	0xb9eddc36	-0.00045368233
46	0xbdebba4e	-0.11510144
47	0x3d8f687a	0.07002349
48	0xbd9fb86b	-0.07798847
49	0x3dedca5a	0.11610861
50	0x3d7fc871	0.062447015
51	0xbdabb3b4	-0.08383885
52	0x3b7d9a9c	0.003869689
53	0xbc865b76	-0.016401034
54	0x3d95744d	0.07297573
55	0xbd7a5d2f	-0.061124023
56	0xbe6fecee	-0.23430225
57	0x3d8b42be	0.067998394
58	0x3e09cece	0.13457796
59	0x3e4be3c0	0.19911098
60	0xb93fc08c	-0.00018286909
61	0x3d69cb92	0.057078905
62	0xbe27ada3	-0.16374831
63	0x3d2857de	0.04109942

network.6.bias f4 [64]
0	0x3be22467	0.006901312
1	0xba32f984	-0.0006827342
2	0x3aa82795	0.0012829179
3	0xbc06ebec	-0.008234959
4	0x3d4887f9	0.0489578
5	0xbc3c3d25	-0.011489187
6	0xbd394f9e	-0.045241944
7	0xb9ccc6c6	-0.0003905801
8	0x3b2fca54	0.0026823478
9	0x3c1ce622	0.009576352
10	0x3d16ea0f	0.03684431
11	0xba4101b0	-0.0007362617
12	0xbc39bf43	-0.011337104
13	0x3d0cbcc5	0.034359712
14	0x3d3c948f	0.046040114
15	0xbc2edff5	-0.010673513
16	0xbc07d22a	-0.008289853
17	0x3acd1cbc	0.0015648822
18	0x3ae79e20	0.0017671026
19	0xbc4ef8e3	-0.012632581
20	0x38057d0f	3.182614e-05
21	0x3b1841e8	0.0023232643
22	0xbc41fd5d	-0.011840192
23	0x3c79bb34	0.015242387
24	0xbaf2c364	-0.0018521366
25	0x3d467d19	0.048459146
26	0x3d9b248b	0.075753294
27	0xbb605b0d	-0.0034233958
28	0x3bee0dc1	0.007264823
29	0x3d3e6f87	0.04649308
30	0xbc037c10	-0.008025184
31	0x3d09286f	0.033485826
32	0xbc416294	-0.011803288
33	0x3c4880b2	0.012237715
34	0x3c7601fd	0.0150151225
35	0x3c158b31	0.009127424
36	0xbc809e90	-0.015700608
37	0x3c487c8c	0.012236726
38	0x3d5fbf62	0.054625876
39	0x3c315319	0.010823035
40	0xba175c6e	-0.0005773966
41	0x3d7a55c7	0.06111696
42	0xb81e5d04	-3.7756763e-05
43	0x3d763ecf	0.060118493
44	0x3b579288	0.0032893736
45	0xba5f31d4	-0.00085142
46	0x3c25ab84	0.010111693
47	0x3cf2dce0	0.029646337
48	0x3ca77d2b	0.020445427
49	0x3c118413	0.008881587
50	0x3d2089ab	0.03919379
51	0xbd2d48ef	-0.042305883
52	0x3bb0fe08	0.0054013766
53	0xb9d307f9	-0.00040250996
54	0xba733026	-0.0009276889
55	0xbcb960c7	-0.022629155
56	0x3be913e6	0.007112968
57	0xbbc9b93c	-0.006156115
58	0x3b78af1f	0.0037946177
59	0x3b10e370	0.002210822
60	0x3abb1f59	0.001427631
61	0x3d0c8218	0.034303755
62	0x3cbcd1e3	0.0230493
63	0xbca42b3b	-0.020040145

network.6.running_mean f4 [64]
0	0x3a76cad5	0.00094143796
1	0x002db25a	4.196578e-39
2	0x39dde72b	0.00042324638
3	0x3ad9562b	0.0016581466
4	0x3d8e76a9	0.069562264
5	0x3d09f35c	0.03367935
6	0x3dc3ddd7	0.09563797
7	0x3a135c56	0.0005621364
8	0x3a4e374d	0.0007866517
9	0x0dd63879	1.3202364e-30
10	0x3d4e30c6	0.050339483
11	0x37e92e72	2.7797392e-05
12	0x39aa09c3	0.000324322
13	0x00000004	6e-45
14	0x3d9c7a9d	0.07640574
15	0x38151775	3.5546214e-05
16	0x3a84e6e1	0.0010139608
17	0x3a7101cb	0.00091936876
18	0x3afcc3c4	0.0019284417
19	0x39109180	0.00013787113
20	0x00000004	6e-45
21	0x3a70550a	0.0009167945
22	0x3a7e7cf9	0.00097079534
23	0x3b022a21	0.0019861537
24	0x3a82573f	0.0009944214
25	0x3dc2249d	0.0947964
26	0x3d5d8776	0.054084264
27	0x38ca3857	9.642605e-05
28	0x3b261c68	0.0025346521
29	0x3d9772e4	0.073949605
30	0x00000004	6e-45
31	0x3d6dd516	0.058064543
32	0x3bf6f7ea	0.007536878
33	0x3da7cbda	0.081931785
34	0x38cd1851	9.779691e-05
35	0x3c78d498	0.015187405
36	0x39cd2986	0.00039131584
37	0x3ae7a776	0.0017673809
38	0x3ceec90e	0.029148605
39	0x00000004	6e-45
40	0x390f7644	0.000136816
41	0x3de41ed2	0.11138691
42	0x3b333295	0.0027343382
43	0x3d41adaa	0.04728476
44	0x1f7775ab	5.2401617e-20
45	0x00000017	3.2e-44
46	0x3a611ef1	0.00085876795
47	0x3d9c539c	0.07633135
48	0x39b13cbf	0.0003380533
49	0x3b303663	0.0026887886
50	0x3cf2ea9a	0.029652882
51	0x3d097cac	0.033566162
52	0x3ae06ae4	0.00171217
53	0x00000004	6e-45
54	0x392fa5b1	0.00016751025
55	0x3c922fc2	0.017845038
56	0x392cb0d0	0.00016469066
57	0x3b112c9e	0.0022151838
58	0x3a4859ed	0.00076427945
59	0x388a2974	6.588074e-05
60	0x00000004	6e-45
61	0x3d234f1b	0.039870363
62	0x39ad4cb2	0.00033054274
63	0x3c84b3a2	0.016198937

network.6.running_var f4 [64]
0	0x3841a5ac	4.616908e-05
1	0x00001595	7.742e-42
2	0x373575da	1.081588e-05
3	0x38a6a6c0	7.9465564e-05
4	0x3b176e28	0.002310643
5	0x3a1b23a2	0.00059180905
6	0x3ae4e123	0.0017462116
7	0x37974797	1.803394e-05
8	0x380628c1	3.1986045e-05
9	0x0ac57b3f	1.901677e-32
10	0x3b3624e0	0.0027792975
11	0x358e0d80	1.0583753e-06
12	0x37902b81	1.7186396e-05
13	0x00000004	6e-45
14	0x3b015bcc	0.0019738553
15	0x35f6a0f6	1.8375274e-06
16	0x37fe77b3	3.0334899e-05
17	0x378edfe0	1.7031969e-05
18	0x38539a5a	5.045007e-05
19	0x36d3e502	6.31495e-06
20	0x00000004	6e-45
21	0x3843ddf1	4.6698322e-05
22	0x384c591b	4.8720376e-05
23	0x388f64fa	6.83758e-05
24	0x38552561	5.081797e-05
25	0x3abde689	0.001448826
26	0x3b670dc4	0.0035256008
27	0x36409280	2.8695504e-06
28	0x38b63362	8.688007e-05
29	0x3ac2d1d9	0.0014863565
30	0x00000004	6e-45
31	0x3ab7eb40	0.0014031902
32	0x3977e448	0.00023640797
33	0x3a3f3424	0.00072938413
34	0x364ce55f	3.053188e-06
35	0x39d53bdf	0.00040671133
36	0x37da117d	2.5995769e-05
37	0x38a2178b	7.729147e-05
38	0x3ab6c93c	0.001394547
39	0x00000004	6e-45
40	0x3681f28b	3.8727353e-06
41	0x3b3ca3d0	0.0028784163
42	0x39033e59	0.0001251636
43	0x3b54bbbd	0.0032460534
44	0x1b4ce9d2	1.6950036e-22
45	0x00000004	6e-45
46	0x3803fb05	3.1466614e-05
47	0x3b07f05f	0.0020742638
48	0x37e4f450	2.7293485e-05
49	0x38f8dbda	0.00011866512
50	0x3aa35825	0.0012462182
51	0x3ae04d7f	0.0017112939
52	0x380628b0	3.1985983e-05
53	0x00000004	6e-45
54	0x364c4384	3.0437668e-06
55	0x3a8dc8c3	0.0010817278
56	0x370ee96b	8.518206e-06
57	0x38c89381	9.564218e-05
58	0x38058b65	3.1839492e-05
59	0x360fbd96	2.1419014e-06
60	0x00000004	6e-45
61	0x3a94b44d	0.0011345238
62	0x37d7b51f	2.5714338e-05
63	0x39ff363b	0.00048677795

network.8.weight f4 [32, 64]
0	0x3c72b6ce	0.014814092
1	0xba19cd9c	-0.0005867125
2	0x3abba8da	0.001431729
3	0x3d261c64	0.04055442
4	0xbcf81ba4	-0.030286618
5	0x3c895bc0	0.016767383
6	0x3d6bab38	0.057536334
7	0x3c81e32e	0.015855398
8	0x3d3cc5eb	0.046087187
9	0x3c0c68c5	0.008569901
10	0xbc983245	-0.018578658
11	0xbcb43960	-0.022000015
12	0x3ccf9c96	0.02534322
13	0xba9c78a1	-0.0011937806
14	0xbd25f514	-0.040516928
15	0xbce6f261	-0.028191747
16	0x3c9c6304	0.019090183
17	0x3a781f74	0.0009465136
18	0xbcb89c86	-0.022535574
19	0xbabe4072	-0.0014515056
20	0x39818c94	0.00024709536
21	0xbc45150c	-0.012028944
22	0x3cab9ce2	0.020948831
23	0xbdac5552	-0.08414711
24	0x3c870ff1	0.016487094
25	0xbc84dedb	-0.016219547
26	0x3c2e84da	0.0106517915
27	0x3d6afd71	0.057370607
28	0xbccdf66f	-0.025141923
29	0x3c91d3ce	0.017801192
30	0x3b4005e7	0.0029300393
31	0xbd0352ea	-0.032061495
32	0xbbc6e631	-0.0060699214
33	0xbd162fd9	-0.036666725
34	0xbc7c83e0	-0.015412301
35	0x3c79e645	0.015252654
36	0x3c29459a	0.010331536
37	0xbc2ba423	-0.010476145
38	0x3cdc0105	0.026855955
39	0xbc8a828a	-0.016907949
40	0x3c8d1f2c	0.017226778
41	0xba0f697c	-0.00054707355
42	0x3d9c052d	0.07618175
43	0x3bb5b98f	0.005545802
44	0xbb1586d7	-0.0022815967
45	0xbbf021b4	-0.0073282365
46	0xbcc04669	-0.023471074
47	0xbd1f48ea	-0.038887896
48	0x3d731470	0.059345663
49	0xbd92b697	-0.071637325
50	0x3cb1af9e	0.021690186
51	0x3c97b8f4	0.01852081
52	0x3aea0aba	0.001785598
53	0xbab0ed53	-0.0013498463
54	0x3b44b8d0	0.0030017383
55	0xbc013c0b	-0.0078878505
56	0xbcb5d688	-0.022197023
57	0xbdbf2e71	-0.0933503
58	0x3ce00e98	0.027350709
59	0x3cc816a3	0.024424857
60	0xbaf5aa9f	-0.0018742866
61	0xbc38e7fa	-0.011285776
62	0x3d833fed	0.06408677
63	0x3cb76360	0.022386253
64	0xbcb72016	-0.022354167
65	0xbb28297e	-0.0025659497
66	0xbd007042	-0.031357057
67	0x3c39bbb6	0.011336258
68	0xbda67c57	-0.08129185
69	0x3c5f3bd0	0.0136251
70	0x3d2735a1	0.04082263
71	0xbd07dce7	-0.033169653
72	0x3c43bf61	0.011947484
73	0x3afa6ff5	0.0019106852
74	0xbaa034df	-0.0012222788
75	0xbcb9bf5d	-0.022674257
76	0xbce4a6e4	-0.02791161
77	0x3c9455fd	0.018107409
78	0xbd7d7819	-0.061882112
79	0xbbe5343e	-0.006994753
80	0x3c6f0a89	0.014589914
81	0x3b912952	0.0044299746
82	0xbbc9deb4	-0.0061605815
83	0x3d169138	0.036759585
84	0x3b19d9e8	0.002347583
85	0xbc30971e	-0.010778217
86	0xbccab32c	-0.024743639
87	0xbbb11e97	-0.005405258
88	0x3d39803d	0.045288313
89	0x3cc9ef0e	0.024650123
90	0x3c23df96	0.0100020375
91	0x3d3a58e6	0.045494936
92	0x3c842d5b	0.016134908
93	0x3b215a4d	0.0024620474
94	0x3a9b0c45	0.0011829218
95	0x3cfc5ffa	0.030807484
96	0xbcd8941a	-0.026437808
97	0xbccd381b	-0.025051167
98	0xbd1b5db2	-0.03793115
99	0xbd02652e	-0.031834774
100	0xbd10160c	-0.035177276
101	0xbd395909	-0.045250926
102	0xbd6e879c	-0.058234796
103	0x3b046ea5	0.002020755
104	0x3caf7314	0.021417178
105	0xbd994cf7	-0.07485383
106	0xbc2ec858	-0.010667883
107	0xbce81fa9	-0.02833541
108	0x39a00ed6	0.00030528632
109	0x3b2856e5	0.0025686559
110	0xbcbf3581	-0.023340942
111	0xbd615c89	-0.05501989
112	0xbce36d5b	-0.027762106
113	0x3c776523	0.0150997965
114	0xbda5683a	-0.0807652
115	0xbc8881e0	-0.016663492
116	0x3b404cf4	0.0029342743
117	0xbad8fcce	-0.0016554834
118	0x3cc51939	0.024059879
119	0x3d050d29	0.032483254
120	0xbcac09cd	-0.021000767
121	0x3b4ba2a9	0.0031072295
122	0xbcad84ba	-0.021181453
123	0x3caec51a	0.02133422
124	0x3b2e5569	0.0026601201
125	0xbd3ef3bb	-0.04661916
126	0xbc5a8d19	-0.013339304
127	0x3bff5d33	0.0077930926
128	0x3cb4e4a5	0.022081682
129	0x3bbfc284	0.0058520455
130	0xbda9dc7a	-0.08294006
131	0x3d74bc88	0.05975011
132	0xbb912144	-0.0044290144
133	0x3c030733	0.007997322
134	0x3bee21fb	0.0072672344
135	0xbd954d6c	-0.07290158
136	0xbdaec496	-0.085335895
137	0x3c9f3bbf	0.019437669
138	0x3a411c5e	0.0007366593
139	0xbd0f2d68	-0.034955412
140	0xbdb793b9	-0.08963723
141	0xbd0ae3b1	-0.03390855
142	0x3bc81d14	0.006106982
143	0xbd6c5b1e	-0.057704084
144	0x3aa58b57	0.0012630027
145	0xbac7829e	-0.0015221422
146	0xbd2a7729	-0.041617546
147	0xbd88cfce	-0.066802606
148	0xbb343e06	-0.002750279
149	0xbd2d31e1	-0.042283896
150	0x3c6fe6c7	0.014642424
151	0x3bf56cb4	0.007489765
152	0x3c48af90	0.012248889
153	0x3c35cdde	0.011096446
154	0xbb36e0ab	-0.0027904909
155	0x3d5c72a6	0.053820275
156	0x3cf60851	0.030033262
157	0x3a64225d	0.00087026303
158	0x3bdb701b	0.0066967136
159	0xbbb5357d	-0.005530058
160	0xbd275a8d	-0.04085784
161	0x3c0712b2	0.008244203
162	0xbd08e609	-0.033422504
163	0x3d1a0457	0.037601795
164	0xbdae04de	-0.08497022
165	0x3c09d238	0.008411936
166	0xbc76149d	-0.015019563
167	0xbc9b68ec	-0.01897093
168	0xbd24df0a	-0.04025177
169	0xbc08aeb2	-0.008342432
170	0xbbec7436	-0.007216002
171	0xbb329006	-0.002724649
172	0x3abc1a00	0.001435101
173	0xb90a8bbb	-0.00013212759
174	0x3c88073c	0.016605012
175	0x3c5fd753	0.013662177
176	0x3d691621	0.05690587
177	0x3b64629a	0.003484881
178	0xbb5807fb	-0.003296374
179	0x3cc30ab1	0.023808809
180	0x3c41f947	0.0118392175
181	0xbb331488	-0.002732547
182	0xbcb6fae8	-0.022336438
183	0x3bb2eae8	0.005460132
184	0xbd1402c5	-0.036135454
185	0xbd08ae2d	-0.033369232
186	0x3d4442a4	0.047915116
187	0xbd6a98a1	-0.057274465
188	0x3b40cffb	0.002942084
189	0xba9087be	-0.0011026782
190	0x3da8cd3a	0.08242269
191	0x3bf639d0	0.007514216
192	0xbc8043d4	-0.015657343
193	0xbab2bbae	-0.0013636255
194	0xbd36507a	-0.044510342
195	0xbcab83fe	-0.020936962
196	0xbd768bb2	-0.060191818
197	0x3c647de9	0.013946035
198	0x3d34123c	0.043962702
199	0xbd4833c4	-0.048877493
200	0xbd8f0751	-0.06983817
201	0x3b7a1a4e	0.0038162651
202	0x3d85c19d	0.065310694
203	0xbc5c5b77	-0.013449541
204	0xbb8ecf88	-0.0043582357
205	0xba8b0c55	-0.0010608534
206	0xbd8ff07f	-0.07028293
207	0xbcdaa6b1	-0.026690813
208	0xbcf88e13	-0.030341184
209	0xbb552d3a	-0.0032528178
210	0xbd35c4a3	-0.04437698
211	0xbd6e0740	-0.058112383
212	0xbabfb65c	-0.0014626491
213	0x3d2a9325	0.041644234
214	0xbd3e163d	-0.046407927
215	0x3c0ebd33	0.008712101
216	0x3cbd390a	0.023098487
217	0x3cc54e34	0.024085142
218	0x3d340912	0.043953963
219	0xbcfa05ab	-0.03052028
220	0xbc3f4af7	-0.011675588
221	0x3c3079d8	0.010771237
222	0xbbedc9a2	-0.0072567025
223	0xbda39919	-0.079881854
224	0x3dbdd58d	0.09269247
225	0x3c740929	0.014894762
226	0x3cbbe4f1	0.022936316
227	0x3d04d78d	0.032432128
228	0x3cd3290e	0.025776412
229	0x3dbd2e04	0.092372924
230	0x3d181483	0.037128936
231	0xbc3e4b6e	-0.0116146635
232	0xbcf2755a	-0.029596973
233	0x3bd294a4	0.0064264107
234	0x3bc93bc2	0.006141157
235	0x3d2fddc8	0.042936116
236	0xbb3dcca8	-0.0028961096
237	0xbc0e8f8e	-0.008701218
238	0x3bd69662	0.0065486887
239	0xbcdabf28	-0.026702479
240	0x3ca59237	0.020211322
241	0x3c0c5001	0.008563996
242	0x3d6d86c9	0.05798987
243	0xba6768da	-0.0008827575
244	0x3b79916e	0.0038081068
245	0x3b0a9080	0.0021143258
246	0xbced4e87	-0.028968109
247	0xbd31b6e2	-0.0433873
248	0x3cbcc14b	0.023041388
249	0xbd0e02e9	-0.034670744
250	0xbc5df033	-0.0135460375
251	0xbcca9c5d	-0.024732763
252	0xbcb402a8	-0.021973923
253	0xbcf79caf	-0.03022608
254	0x3d43702f	0.04771441
255	0xbd847d22	-0.0646918

network.8.bias f4 [32]
0	0x3d492a1e	0.04911243
1	0xbbf7babd	-0.0075601027
2	0x3d91c4dd	0.07117627
3	0x3c99e2cf	0.018784909
4	0xbb875045	-0.004129442
5	0x3d0cdad9	0.034388397
6	0x3d2a2009	0.041534457
7	0x3b9f8068	0.004867602
8	0x3d8d955f	0.06913256
9	0xbbcb2f5e	-0.006200715
10	0xbc26840e	-0.01016332
11	0xbbea689d	-0.007153584
12	0xbc3e5cdb	-0.011618818
13	0xbc0a5eae	-0.008445425
14	0x3d709e68	0.058744818
15	0x3d2a6a88	0.041605502
16	0x3d3668f4	0.044533685
17	0x3da948d5	0.08265845
18	0xbc1ab496	-0.009442469
19	0x3b2d1ca2	0.0026414772
20	0x3cb5ee22	0.022208277
21	0x3d297011	0.04136664
22	0x3d1a74ca	0.037709035
23	0xbbcc159e	-0.006228163
24	0x3d5c43cf	0.053775605
25	0x3ddd722f	0.108127944
26	0x3d865f41	0.06561137
27	0x3d10fc10	0.035396636
28	0x3d28d406	0.041217826
29	0x3de746ff	0.11292838
30	0x3d9d192b	0.07670816
31	0xbc2cfb35	-0.010557939

network.10.weight f4 [32]
0	0x3f3c32ef	0.7351522
1	0x3f2367c6	0.6383022
2	0x3f338703	0.70127887
3	0x3f0605bd	0.52352506
4	0x3f274c89	0.6535116
5	0x3f54e38f	0.83159727
6	0x3f4c7ac7	0.79874843
7	0x3f464e90	0.77463627
8	0x3f46efdf	0.77709764
9	0x3ef4aa66	0.47786254
10	0x3ee076c3	0.43840608
11	0x3f010e49	0.5041242
12	0x3f18a965	0.59633476
13	0x3f048713	0.51768607
14	0x3f50e798	0.81603384
15	0x3f56b848	0.8387494
16	0x3f507aa4	0.81437135
17	0x3f3f49c5	0.7472194
18	0x3f334f79	0.7004314
19	0x3f166fcc	0.5876434
20	0x3f26581b	0.6497819
21	0x3f5ab5b6	0.8543352
22	0x3f5f40e9	0.8720842
23	0x3f21b0f2	0.6316062
24	0x3ed29dd7	0.41136047
25	0x3ef0c689	0.4702647
26	0x3f5124ec	0.81696963
27	0x3f5b5886	0.8568195
28	0x3f3d0f54	0.73851514
29	0x3ee9f68c	0.45695913
30	0x3f3b1280	0.73075104
31	0x3eeedb7c	0.46651828

network.10.bias f4 [32]
0	0xbef08e47	-0.4698355
1	0xbf083438	-0.5320468
2	0x3e38ad6f	0.1803491
3	0x3ef6015b	0.4804791
4	0xbef58107	-0.47950003
5	0x3eb0b08e	0.345097
6	0x3ebd730a	0.3700183
7	0xbf09aaf6	-0.5377649
8	0xbe218088	-0.15771687
9	0xbe3c590c	-0.18393344
10	0xbea13e76	-0.31492966
11	0xbf06abbe	-0.5260581
12	0xbf04e250	-0.51907825
13	0xbf0d3917	-0.5516524
14	0xbe9e6e55	-0.30943552
15	0x3e7ed7ab	0.24886958
16	0xbe93d672	-0.28874546
17	0xbd35fd4c	-0.044431016
18	0xbedb1a4a	-0.42793494
19	0xbf040fa2	-0.51586354
20	0xbb9343b7	-0.004494156
21	0x3ed10014	0.40820372
22	0x3eecab23	0.46224317
23	0xbee035a9	-0.4379094
24	0xbed5fd94	-0.41795027
25	0x3ed964eb	0.42459807
26	0x3d7d08c7	0.06177595
27	0x3ee20ed9	0.44151953
28	0xbedbcfb9	-0.42931917
29	0x3edcfa9b	0.43159947
30	0x3e36b236	0.1784142
31	0xbeb048ca	-0.34430534

network.10.running_mean f4 [32]
0	0x3d3c490a	0.045968093
1	0x3b55afbb	0.0032605964
2	0x3d9d448e	0.076790914
3	0x3d154ca2	0.036450036
4	0x3ae240cb	0.0017261741
5	0x3d144bee	0.036205225
6	0x3d414bf0	0.04719156
7	0x3b705f0b	0.0036677744
8	0x3d9ab94f	0.07554876
9	0x3ae4ef87	0.0017466404
10	0x3ad6d74c	0.0016391068
11	0x3b9a0a29	0.004700918
12	0x3ae63935	0.0017564656
13	0x3b34f50c	0.002761188
14	0x3d5560f6	0.052094422
15	0x3d5996a2	0.05312217
16	0x3d47741c	0.048694715
17	0x3d9cf4f2	0.07663907
18	0x3b3db0c5	0.0028944474
19	0x3bb25349	0.0054420573
20	0x3c5e3a8e	0.013563765
21	0x3d40f1f7	0.047105756
22	0x3d3b8f34	0.045790866
23	0x3b9469f0	0.0045292303
24	0x3d316872	0.043312497
25	0x3e09ac7c	0.13444704
26	0x3d921345	0.071325816
27	0x3d22bb2c	0.039729282
28	0x3cdc91f3	0.026925063
29	0x3e0d9bd3	0.13828973
30	0x3d8e1a36	0.06938593
31	0x3acbd743	0.0015551824
