models/mlp_multiclass_crossentropy20250905_015622.pth (torch, 82786 bytes, 21 tensors)

network.0.weight f4 [128, 50]
0	0xba8a0dba	-0.0010532655
1	0xbca64eca	-0.020301241
2	0x3b8e17a6	0.004336315
3	0x3c325816	0.010885259
4	0xbc40458c	-0.011735331
5	0xbde8f248	-0.113743365
6	0xbdcbc2ae	-0.099492416
7	0x3bfa00f7	0.0076295095
8	0xbc63ecce	-0.013911439
9	0x3c509358	0.012730442
10	0xbc1e7584	-0.009671573
11	0x3d80e208	0.06293112
12	0x3c0053cc	0.007832479
13	0xbb947c93	-0.004531452
14	0xbabb3096	-0.0014281448
15	0x3d2c5c06	0.042079948
16	0xbc38dfa5	-0.01128379
17	0xbd099810	-0.033592284
18	0xbccf8975	-0.0253341
19	0x3e00bb12	0.12571362
20	0x39334ffc	0.00017100567
21	0xbbf46237	-0.007457997
22	0x3ca45a1e	0.020062502
23	0xbc28e38b	-0.010308157
24	0xbab82540	-0.0014049187
25	0x3c52a3d3	0.012856442
26	0xb854e72d	-5.0760038e-05
27	0x3c715610	0.014729992
28	0x3d65642f	0.056003746
29	0x3b481b49	0.0030533841
30	0xbcb230f0	-0.02175185
31	0xbc458e0f	-0.012057795
32	0xbd80312f	-0.06259381
33	0xbdf0f8e0	-0.11766219
34	0xbb169b52	-0.0022980762
35	0xbc211a58	-0.009832941
36	0x3c0fc08b	0.008773933
37	0x3c8114eb	0.015757045
38	0x3ccdff0a	0.025146026
39	0xbb86863e	-0.0041053584
40	0xba0c4608	-0.00053510116
41	0xbcc13bb2	-0.023588035
42	0x3cfaf549	0.03063454
43	0xbd383bb6	-0.04497882
44	0xbd2a39ef	-0.041559156
45	0xbb90729e	-0.0044081947
46	0x39d11719	0.00039880796
47	0xbc8984d1	-0.016786965
48	0xbc0c5620	-0.008565456
49	0x3c0bd873	0.008535492
50	0x3aad0116	0.0013199176
51	0xbaad7019	-0.001323226
52	0x3a0c84b8	0.0005360353
53	0x3b8870fb	0.004163859
54	0xbb04288c	-0.002016577
55	0x3b17c472	0.0023157862
56	0xba80cab9	-0.0009826041
57	0xbb08f1ec	-0.002089615
58	0xbb976860	-0.0046205968
59	0x3a4bdd0d	0.00077767746
60	0xb8e032f6	-0.000106906446
61	0x3acace68	0.0015472891
62	0xbaa8bc7f	-0.0012873559
63	0xb993829b	-0.00028135334
64	0x3c4d121a	0.012516523
65	0xb970180e	-0.00022897145
66	0xbaa13ed3	-0.0012302048
67	0x397a0d1c	0.00023846742
68	0x3b639021	0.0034723359
69	0x3a9c02fe	0.0011902747
70	0xbae29d40	-0.0017289296
71	0xbb2e97f9	-0.0026640876
72	0xb8a6883e	-7.940874e-05
73	0x3bcb9af7	0.0062135416
74	0xb9ec156c	-0.00045029388
75	0xb99c0030	-0.00029754778
76	0xbb78a596	-0.0037940494
77	0x3c4f0195	0.0126346545
78	0xba38f3f4	-0.0007055395
79	0x37b66227	2.1741796e-05
80	0xbb18c15e	-0.0023308615
81	0xbbae6384	-0.005321922
82	0xbb7f50a7	-0.0038957985
83	0x3a233985	0.00062265276
84	0x3baafb50	0.005217947
85	0xba4d3f83	-0.00078295934
86	0x3ab01540	0.0013434067
87	0x3b8a5bf9	0.00422239
88	0xba96d8a7	-0.0011508659
89	0x3c356d81	0.011073471
90	0x3c0830cd	0.008312416
91	0x3bfa9f92	0.007648417
92	0x3b2b2539	0.0026114716
93	0x3c602f3b	0.013683136
94	0x3c4f8ca9	0.012667813
95	0x3a6d85e8	0.0009060786
96	0x3add3ec0	0.0016879663
97	0xb9f140b0	-0.00046015298
98	0xbbd287a4	-0.006424861
99	0x3abe4bf1	0.0014518482
100	0x3c178be8	0.009249665
101	0xbbc8eeca	-0.0061319815
102	0xba3c18e3	-0.0007175339
103	0xbbfbb45d	-0.007681413
104	0x3c93ea0b	0.018055936
105	0xbc1063de	-0.008812873
106	0xbd91adf2	-0.071132556
107	0x3d9145e9	0.070934124
108	0xbd4616f7	-0.048361745
109	0xbd10e8e7	-0.035378363
110	0xbc8116a1	-0.01575786
111	0x3cba0ef6	0.022712212
112	0x3c681fa7	0.014167703
113	0xbc11dd40	-0.008902848
114	0x3c83b034	0.016075231
115	0x3db55639	0.08854336
116	0xbc8a4283	-0.016877418
117	0x3b2c2f14	0.0026273178
118	0xbaf2257f	-0.001847431
119	0x3d39c0f2	0.045350023
120	0x3bac6681	0.005261243
121	0x3bb50856	0.0055246754
122	0xbc90a71f	-0.017657815
123	0xbc53b52c	-0.012921613
124	0xbcb91e24	-0.02259738
125	0xbd1fd9ef	-0.039026197
126	0x3d2ff5fc	0.0429592
127	0xbc019387	-0.007908708
128	0x3bff4deb	0.007791271
129	0xbba64d29	-0.005075116
130	0xbc2325bd	-0.009957728
131	0x3d51df5c	0.051238403
132	0xbd812d18	-0.06307429
133	0xbbca1d82	-0.0061680684
134	0xbb44b78f	-0.0030016636
135	0x3c116964	0.008875225
136	0x3c2f8070	0.010711774
137	0x3e8447b9	0.2583597
138	0xbc9c09e2	-0.019047681
139	0xbbe21516	-0.0068994863
140	0xbc9914ad	-0.018686617
141	0xbbec40cd	-0.0072098733
142	0x3bd0e58f	0.0063750218
143	0xbca53ff9	-0.020172106
144	0xba397636	-0.0007074805
145	0x3c114702	0.008867027
146	0xbb0b7089	-0.0021276793
147	0xbb2c24fa	-0.0026267157
148	0x3b041454	0.0020153718
149	0x39dba205	0.0004189165
150	0xbc8cf66f	-0.017207352
151	0xbbc4038d	-0.0059818686
152	0xba1a724d	-0.0005891666
153	0xbc434b0e	-0.01191975
154	0xbd6512f8	-0.055926293
155	0x3c652d91	0.013987915
156	0xbdb635fe	-0.08897017
157	0x3c165ac5	0.009176915
158	0xbd6cb646	-0.057791017
159	0xbbd69c00	-0.0065493584
160	0xbc1f488d	-0.009721887
161	0xbd17a58c	-0.037023112
162	0xbce91759	-0.028453516
163	0x3c2f7775	0.010709633
164	0xbd5c9b9f	-0.05385935
165	0x3c57c6bb	0.01316994
166	0xbcd580fb	-0.02606248
167	0x3e62d608	0.22151959
168	0xbd32f228	-0.04368797
169	0x3a981949	0.0011604215
170	0xbca197e0	-0.01972574
171	0xbc59dbd7	-0.013297043
172	0xbc6016dd	-0.013677326
173	0x3c4f0767	0.012636042
174	0xbc62d28c	-0.013844144
175	0x3da2c890	0.079484105
176	0xbcb97036	-0.022636514
177	0x3c3399ba	0.010961944
178	0x3cadac37	0.021200282
179	0x3b07f673	0.002074626
180	0x3cf6eea3	0.030143088
181	0xbc83802e	-0.016052332
182	0xbba58949	-0.005051766
183	0x3ca643a9	0.020295935
184	0xbce67f53	-0.028136885
185	0x3c05fbfa	0.008177752
186	0x3a840549	0.0010072376
187	0x3cb2c663	0.021823114
188	0xbcba0e30	-0.022711843
189	0xba27b475	-0.00063974346
190	0xbe708bbc	-0.23490804
191	0xbc4ada49	-0.012381145
192	0x3cd7f8ec	0.026363812
193	0xbc3b6e88	-0.011439927
194	0x3c6144e5	0.013749336
195	0x3bd1ae22	0.006398932
196	0xbc8087b0	-0.0156897
197	0xbc35c381	-0.011093975
198	0x3b83b529	0.0040193987
199	0x3bf41d8d	0.007449812
200	0xbc7f0466	-0.0155650135
201	0xbca8e430	-0.02061662
202	0x3b14a6de	0.0022682468
203	0xbd4b5801	-0.049644474
204	0xbc99e51f	-0.018786011
205	0xbdcabfd1	-0.09899867
206	0xbd16bcb8	-0.03680107
207	0x3d061433	0.032734107
208	0xbb01d7a6	-0.0019812374
209	0x3b00bdbc	0.001964434
210	0x3ca3ce10	0.01999572
211	0x3d5d1605	0.053976078
212	0xbc462155	-0.012092908
213	0x3c9759a3	0.01847536
214	0xbe623abb	-0.22092716
215	0x3ced5a8b	0.028973838
216	0x3b9b999c	0.0047485363
217	0x3d74be3c	0.059751734
218	0xbc108b1b	-0.008822228
219	0x3d2c600f	0.042083796
220	0x3b1cdcca	0.0023935311
221	0xbc30ba33	-0.010786581
222	0x3cf4be25	0.029875824
223	0xbd07e0f3	-0.033173513
224	0xbcb7c51e	-0.02243286
225	0x3c018bdd	0.007906881
226	0xbd12ca15	-0.03583725
227	0x3c8b66c4	0.017016776
228	0x3d400c5f	0.046886798
229	0xbd2f5ce7	-0.042813208
230	0xbbd37e10	-0.006454237
231	0xbccdd600	-0.025126457
232	0xbd922cf2	-0.07137479
233	0xbde9d495	-0.114175
234	0xbb5851d6	-0.0033007762
235	0x3c5e5919	0.013571047
236	0x3b9c05cd	0.0047614337
237	0x3e42571c	0.18978542
238	0xbbea6ab8	-0.007153835
239	0x3c8a980e	0.016918208
240	0xbc29f8f7	-0.010374299
241	0xbac71a2c	-0.0015190295
242	0xbcd30ba5	-0.025762388
243	0xbd058a0b	-0.03260235
244	0xbdb21ce9	-0.086969204
245	0x3cd39fd4	0.025833048
246	0x3cadc5e2	0.021212522
247	0x3c7a8ee5	0.015292858
248	0xbb1fe3f3	-0.0024397343
249	0x3b1b4dbe	0.002369746
250	0x3add0277	0.0016861696
251	0x3a7d81bd	0.00096705166
252	0xb94a6e6a	-0.00019305354
253	0x3b9baad9	0.0047505912
254	0xbadc8adf	-0.0016826055
255	0xba5254de	-0.00080235105

network.0.bias f4 [128]
0	0xbe3399cd	-0.17539139
1	0x3b92b9c6	0.0044777123
2	0xbe14e132	-0.1453903
3	0xbdcba17e	-0.099429116
4	0xbe2a2afe	-0.16617963
5	0x3b58a6c1	0.0033058377
6	0xbe469afc	-0.1939506
7	0xbe0cd86d	-0.13754435
8	0x39c1f711	0.00036995907
9	0xbad18c22	-0.0015987197
10	0xbe2f956a	-0.1714684
11	0xbe4b8e38	-0.19878471
12	0xbdfe71a6	-0.124240205
13	0xbe9c1bca	-0.3048995
14	0xbe2e05d6	-0.16994414
15	0xbcf6548d	-0.030069614
16	0xbdba37e6	-0.09092693
17	0xbe267a06	-0.16257486
18	0xbe4d74e5	-0.20064123
19	0xbe712864	-0.23550564
20	0x3a8563f6	0.0010176885
21	0xbe4c52b9	-0.19953431
22	0xbe489a15	-0.19590028
23	0xbe1c4d29	-0.1526381
24	0xbdfe6f0f	-0.124235265
25	0xbe02075a	-0.12698117
26	0xbdb84813	-0.08998122
27	0x3b032e20	0.0020016506
28	0xbae066b6	-0.0017120454
29	0xbe591cdb	-0.21202414
30	0xbeba872e	-0.3643126
31	0xbe14dddb	-0.14537756
32	0xbe1f5b8e	-0.15562269
33	0xbdfff89a	-0.12498589
34	0xbd9f46a3	-0.07777145
35	0xbdfaad02	-0.1224003
36	0xbb8ba65b	-0.0042617745
37	0x3c155ca4	0.0091163255
38	0xbeb832b4	-0.35976183
39	0xbe33b73d	-0.17550369
40	0xbdd7668e	-0.10517608
41	0xbe8afda4	-0.27146637
42	0xbe1c0b99	-0.15238799
43	0xbe642baf	-0.22282289
44	0xbe1a0f0b	-0.15044801
45	0xbdd98bf6	-0.106223986
46	0xbda5d3ba	-0.08097024
47	0xbe4f406e	-0.20239422
48	0xbc013675	-0.007886519
49	0x3bfdd7e8	0.0077466853
50	0xbdd7a1ec	-0.10528931
51	0xbd828b3e	-0.063742146
52	0xbe072de8	-0.13201106
53	0xbda2a549	-0.07941682
54	0xbd587b62	-0.052852042
55	0xbe106e8a	-0.14104667
56	0xbdb13261	-0.08652187
57	0xbe8a358b	-0.26993975
58	0xbe259912	-0.16171673
59	0xbe2e9ddb	-0.17052405
60	0xbe0fd11d	-0.14044614
61	0xbe3b7656	-0.1830686
62	0xbdf5836e	-0.11987959
63	0xbdc65beb	-0.09685501
64	0xbd92f296	-0.07175176
65	0xbe1816ea	-0.14852491
66	0xbdfaa09e	-0.122376665
67	0xbe1f60ca	-0.15564266
68	0xbda6f1fa	-0.08151622
69	0xbdb39f3c	-0.08770606
70	0xbe827508	-0.25479913
71	0xbe14a748	-0.14516938
72	0xbe60dae3	-0.21958499
73	0xbe3f3cef	-0.18675588
74	0xbe7bdfc8	-0.24597085
75	0xbdf79541	-0.12089015
76	0xbc8d5c70	-0.017255992
77	0xbcde94d4	-0.027170576
78	0xbe85092d	-0.25983563
79	0xbd736205	-0.05941965
80	0xbc0d4974	-0.00862347
81	0xbe3e30a1	-0.18573238
82	0xbdc33e6a	-0.09533389
83	0x3a1b9fff	0.0005936622
84	0x3ca8b097	0.020592017
85	0x3bc5c48f	0.0060353945
86	0x3c7813d4	0.015141446
87	0xbe1dbd53	-0.15404253
88	0xbdbd1a7d	-0.09233568
89	0xbce0b180	-0.027428389
90	0xbe36bc59	-0.17845286
91	0xbc1f894a	-0.009737322
92	0xbe615ceb	-0.22008102
93	0xbc0cd131	-0.008594797
94	0xbe4c81da	-0.1997141
95	0xbe5f82a3	-0.21827178
96	0xbc61d991	-0.013784782
97	0xbe06355c	-0.13106292
98	0xbdd4672c	-0.10371241
99	0xbdaa4a51	-0.08314956
100	0xbe1e4c24	-0.15458733
101	0xbbbfdbf6	-0.005855079
102	0xbd8a3347	-0.067480616
103	0xbda40abc	-0.0800986
104	0xb4912900	-2.7038186e-07
105	0xbdfd0af3	-0.12355604
106	0xbbe8e162	-0.007106946
107	0xbe6f775c	-0.23385376
108	0xbde836a3	-0.11338546
109	0xbe19f628	-0.15035307
110	0xbe34294a	-0.17593876
111	0xbdba29a9	-0.09089977
112	0xbe3dda34	-0.18540269
113	0xbc9f45b9	-0.019442426
114	0xbda93efc	-0.082639664
115	0xbe0e4703	-0.13894276
116	0xbe29ab22	-0.16569188
117	0xbe1d29e3	-0.1534801
118	0x3c692ff4	0.014232624
119	0xbe041120	-0.12897158
120	0xbdaf7500	-0.08567238
121	0xbd91bc8b	-0.0711604
122	0x3b3d22a5	0.002885976
123	0xbe39ab56	-0.18131766
124	0xbe1e1350	-0.15437055
125	0xba70eb1d	-0.0009190308
126	0xbe074bb7	-0.13212477
127	0xbe0c4057	-0.13696419

network.2.weight f4 [128]
0	0x3da9e783	0.082961105
1	0x3ab08afe	0.0013469157
2	0x3dec2804	0.1153107
3	0x3df01b71	0.11723984
4	0x3e09d5fa	0.13460532
5	0xba339831	-0.00068509864
6	0x3dc4b416	0.09604661
7	0x3dc56660	0.09638667
8	0x3a9ea205	0.0012102729
9	0x397d4550	0.00024153781
10	0x3dbc6004	0.09198001
11	0x3e0d4d29	0.13798966
12	0x3db3b6ec	0.08775124
13	0x3e2f86f8	0.1714133
14	0x3dadadcb	0.08480414
15	0x3de9b434	0.11411324
16	0x3da3d758	0.08000058
17	0x3de28c0e	0.110618696
18	0x3e2d2fba	0.16912737
19	0x3dfe4d02	0.12417032
20	0xbb234dca	-0.0024918192
21	0x3e0f8eb8	0.14019287
22	0x3d7887a8	0.060676247
23	0x3dad7c62	0.0847099
24	0x3e018952	0.1265004
25	0x3dcac65c	0.09901115
26	0x3de044b7	0.10950606
27	0x3bbca6ec	0.0057572033
28	0xba998800	-0.0011713505
29	0x3e01fec7	0.12694846
30	0x3e320994	0.17386466
31	0x3da7ace2	0.08187272
32	0x3dd7fe1a	0.10546513
33	0x3df0bf20	0.11755204
34	0x3dacf3e3	0.08444955
35	0x3db74bf3	0.08950033
36	0xb8ea9c93	-0.00011187154
37	0xba964d8d	-0.0011467204
38	0x3e29765a	0.16549054
39	0x3dd79134	0.10525742
40	0x3d6610f1	0.0561685
41	0x3e035e78	0.12829006
42	0x3dbcafbe	0.09213208
43	0x3dec183e	0.11528061
44	0x3dc2b2fb	0.09506794
45	0x3da6e61e	0.0814936
46	0xbd95be7f	-0.07311725
47	0x3dd5e043	0.10443165
48	0x3dfc7e1a	0.123287395
49	0x3dfb34ad	0.122659065
50	0x3dafdf7a	0.08587547
51	0x3dc53a8f	0.0963031
52	0x3dbff5ef	0.0937308
53	0x3dc99652	0.098431244
54	0x3dd0d8a1	0.10197569
55	0x3ddb6ebd	0.10714481
56	0x3dba9f88	0.091124594
57	0x3dec8871	0.11549462
58	0x3da35aa1	0.079762705
59	0x3dee91fe	0.116489395
60	0x3d68ad88	0.056806117
61	0x3ddef32a	0.108862236
62	0x3db5da2d	0.08879504
63	0x3d889df0	0.06670749
64	0x3dfcd094	0.123444706
65	0x3de11d0d	0.10991869
66	0x3dcd08f4	0.10011473
67	0x3dd02c0c	0.10164651
68	0x3dea41b5	0.11438314
69	0x3dc0c3bf	0.094123356
70	0x3dba5e16	0.09099977
71	0x3dcf757b	0.101298295
72	0x3df03a25	0.1172984
73	0x3dd628d0	0.10457003
74	0x3dcf79e4	0.10130671
75	0x3daf6757	0.085646324
76	0x3dd1d034	0.1024479
77	0x3bb38327	0.005478281
78	0x3daeef26	0.08541708
79	0x3dcbd150	0.099520326
80	0xba2e62ef	-0.00066523155
81	0x3de47f13	0.1115705
82	0x3d9fc343	0.07800915
83	0x3ad045d1	0.0015889948
84	0x3e014104	0.12622458
85	0xbb4b9734	-0.0031065466
86	0xbbba18b3	-0.005679214
87	0x3e0683f0	0.13136268
88	0x3dc3d223	0.09561565
89	0x3c90e525	0.01768739
90	0x3d8c8e01	0.068630226
91	0x3d964a35	0.073383726
92	0x3e166193	0.14685659
93	0xbb196a67	-0.0023409368
94	0x3e0d0839	0.13772668
95	0x3dd6a1a2	0.10480048
96	0xbb1de55a	-0.0024093003
97	0x3df55dea	0.11980803
98	0x3d736701	0.059424404
99	0x3dcf30f0	0.10116756
100	0x3e004ea2	0.12529996
101	0x3b541757	0.0032362544
102	0x3e07a1a9	0.13245262
103	0x3dfa90eb	0.12234672
104	0x3ab05f69	0.0013456169
105	0x3d8de397	0.06928175
106	0xba0a452e	-0.0005274591
107	0x3dc0c99c	0.09413454
108	0x3dc6977f	0.09696864
109	0x3e0a84ab	0.13527171
110	0x3da30a00	0.07960892
111	0x3ddafbf2	0.10692586
112	0x3de7002e	0.11279331
113	0x3c83437e	0.016023394
114	0x3df0cd5c	0.11757919
115	0x3e090c7a	0.13383666
116	0x3dd18ac8	0.102315485
117	0x3dd3e987	0.10347276
118	0xbb68c328	-0.0035516713
119	0x3e31661d	0.1732411
120	0x3de8ad59	0.113611884
121	0x3db85c5a	0.0900199
122	0x39dfd9af	0.0004269606
123	0x3e0c0438	0.13673484
124	0x3dd8513c	0.10562369
125	0xbb076c31	-0.0020663852
126	0x3e11ddd3	0.14244775
127	0x3dc85853	0.097824715

network.2.bias f4 [128]
0	0x3cf1d7b2	0.029521797
1	0x3ac690ad	0.0015149318
2	0x3ce2fd76	0.02770875
3	0x3d0ed9b1	0.034875575
4	0x3d3d1756	0.046164833
5	0x3a9bcb60	0.0011886172
6	0xbb2ae858	-0.002607843
7	0x3d0b371c	0.033988103
8	0x3ae2dae9	0.0017307672
9	0x3c3ae1ad	0.011406344
10	0x38cf1542	9.874489e-05
11	0x3d1c92f8	0.038226098
12	0xb98a5b9f	-0.00026389674
13	0x3c775373	0.015095579
14	0x3c4cf2e1	0.012509079
15	0x3d237bd6	0.03991302
16	0xbbea8f61	-0.0071582054
17	0x3c77a198	0.015114211
18	0x3d25a404	0.04043962
19	0x3d0e1f0c	0.034697577
20	0xbb50a8b2	-0.0031838831
21	0x3cdc3cd4	0.026884474
22	0x3ae53049	0.0017485704
23	0x3c6843c1	0.01417631
24	0x3cdc3ceb	0.026884517
25	0x3c532714	0.012887735
26	0x3d281fb2	0.041045852
27	0x3ae4627c	0.001742437
28	0x3bac2207	0.00525308
29	0x3cbc3cf9	0.022978293
30	0x3cd1cffc	0.02561187
31	0x3cd21df9	0.025649058
32	0x3ce353a3	0.027749842
33	0x3c681047	0.014164037
34	0xbb03b9fa	-0.0020099864
35	0x3c159538	0.009129815
36	0xbb8899b1	-0.004168712
37	0x3badbb24	0.00530185
38	0x3ce936ae	0.028468456
39	0x3c979d22	0.018507544
40	0x3b0aa895	0.0021157612
41	0xba68b839	-0.0008877549
42	0x3ca2ca63	0.019871896
43	0x3c1f8cbd	0.009738144
44	0x3c3d116a	0.011539796
45	0x3c62be70	0.013839349
46	0xbb9dab9f	-0.0048117186
47	0xbba78156	-0.0051118536
48	0x3d8eea5e	0.06978296
49	0x3d67db6b	0.056605738
50	0xbc0888c2	-0.008333387
51	0x3d0cb9ca	0.03435687
52	0x38a90410	8.059305e-05
53	0x3d0104a7	0.031498577
54	0x3cf9ef72	0.030509684
55	0x3d031d8f	0.03201061
56	0x3c92e6f9	0.017932402
57	0xbb9af065	-0.0047283643
58	0x3b3b37e6	0.0028567254
59	0x3bb3469f	0.005471065
60	0x3bf584f7	0.0074926573
61	0x3cfe6053	0.03105179
62	0x3d0e9cd3	0.034817528
63	0x3bd2868e	0.0064247316
64	0x3d6cedda	0.05784402
65	0x3bbcee50	0.0057657138
66	0x3c810651	0.015750082
67	0x3c1aff53	0.009460288
68	0x3d0c93c7	0.03432062
69	0x3c8fe720	0.017566264
70	0x3ae23a9b	0.0017259897
71	0x3bec8874	0.007218415
72	0x3b8f74fb	0.004377959
73	0x3c9b77bd	0.018977994
74	0xbc4a7aff	-0.012358426
75	0xbac112bc	-0.0014730315
76	0x3d071464	0.03297843
77	0xbc4a1b10	-0.012335554
78	0x3c7dce3f	0.015491067
79	0x3cecd5e1	0.02891058
80	0x3b023923	0.0019870482
81	0x3c5b5659	0.013387286
82	0x3c92d3a0	0.017923176
83	0xba5c1550	-0.000839551
84	0x3d9b89fc	0.07594678
85	0x3bea2d6f	0.0071465294
86	0xb9ba4f26	-0.00035535655
87	0x3cd0ce91	0.025489124
88	0x3c613ddc	0.013747659
89	0x3ae47b35	0.0017431738
90	0xbc8c4995	-0.01712493
91	0x3b5aa6b2	0.0033363518
92	0x3c8c5c58	0.017133877
93	0x3a0b9708	0.00053249346
94	0x3d36940f	0.044574793
95	0x3c59a433	0.013283777
96	0xbb6896b6	-0.0035490221
97	0x3cf67658	0.030085728
98	0xba1fe2e1	-0.0006099176
99	0x3ccdd0cc	0.025123976
100	0x3c5bfe45	0.013427322
101	0x3b56dd7c	0.0032785824
102	0x3cc43db2	0.0239552
103	0x3bd1585e	0.006388708
104	0xbaa12826	-0.001229529
105	0x3b95f28f	0.0045760344
106	0x3b400b2f	0.002930354
107	0x3b2cd89e	0.002637423
108	0x3d275b5f	0.040858623
109	0x3c6652c2	0.014057817
110	0x3b23eab5	0.0025011722
111	0x3c9bc437	0.019014461
112	0x3cb4d315	0.022073308
113	0x3b9e6681	0.0048339968
114	0x3d0c399c	0.034234628
115	0x3cd61cad	0.02613672
116	0x3cb37b6e	0.021909442
117	0x3bf8da7e	0.0075944057
118	0xbba06119	-0.0048943874
119	0x3d1a86f3	0.037726354
120	0x3d11d059	0.035599086
121	0x3cc7d13f	0.024391769
122	0xbb076e95	-0.0020665277
123	0x3d2dbbea	0.042415537
124	0xbbccf4ef	-0.0062547843
125	0x3b23d3b0	0.0024998002
126	0x3cdb445a	0.026765991
127	0x3c1a29c0	0.009409368

network.2.running_mean f4 [128]
0	0x3c928feb	0.017890891
1	0x3cc102bd	0.023560876
2	0x3d8bf90e	0.06834613
3	0x3d12ed49	0.035870824
4	0x3d61fe6f	0.055174287
5	0x3c119e47	0.008887834
6	0x3c8a89b1	0.01691136
7	0x3cd00220	0.025391638
8	0x3c8226a9	0.015887575
9	0x3cb270bc	0.021782272
10	0x3cff131b	0.03113704
11	0x3d19e13c	0.037568316
12	0x3ccf70df	0.025322376
13	0x3cdba1b7	0.02681051
14	0x3ca7a1e3	0.020462936
15	0x3dc1bbb6	0.09459631
16	0x3d6d6236	0.05795499
17	0x3d24f38b	0.040271323
18	0x3d97c7a0	0.07411122
19	0x3c853058	0.016258404
20	0x3c28a187	0.010292417
21	0x3d4b788d	0.049675513
22	0x3c854ec6	0.016272914
23	0x3cd4e17d	0.025986427
24	0x3d35cefa	0.04438684
25	0x3d549dcf	0.05190831
26	0x3dc2a63f	0.09504365
27	0x3cd4eeec	0.025992833
28	0x3c9057b6	0.017619949
29	0x3d3a746c	0.045521185
30	0x3c516cca	0.012782285
31	0x3cdd6702	0.027026657
32	0x3d0c367f	0.03423166
33	0x3d1ed0dc	0.038773403
34	0x3d3a5a84	0.04549648
35	0x3cd39895	0.025829593
36	0x3c18db4f	0.009329631
37	0x3cf2fc43	0.029661303
38	0x3ca45622	0.020060603
39	0x3d43c798	0.04779777
40	0x3cbaa3ff	0.022783278
41	0x3c1e35e5	0.009656404
42	0x3c995c33	0.018720722
43	0x3cb7c97f	0.022434948
44	0x3d2fe85f	0.042946216
45	0x3d273ae8	0.04082766
46	0x3d0a736b	0.033801477
47	0x3cd31af7	0.025769694
48	0x3df3cd19	0.11904354
49	0x3e0960d5	0.13415845
50	0x3d73ad9c	0.05949174
51	0x3dbb380d	0.0914155
52	0x3cdfee2b	0.027335247
53	0x3d73ca38	0.059519023
54	0x3daa1b53	0.08305993
55	0x3d088dc3	0.03333832
56	0x3d2ee9de	0.042703502
57	0x3b2e0550	0.002655346
58	0x3c6a255f	0.0142911365
59	0x3cc1d4c1	0.02366102
60	0x3c93ec80	0.018057108
61	0x3d0efb22	0.034907468
62	0x3d6369ea	0.05552093
63	0x3d33d128	0.04390064
64	0x3db360fe	0.08758734
65	0x3d21677f	0.039405342
66	0x3d61d2fd	0.055132855
67	0x3d50765a	0.05089412
68	0x3d769b01	0.060206417
69	0x3d79fd3b	0.061032515
70	0x3c7a8d58	0.015292488
71	0x3cef30cb	0.029198071
72	0x3c5311f0	0.012882695
73	0x3ca701d9	0.020386623
74	0x3be5a40a	0.0070080804
75	0x3d1fa5a2	0.03897632
76	0x3db9698b	0.09053334
77	0x3cf5b248	0.029992238
78	0x3be3bbcb	0.006949877
79	0x3d8031fd	0.062595345
80	0x3c3516c9	0.011052796
81	0x3d0ea64c	0.03482656
82	0x3d101f69	0.035186205
83	0x3c0cd3e8	0.008595444
84	0x3e14fcb4	0.14549524
85	0x3c9ed927	0.019390656
86	0x3d1eaec1	0.038740877
87	0x3cd653e6	0.026163053
88	0x3d70b4fd	0.058766354
89	0x3d6cb33d	0.057788122
90	0x3bc6870f	0.0060585807
91	0x3dbf64d2	0.09345402
92	0x3cc8babe	0.024503108
93	0x3cd94e35	0.02652655
94	0x3d16312e	0.036667995
95	0x3c4debdb	0.012568439
96	0x3cdc6036	0.026901346
97	0x3d34b2ac	0.044115707
98	0x3c8f6998	0.017506406
99	0x3d8564b5	0.06513349
100	0x3d0a98db	0.03383718
101	0x3c4fc666	0.012681579
102	0x3d87c57e	0.066294655
103	0x3d72a7d6	0.059242092
104	0x3c00412c	0.007828038
105	0x3d6860cf	0.05673295
106	0x3b520ada	0.0032049925
107	0x3bf17b57	0.0073694396
108	0x3d690464	0.056888953
109	0x3d17c997	0.037057485
110	0x3d5f76cb	0.05455665
111	0x3d706e96	0.058699213
112	0x3d256e8a	0.04038862
113	0x3cf69aaf	0.030103056
114	0x3dabfba0	0.08397603
115	0x3d78f2e6	0.06077852
116	0x3cef9dcb	0.029250046
117	0x3ce65756	0.028117817
118	0x3d90766e	0.07053839
119	0x3dc53498	0.09629172
120	0x3d88c670	0.06678474
121	0x3d8a43cd	0.06751213
122	0x3c838306	0.016053688
123	0x3d2cd1a0	0.0421921
124	0x3d1d4941	0.03839994
125	0x3c64265a	0.013925159
126	0x3dc600d2	0.09668125
127	0x3cdf9832	0.027294252

network.2.running_var f4 [128]
0	0x3b1ba176	0.0023747361
1	0x3aba8f32	0.0014233349
2	0x3c78bc30	0.015181586
3	0x3bf73593	0.0075442283
4	0x3c49da22	0.012320073
5	0x3987d5a9	0.00025908396
6	0x3b6890fd	0.003548681
7	0x3c2db168	0.010601379
8	0x3a9dea00	0.0012047887
9	0x3b5af864	0.0033412213
10	0x3b6975ac	0.0035623116
11	0x3c0c076c	0.008546691
12	0x3b81882e	0.0039530015
13	0x3b459be4	0.0030152733
14	0x3b174528	0.0023081992
15	0x3cc080a3	0.023498839
16	0x3cf48382	0.029847864
17	0x3d6bfed3	0.057616066
18	0x3da34c1e	0.079735026
19	0x3b3589c3	0.002770052
20	0x39beec2b	0.00036415583
21	0x3c0af512	0.008481281
22	0x3b9d5957	0.00480191
23	0x3b421881	0.0029616656
24	0x3bc2e100	0.0059472322
25	0x3c8e8c6a	0.017400939
26	0x3c8405bc	0.016116016
27	0x3b14e590	0.0022719838
28	0x3a5e5ad8	0.00084821647
29	0x3ca16d13	0.019705331
30	0x3a86f86b	0.0010297423
31	0x3b8faf9f	0.0043849493
32	0x3c7de9d3	0.015497643
33	0x3d79fae5	0.061030287
34	0x3c68c641	0.014207424
35	0x3b1f9d70	0.0024355315
36	0x3a31057f	0.0006752833
37	0x3b3cf85c	0.0028834557
38	0x3b0324f4	0.002001104
39	0x3bac36e8	0.005255569
40	0x3b76101a	0.0037546218
41	0x3a40d639	0.00073561404
42	0x3b357e7b	0.0027693796
43	0x3ba3c9f9	0.0049984423
44	0x3b852aa0	0.004063919
45	0x3c32eb82	0.010920407
46	0x3bbe3144	0.0058042128
47	0x3ce8e55a	0.028429676
48	0x3ca7246a	0.020403106
49	0x3cae6fae	0.021293487
50	0x3bcdafc5	0.006277057
51	0x3d23d0c0	0.039994
52	0x3bfdb6dd	0.0077427463
53	0x3c5c6d9e	0.013453869
54	0x3cdeca98	0.027196214
55	0x3b83b9b8	0.004019942
56	0x3c391b02	0.011297943
57	0x3b0e342b	0.0021698575
58	0x3ac3eb46	0.0014947436
59	0x3c6c88f4	0.014436949
60	0x3be40c2d	0.0069594593
61	0x3be6c541	0.0070425575
62	0x3c3e2108	0.011604555
63	0x3d0700f6	0.0329599
64	0x3c6ff369	0.014645436
65	0x3ba6a89e	0.0050860187
66	0x3be6659a	0.007031155
67	0x3be11ddd	0.006870015
68	0x3db9a1bc	0.090640515
69	0x3cb6be2f	0.022307483
70	0x3c3689e4	0.011141274
71	0x3b5157d0	0.003194321
72	0x3acdbeea	0.0015697156
73	0x3bd797c9	0.0065793735
74	0x3b1dae17	0.0024060064
75	0x3c5aae16	0.013347169
76	0x3c1f74db	0.00973245
77	0x3c09ac25	0.008402859
78	0x3c9093c7	0.01764859
79	0x3c99ba1e	0.018765505
80	0x3a14db73	0.00056784524
81	0x3d3c1d0c	0.04592614
82	0x3bb53b4f	0.005530752
83	0x39cc9506	0.00039020943
84	0x3d16706e	0.036728315
85	0x3afb78c8	0.0019185776
86	0x3af7b290	0.001889782
87	0x3bac1010	0.0052509382
88	0x3beb003d	0.0071716593
89	0x3c2ebee7	0.010665632
90	0x3c2aa632	0.010415601
91	0x3c3437ec	0.010999661
92	0x3bf57382	0.0074905762
93	0x3b00dc3b	0.0019662518
94	0x3de20601	0.110363014
95	0x3b104989	0.0022016487
96	0x3bfc4018	0.0076980703
97	0x3c2327f8	0.00995826
98	0x3acbc9a0	0.001554776
99	0x3e3ddac7	0.18540488
100	0x3d0accd2	0.033886738
101	0x3a57f97c	0.0008238775
102	0x3c1aa5da	0.009438956
103	0x3c06c1cc	0.008224916
104	0x39840c80	0.00025186315
105	0x3ca059d1	0.019574078
106	0x3905cc67	0.00012760014
107	0x3b0b8edb	0.0021294865
108	0x3ca5417c	0.020172827
109	0x3b9461e8	0.004528273
110	0x3e1d15df	0.15340374
111	0x3c8971cf	0.016777901
112	0x3c2b942a	0.010472337
113	0x3bb4732f	0.005506895
114	0x3d7a730f	0.061144885
115	0x3c482c0d	0.012217534
116	0x3bcfdda2	0.0063435594
117	0x3b76b3e1	0.0037643837
118	0x3cb78af6	0.022405129
119	0x3d32b5a4	0.043630257
120	0x3c3a6ec8	0.011378951
121	0x3c62c2f0	0.013840422
122	0x3a68e22a	0.0008883799
123	0x3c2e821a	0.010651136
124	0x3b86cad9	0.004113537
125	0x3a54348e	0.00080949895
126	0x3daf7e34	0.08568993
127	0x3b5a3cd8	0.0033300426

network.4.weight f4 [64, 128]
0	0xbc2af9bf	-0.010435521
1	0xbb0c0b06	-0.0021368875
2	0x3b8a13ce	0.0042137867
3	0xbda0b405	-0.07846836
4	0xbd0248dc	-0.031807765
5	0x3a9e75c8	0.0012089545
6	0xbce83f80	-0.028350592
7	0xbca42b64	-0.020040222
8	0x3b698ff3	0.003563878
9	0x3a7fce50	0.0009758221
10	0xbcd32128	-0.025772646
11	0xbb6b0d66	-0.003586614
12	0x3ce245e7	0.027621223
13	0x3cf03eda	0.029326845
14	0x3c7d894d	0.01547463
15	0xbd4e5032	-0.05036945
16	0xbd0cff76	-0.034423314
17	0xbdc207c5	-0.09474138
18	0x3d0c72cb	0.034289163
19	0xbc872a30	-0.016499609
20	0x3ae53558	0.0017487211
21	0xbcfe813a	-0.03106748
22	0xbc790a01	-0.015200139
23	0xbba552c8	-0.0050452687
24	0xbc903206	-0.017601978
25	0xbc64b7ca	-0.013959834
26	0x3b8ce337	0.004299547
27	0xbc14caf1	-0.009081588
28	0xbb66cf56	-0.0035218797
29	0x3c8ebbfd	0.017423624
30	0x3c0448a6	0.008073961
31	0xbb092cd8	-0.002093127
32	0xbda57a5d	-0.080799796
33	0x3d154408	0.036441833
34	0xbbf9c36f	-0.0076221745
35	0x3c0e3e6e	0.008681877
36	0x3af64fdc	0.001879211
37	0xbb454625	-0.0030101624
38	0xbbc25a53	-0.0059311776
39	0x3b79ceaf	0.0038117578
40	0xbd7bb2fa	-0.061449982
41	0x3d13bc31	0.036068145
42	0x3cc90f11	0.024543317
43	0x3cab5463	0.020914262
44	0x3cea6dde	0.028616842
45	0x3ca29c37	0.01984988
46	0xbc9f22db	-0.0194258
47	0xbbab2404	-0.0052227993
48	0xbb9237e2	-0.004462228
49	0xbc45b17d	-0.012066242
50	0xbd22a892	-0.039711542
51	0x3c2c4153	0.010513621
52	0x3c8d95e7	0.017283393
53	0x3c0b6ad5	0.008509357
54	0xbd5a2302	-0.053256042
55	0x3c3edc06	0.011649137
56	0xbcc9ae87	-0.024619354
57	0x3c2c0ecd	0.010501576
58	0x3d504ac9	0.05085257
59	0xbd3d3be6	-0.0461997
60	0x3c4c6c10	0.012476936
61	0x3c73a7d8	0.01487156
62	0xbd3601ba	-0.04443524
63	0xbc894bfe	-0.016759869
64	0x3aa38cae	0.0012477839
65	0x3d421094	0.04737909
66	0x3bea827f	0.0071566696
67	0x3c93bb34	0.018033601
68	0xbb90a26b	-0.004413893
69	0xbc58f155	-0.013241132
70	0xbaa5ecc3	-0.0012659061
71	0xbb5d293c	-0.0033746501
72	0xbbb76466	-0.005596685
73	0xbd90e5bc	-0.07075068
74	0xbd2fd0db	-0.04292379
75	0xbe0418a7	-0.12900029
76	0xbc2253bb	-0.009907658
77	0x3c909347	0.017648352
78	0xbd37a589	-0.0448356
79	0x3c130409	0.00897313
80	0x3a0d8359	0.00053982955
81	0x3d37433a	0.044741847
82	0xbce37d61	-0.027769746
83	0x3886dbb7	6.430543e-05
84	0xbbc52390	-0.0060162023
85	0x3bcddde0	0.006282553
86	0x3b1236c0	0.0022310466
87	0xbd400134	-0.046876147
88	0xbc8cb3d0	-0.017175585
89	0xbcb4a4b8	-0.0220512
90	0xbd42f3dd	-0.047595847
91	0x3c8267fa	0.01591872
92	0xbc31ee2c	-0.010860007
93	0xbab8198f	-0.0014045703
94	0x3c0e67bb	0.008691723
95	0xbd2176f3	-0.03942008
96	0xba9f9ccd	-0.0012177468
97	0xbd573db2	-0.05254907
98	0x3b9f3e9d	0.004859759
99	0xbd1ee3b4	-0.038791373
100	0xbcf3e909	-0.029774206
101	0xb831a4e6	-4.2353662e-05
102	0x3bff007b	0.0077820397
103	0xbca44678	-0.020053133
104	0x3b843b17	0.0040353644
105	0xbcf88342	-0.030336026
106	0x3b07cc2e	0.0020721066
107	0xbbebd571	-0.007197075
108	0xbc3c8f8d	-0.011508835
109	0x3bdcf6a1	0.0067432676
110	0x3ba3a3ff	0.004993915
111	0xbce8f46f	-0.028436868
112	0x3c2b0db0	0.010440275
113	0xbbe3b173	-0.006948644
114	0xbd22e617	-0.039770212
115	0xbd24319b	-0.04008637
116	0xbc9416ae	-0.01807722
117	0x3b9bac95	0.004750798
118	0xbc5cd80e	-0.013479246
119	0x3cd9f292	0.026604924
120	0xbd0b441a	-0.034000494
121	0x3c1326b8	0.008981399
122	0x3b51429e	0.0031930576
123	0x3ce01239	0.02735244
124	0x3cf6226e	0.030045714
125	0xbbdb0b2d	-0.006684682
126	0x3ce8af4f	0.028403906
127	0xbc694a88	-0.014238961
128	0x3b8be13a	0.0042687925
129	0xbb91dd63	-0.00445144
130	0xbd1383c6	-0.03601434
131	0x3c6616f0	0.014043555
132	0xbc599218	-0.01327946
133	0xbbb9604a	-0.0056572305
134	0x3cf8ef67	0.030387593
135	0xbcd0a2b7	-0.025468213
136	0x3b7db562	0.003871285
137	0x3b96a34d	0.0045971037
138	0xbb974977	-0.004616912
139	0x3c45b1f0	0.012066349
140	0xbcd4656e	-0.025927272
141	0xbb407996	-0.0029369346
142	0x3ba79214	0.0051138494
143	0x3c8a4139	0.016876804
144	0x3ad97219	0.001658979
145	0x3b812f0f	0.0039423774
146	0xbdd2ec95	-0.10299031
147	0xbc3bf88c	-0.011472832
148	0xba0e56ba	-0.00054297934
149	0xbd9cf3e3	-0.07663705
150	0xba6fb7e6	-0.00091445295
151	0x3d3f3da3	0.04668964
152	0x3c6d4580	0.014481902
153	0xbc71e713	-0.014764565
154	0xbd6ee958	-0.058328003
155	0x3bce0dbe	0.0062882593
156	0xbb282575	-0.0025657092
157	0x3d12a0b2	0.035797782
158	0xbd462564	-0.048375502
159	0x3d2d53a9	0.042316113
160	0xbb9c03a4	-0.004761176
161	0xbcfe2014	-0.031021155
162	0xbbb19de8	-0.005420435
163	0xbd02fce1	-0.031979445
164	0xbb0e2e9e	-0.0021695266
165	0xbc40dd7d	-0.011771557
166	0xbc259bce	-0.0101079475
167	0x3c73f649	0.014890262
168	0x3ac76a9e	0.001521427
169	0xba2762f0	-0.0006385287
170	0xbcc77007	-0.024345411
171	0xbb96d78e	-0.004603333
172	0xbc2c4eb8	-0.010516815
173	0x3c957261	0.018243017
174	0xbcb1d845	-0.02170957
175	0x3b208711	0.0024494568
176	0xbdbfad05	-0.09359173
177	0xbe066e4a	-0.1312801
178	0xbceab71f	-0.028651772
179	0xbd12f0fc	-0.03587435
180	0xbc79f9fa	-0.015257353
181	0xbd3c5ac7	-0.04598501
182	0x3c55f037	0.01305776
183	0x3b2efcf5	0.0026701067
184	0x3ccabd4c	0.024748467
185	0xbc3beb5c	-0.011469688
186	0xbd2cbf2d	-0.042174507
187	0xbaaddff6	-0.0013265598
188	0xbbafd57a	-0.0053660246
189	0xbd1a184c	-0.037620828
190	0xbd2bf0ea	-0.0419778
191	0x3cd613a9	0.026132422
192	0xbdd56852	-0.10420288
193	0x3d035d01	0.032071117
194	0x3bbe6184	0.0058099646
195	0xbc8e1cd1	-0.017347725
196	0x3b111dea	0.0022143074
197	0xbb789b2b	-0.0037934284
198	0x3ba8ca32	0.0051510567
199	0x3d61f768	0.055167586
200	0x3b3113a6	0.0027019768
201	0xbcc27803	-0.023738867
202	0x3c0ebeb8	0.008712463
203	0x3bd685f6	0.006546731
204	0x3bdb37f8	0.0066900216
205	0x3a5ef682	0.00085053605
206	0xbbe8cc16	-0.007104407
207	0xbb99c4fe	-0.0046926728
208	0xbac1812a	-0.0014763225
209	0xbd99ce4a	-0.0751005
210	0x3cde7625	0.027155945
211	0xbbd00d20	-0.006349221
212	0xbdd3c70f	-0.10340702
213	0xbbb2fd5a	-0.0054623308
214	0x3c7c1240	0.0153852105
215	0xbc80ad27	-0.015707565
216	0x3caffacf	0.0214819
217	0x3c07b784	0.0082835
218	0x3c3c69d3	0.01149984
219	0x3b074d93	0.0020645603
220	0xbc96cee2	-0.018409196
221	0x3ca1c1b5	0.019745687
222	0xbce131ab	-0.027489504
223	0xbcdeffcf	-0.027221588
224	0x3c6599a7	0.014013684
225	0xbddaaa29	-0.10676987
226	0x3b8a92f6	0.004228945
227	0xbb53256e	-0.0032218355
228	0xbc9b702d	-0.018974388
229	0x3b35789d	0.00276903
230	0xbc0351fb	-0.008015151
231	0x3c38580d	0.011251462
232	0x3ba38c9d	0.0049911276
233	0x3bab0188	0.0052186884
234	0xbb41aff5	-0.0029554341
235	0xbc8a6f54	-0.016898789
236	0x3c044c80	0.00807488
237	0xbbfbf5f1	-0.0076892306
238	0x3d451144	0.04811217
239	0x3cce52f0	0.025186032
240	0xbccb2fc0	-0.024803042
241	0xb9ca0fab	-0.00038540116
242	0x3cb9477e	0.022617098
243	0x3ba743fa	0.005104539
244	0xbc173919	-0.009229922
245	0x39866b30	0.00025638333
246	0xbc00db04	-0.007864717
247	0xbdcc043e	-0.09961747
248	0x3bea389e	0.0071478626
249	0xbb29ab09	-0.0025889298
250	0x3bcbef6b	0.006223609
251	0xbdb60900	-0.08888435
252	0x3bc2ed99	0.005948734
253	0xba8e1f16	-0.0010843005
254	0xbdcda9b1	-0.10042132
255	0xbc3302a1	-0.01092592

network.4.bias f4 [64]
0	0xbba05220	-0.0048926026
1	0x3bf68c94	0.0075240824
2	0x3c69e4ef	0.014275773
3	0xbcca15e8	-0.024668649
4	0xbaf9847e	-0.0019036678
5	0xbc08f5f1	-0.008359418
6	0xbc881b46	-0.016614567
7	0x3c0c8180	0.008575797
8	0xbb57a1b6	-0.0032902784
9	0xbbfd5c28	-0.007731933
10	0xbc48982d	-0.012243313
11	0xbbeedc37	-0.0072894352
12	0xbcb6eae2	-0.022328798
13	0xbc8245f3	-0.015902495
14	0xbcced9e3	-0.02525038
15	0x3bdef720	0.006804362
16	0x3b9e9b7d	0.004840313
17	0xbd9c2aa1	-0.07625318
18	0xbcb95529	-0.022623615
19	0xbc03d53d	-0.008046445
20	0xbb76e791	-0.0037674645
21	0xbbaf0ea3	-0.005342321
22	0xbbda6cfa	-0.006665823
23	0xbd1bc2e9	-0.038027678
24	0xbc1b98c8	-0.009496875
25	0xbc3d3bfa	-0.011549944
26	0xbcc4b2c2	-0.02401102
27	0x3bf2894c	0.007401621
28	0xbbd6038a	-0.0065311836
29	0xbc202f45	-0.009776895
30	0x3cd4fa36	0.025998216
31	0xbc6c30f4	-0.014415968
32	0x3bae45d1	0.0053183814
33	0xbbbf7ba7	-0.005843598
34	0xbc2386c5	-0.009980862
35	0xbc08f873	-0.008360016
36	0xbd2ab7a8	-0.041679054
37	0xbc6e7ac0	-0.014555633
38	0xbc97701a	-0.018486071
39	0xbcce01c8	-0.025147334
40	0xbc912e39	-0.017722236
41	0xbcd57bf2	-0.026060078
42	0xbbdcd575	-0.0067393132
43	0xbb6f194f	-0.003648359
44	0xbce892a1	-0.02839023
45	0xbc82b123	-0.015953606
46	0xbc1c7955	-0.009550412
47	0xbc7e8212	-0.015533941
48	0xbc3a929d	-0.011387494
49	0xbc6c0e42	-0.014407696
50	0xbbcf9cef	-0.0063358466
51	0xb930195a	-0.00016794112
52	0x3c96e82c	0.018421255
53	0xbbe39bf2	-0.0069460804
54	0xbc852c48	-0.016256467
55	0xbc6f4b45	-0.014605348
56	0xbd4ff916	-0.050774656
57	0xbd18df8a	-0.03732256
58	0x3b6f3774	0.0036501558
59	0xbd0ed9cb	-0.034875672
60	0xbc8f078f	-0.017459659
61	0xbd998f77	-0.07498067
62	0xbc3e0fc6	-0.01160044
63	0x3d2741d5	0.040834267

network.6.weight f4 [64]
0	0x3de15736	0.11002962
1	0x3df777f2	0.12083425
2	0x3dd3dff7	0.10345452
3	0x3dec8c1d	0.11550162
4	0x3ddb88e7	0.107194714
5	0x3de6726d	0.11252294
6	0x3dd7ccd6	0.10537116
7	0x3de8e0c6	0.11370997
8	0x3deafd8a	0.1147414
9	0x3dd6a2d9	0.104802795
10	0x3dd3e365	0.103461064
11	0x3dfcb7ac	0.1233972
12	0x3dfb87fa	0.12281795
13	0x3de64780	0.11244106
14	0x3e1733dc	0.14765877
15	0x3dabd81f	0.08390831
16	0x3db16b25	0.08663014
17	0x3d849b32	0.06474914
18	0x3ddcd6e1	0.107831724
19	0x3dab909a	0.0837719
20	0x3e070e68	0.1318909
21	0x3dc4cf2c	0.096098274
22	0x3df093bf	0.1174693
23	0x3d9f34d6	0.077737495
24	0x3e08dd6e	0.13365719
25	0x3dc6f032	0.09713782
26	0x3dd4d50f	0.103922
27	0x3dd2f180	0.10299969
28	0x3db77fea	0.089599445
29	0x3dd67482	0.10471441
30	0x3daeb614	0.085308224
31	0x3dc7df2a	0.09759362
32	0x3ddc92cb	0.10770186
33	0x3df43e1d	0.1192591
34	0x3dca803c	0.0988774
35	0x3dfca165	0.12335471
36	0x3dd92c02	0.10604097
37	0x3e116435	0.14198382
38	0x3dda757d	0.1066694
39	0x3dc9aaaf	0.098470084
40	0x3dfe68d4	0.12422338
41	0x3de3c9e4	0.11122492
42	0x3dc5d9d8	0.09660691
43	0x3dd09687	0.10184961
44	0x3d92e394	0.07172313
45	0x3e032191	0.12805773
46	0x3db22eb7	0.087003164
47	0x3e247136	0.16058812
48	0x3dd2e42e	0.10297428
49	0x3deb0996	0.11476438
50	0x3de04edc	0.10952541
51	0x3dcf6aaa	0.101277664
52	0x3db5fb97	0.088858776
53	0x3dcdb655	0.10044543
54	0x3ddf9c33	0.109184645
55	0x3dc72b65	0.09725074
56	0x3db23f97	0.08703535
57	0xbd25f3c1	-0.040515665
58	0x3dbecba4	0.09316185
59	0x3e037c58	0.12840402
60	0x3dff911f	0.124788515
61	0x3dc35787	0.09538179
62	0x3e0858ab	0.13315074
63	0x3dc3c22a	0.09558518

network.6.bias f4 [64]
0	0x3d1692a3	0.036760937
1	0x3b887b6b	0.004165103
2	0x3af96d84	0.0019029831
3	0x3cb04f91	0.021522315
4	0x3c8207ae	0.015872803
5	0x3cf1c60a	0.029513378
6	0x3d13a93d	0.03605007
7	0x3c2281e0	0.00991866
8	0x3d0aed0b	0.033917468
9	0x3bc06410	0.0058713034
10	0x3d184446	0.037174486
11	0x3d20b8fe	0.039238922
12	0x3d0beda1	0.034162167
13	0x3cbea3a3	0.023271387
14	0x3ce657fb	0.028118124
15	0x3c5f7fc5	0.0136413025
16	0x3b3e9a21	0.0029083567
17	0xbc0fc8b2	-0.008775877
18	0x3c71e1bb	0.014763291
19	0x3c5f2657	0.013619981
20	0x3cfdb917	0.030972047
21	0x3cc3c566	0.023897838
22	0x3c3a8e04	0.011386398
23	0x39fb9f0e	0.00047992956
24	0x3d45853e	0.048222773
25	0x3c447f2b	0.01199321
26	0x3d0c0e96	0.034193598
27	0x3c2d9702	0.010595085
28	0x3c5339a7	0.012892163
29	0x3cb83c2e	0.022489633
30	0x3a83c995	0.0010054583
31	0xba04f6f4	-0.0005072199
32	0x3c423500	0.0118534565
33	0x3c8f77a7	0.01751311
34	0x3ccd2f4c	0.025046967
35	0x3d0b6077	0.034027543
36	0x3ca7621f	0.02043253
37	0x3cef0871	0.02917883
38	0x3bcfa61a	0.0063369395
39	0x3a5a0ee5	0.00083182595
40	0x3cbc69d4	0.022999682
41	0x3cb2bcea	0.021818597
42	0x3c9ce214	0.019150771
43	0x3c9b8917	0.018986268
44	0xbb9234f4	-0.004461879
45	0x3c53b1b7	0.0129207885
46	0x3c96e912	0.018421683
47	0x3d1afe99	0.03784046
48	0x3cb1bff8	0.021697983
49	0x3cb4bd47	0.02206291
50	0x3c9ec4a9	0.019380884
51	0x3c74d2b7	0.014942816
52	0xbca2755c	-0.019831352
53	0x3cc6ddd0	0.02427569
54	0x3cd677fc	0.02618026
55	0xbc8e15dd	-0.01734441
56	0x3c4e0391	0.0125740925
57	0xbb6447f4	-0.0034832926
58	0xbc32d556	-0.010915121
59	0x3d0032bd	0.031298388
60	0x3ccbf119	0.024895238
61	0x3c28005f	0.010253995
62	0x3cd64ea6	0.02616055
63	0xbc1eddee	-0.009696467

network.6.running_mean f4 [64]
0	0x3c5e1cf1	0.013556705
1	0x3c6072cb	0.013699244
2	0x3d2736dc	0.040823802
3	0x3c2be26c	0.010490995
4	0x3c8a1c46	0.016859185
5	0x3c978693	0.018496787
6	0x3c47d222	0.012196096
7	0x3cace94a	0.021107335
8	0x3c40a8ac	0.0117589645
9	0x3c33701c	0.010952022
10	0x3cd2c4b9	0.02572857
11	0x3bcb813e	0.006210475
12	0x3cdcf248	0.026970997
13	0x3c4b1730	0.012395665
14	0x3c264136	0.010147383
15	0x3c6cbd83	0.01444948
16	0x3cb76b1b	0.022389939
17	0x3922bc94	0.00015519775
18	0x3c2a843e	0.010407506
19	0x3c3646e5	0.011125301
20	0x3c38ce6d	0.0112796845
21	0x3c45b3b3	0.012066769
22	0x3be6ebc3	0.007047148
23	0x3bf98c7a	0.007615623
24	0x3c6e2b76	0.014536729
25	0x3c832cbb	0.01601254
26	0x3c3d3018	0.011547111
27	0x3cb0e5a2	0.021593872
28	0x3c223115	0.009899397
29	0x3c687df6	0.014190188
30	0x3d052cd1	0.032513443
31	0x3cb353a7	0.021890474
32	0x3cb7a671	0.022418233
33	0x3c3d1690	0.011541024
34	0x3c9fdba0	0.019513905
35	0x3cd99d6b	0.02656432
36	0x3bc798c3	0.0060912087
37	0x3be4c4aa	0.006981452
38	0x3bcf4171	0.00632494
39	0x3c75e693	0.015008586
40	0x3c13ca75	0.0090204375
41	0x3c6bc480	0.014390111
42	0x3c84b9d0	0.016201884
43	0x3cdb25b8	0.026751384
44	0x3b80b1c5	0.003927442
45	0x3c08e2b2	0.00835483
46	0x3c202679	0.009774798
47	0x3c58a0c2	0.013221921
48	0x3cdd0b75	0.026983002
49	0x3c798458	0.015229307
50	0x3cac49dd	0.021031315
51	0x3ca230ee	0.019798722
52	0x3d1cef2d	0.038314033
53	0x3c1f3a7d	0.009718535
54	0x3c927a03	0.017880445
55	0x3c849d12	0.016188178
56	0x3c4c41ae	0.012466831
57	0x3bc7b0ce	0.006094075
58	0x3c6e3804	0.014539722
59	0x3c0ba340	0.008522809
60	0x3c2bae40	0.010478556
61	0x3c849485	0.0161841
62	0x3c38e38c	0.01128472
63	0x3d0d23fb	0.03445814

network.6.running_var f4 [64]
0	0x3a189985	0.0005821216
1	0x3a24309a	0.0006263346
2	0x3b06444b	0.0020487483
3	0x3a195c81	0.0005850271
4	0x3a367829	0.0006960654
5	0x3a67f7f9	0.00088489015
6	0x3a0f0392	0.0005455549
7	0x3a79a326	0.0009522907
8	0x39fd4aef	0.0004831175
9	0x39ea3142	0.00044668658
10	0x3ae40c38	0.0017398661
11	0x396ed972	0.00022778453
12	0x3b1f72cf	0.0024329906
13	0x3a2fb2a9	0.00067023427
14	0x3a1401c4	0.0005646015
15	0x39fb99cd	0.0004798904
16	0x3a8313dd	0.0010000427
17	0x36a99385	5.053766e-06
18	0x39eadac9	0.00044794966
19	0x39cf86df	0.00039582603
20	0x3a0e547e	0.00054294604
21	0x3a15fecd	0.0005721867
22	0x396376a8	0.0002169261
23	0x39e3e411	0.00043466737
24	0x3a3b226e	0.00071386143
25	0x3a5a5024	0.0008327982
26	0x3a4c42ab	0.0007791917
27	0x3a7b4b9e	0.0009586158
28	0x39b5f828	0.000347079
29	0x3a3eece0	0.0007283222
30	0x3aaa0b8f	0.0012973415
31	0x3aac5d08	0.0013150284
32	0x3abb0205	0.001426757
33	0x39f74c0d	0.00047168173
34	0x3a5c6c54	0.0008408476
35	0x3af9494a	0.0019019034
36	0x39dde599	0.00042323468
37	0x39726375	0.00023115969
38	0x397365f9	0.00023212274
39	0x3a8348da	0.0010016218
40	0x39ad8136	0.000330934
41	0x3a7ad1e5	0.000956802
42	0x3a5b2101	0.0008359105
43	0x3ac1a2e8	0.0014773281
44	0x38d5b758	0.00010190782
45	0x39952baf	0.0002845204
46	0x39ca0709	0.00038533684
47	0x3a4029ac	0.00073304283
48	0x3aebcfe2	0.0017991031
49	0x3a589b95	0.00082629296
50	0x3a8912fd	0.001045793
51	0x3a859f1c	0.0010194513
52	0x3abdb49c	0.0014473381
53	0x39bffcd3	0.00036618728
54	0x3a7ac8ce	0.00095666654
55	0x3a395444	0.00070697465
56	0x3a554e22	0.0008136948
57	0x39ced19f	0.00039447562
58	0x3a1e2b79	0.00060336996
59	0x39d864d8	0.00041273865
60	0x39f80e93	0.00047313105
61	0x3ab59132	0.0013852476
62	0x39fcbfda	0.00048208126
63	0x3ab04b7a	0.0013450228

network.8.weight f4 [32, 64]
0	0x3ccda37c	0.02510237
1	0xbd01197a	-0.031518437
2	0x3d1b0802	0.037849434
3	0x3d18082d	0.037117172
4	0xbd0a1ab7	-0.033716884
5	0xbc912e6a	-0.017722327
6	0x3af6ed04	0.0018838947
7	0x3cf5603f	0.02995312
8	0xbdcfe535	-0.1015114
9	0xbd34709a	-0.044052698
10	0x3c18b0a7	0.009319461
11	0xbcb8d688	-0.022563234
12	0xbc89f61e	-0.01684099
13	0xbdc614be	-0.09671925
14	0x3c4a0fbd	0.012332854
15	0x3b5ce4d7	0.0033705735
16	0xbd70cfe5	-0.058792014
17	0xbc193e1b	-0.009353186
18	0x3c9eaec1	0.019370439
19	0xbc1204b8	-0.008912258
20	0xbbc070db	-0.0058728284
21	0x3ce35c68	0.027754024
22	0xbc581001	-0.013187409
23	0xbd48e5d2	-0.0490473
24	0x3cf09319	0.029367017
25	0xbcce60b1	-0.02519259
26	0xbcad1cf4	-0.02113197
27	0xbcace0df	-0.02110332
28	0xbd83864d	-0.064221
29	0x3c25c09b	0.0101167215
30	0x3d05b547	0.032643583
31	0xbcc89dec	-0.024489366
32	0xbd371b75	-0.04470392
33	0xbda7dc8b	-0.08196362
34	0x3d31e609	0.04343227
35	0xbb036394	-0.0020048367
36	0xbd67e3a5	-0.056613583
37	0xbd9be6b7	-0.07612365
38	0xbcb5e645	-0.022204528
39	0x3c15520c	0.0091138
40	0x3b86c0af	0.004112325
41	0xbcaf8d13	-0.021429574
42	0x3c069647	0.00821454
43	0x3c98dd4e	0.018660214
44	0x3cba5135	0.0227438
45	0xbd733455	-0.05937608
46	0xbdc7b81d	-0.09751914
47	0x3ca2a2a3	0.019852942
48	0xbbfa4cfa	-0.007638571
49	0xbdb16cb4	-0.086633116
50	0x3d0d7509	0.03453544
51	0x3ccf8f58	0.025336906
52	0x3d35948f	0.04433113
53	0xbcd708a3	-0.026249235
54	0xbd1c7480	-0.03819704
55	0x3d26b918	0.040703863
56	0xbd8e6a33	-0.0695385
57	0x3b2a1f2c	0.0025958521
58	0x3d62d6fe	0.055380814
59	0xbc132589	-0.008981117
60	0x3c6d7960	0.01449427
61	0xbd7dde09	-0.061979327
62	0xbc69446c	-0.014237504
63	0xbd301560	-0.042989135
64	0xbd31336b	-0.043261927
65	0x3c8674be	0.016413089
66	0x3d111bdd	0.035426963
67	0xbc28dbc6	-0.010306304
68	0x3c74be27	0.014937914
69	0xbdd3fd9b	-0.10351106
70	0x3b314e2e	0.0027054655
71	0xbd97b4bd	-0.0740752
72	0x3c3bb98c	0.011457812
73	0xbc2470af	-0.0100366315
74	0xbc04bf46	-0.008102244
75	0x3a37831e	0.0007000434
76	0x3c77eb94	0.01513185
77	0x3aebe7bc	0.0017998139
78	0xbb767341	-0.0037605318
79	0xbcd3ac77	-0.025839074
80	0x3c23465e	0.009965507
81	0xbcde8f15	-0.027167836
82	0x3cec5cb3	0.028852796
83	0x3bc05d14	0.005870471
84	0xbc2b0439	-0.0104380185
85	0xbd5da632	-0.054113574
86	0x3af24f6b	0.0018486803
87	0xbce22c48	-0.027609006
88	0xbca9df6a	-0.020736415
89	0x3cd532d8	0.02602522
90	0xbceef2d0	-0.029168516
91	0xbc8266f5	-0.015918234
92	0xbc9c5f9c	-0.019088559
93	0xbc10f5cb	-0.008847664
94	0x3cca907f	0.024727104
95	0x3bddd2e9	0.006769527
96	0x3c0ca236	0.008583596
97	0xbac8b259	-0.0015311941
98	0xbd15a8d2	-0.036537953
99	0x3cb18d30	0.021673769
100	0xbb31ae57	-0.0027111971
101	0xbb80abb7	-0.00392672
102	0xbda3e15b	-0.080019675
103	0xbc32a2ab	-0.010903041
104	0x3c0cdab0	0.008597061
105	0xbbed827e	-0.007248222
106	0xbded1195	-0.11575619
107	0x3cd066a4	0.025439568
108	0xbd0b67de	-0.034034602
109	0xbca1af6f	-0.019736974
110	0x3ca7ce9c	0.020484261
111	0xbc965470	-0.01835081
112	0x3adf7f54	0.0017051497
113	0x3ab14450	0.0013524387
114	0x3bf64667	0.007515717
115	0xbc4769f4	-0.012171257
116	0x3c3d69d9	0.011560881
117	0xbde160e1	-0.11004806
118	0xbdd7c6a5	-0.10535935
119	0x3c3bc0ee	0.011459572
120	0x3ae09d9a	0.0017136813
121	0x3c86a0cb	0.016434094
122	0xbcb3f017	-0.02196507
123	0x3bf03fbd	0.007331817
124	0xbdd36f8d	-0.10324011
125	0xbbefb39c	-0.0073151123
126	0x3bb81a78	0.0056183897
127	0x3bdea82a	0.006794949
128	0x3c0bcf4f	0.008533313
129	0xbd3b6548	-0.045750886
130	0xbbe43e31	-0.0069654216
131	0x3b9e44bc	0.004829971
132	0xbce4f7a0	-0.027950108
133	0xbba3ea3b	-0.0050022877
134	0x3a143e34	0.0005655021
135	0xbc5d9840	-0.013525069
136	0xbda132b9	-0.07871003
137	0xbc289727	-0.010289944
138	0xbc6bbe6a	-0.01438866
139	0xbd9c0fd0	-0.076202035
140	0xbc72a878	-0.014810674
141	0xbc295846	-0.010335987
142	0xbd4aec3a	-0.04954169
143	0xbab3296c	-0.0013668961
144	0xb9db7eb5	-0.0004186534
145	0x3d5239e9	0.05132476
146	0x3c704477	0.014664761
147	0x3c5d3d1f	0.013503342
148	0xbd6114e2	-0.054951556
149	0x3a8ad411	0.0010591765
150	0xbd1fff23	-0.039061677
151	0xbd51cfc9	-0.05122355
152	0x3caa2bfe	0.02077293
153	0xbbe9b412	-0.0071320618
154	0xbdb5cf8f	-0.08877479
155	0xbd0af19d	-0.033921827
156	0xbc1b8092	-0.009491103
157	0xbc88b37a	-0.016687144
158	0xbc6f3b53	-0.014601546
159	0xbc9146c1	-0.017733933
160	0xbd5825f6	-0.052770577
161	0xbc82b651	-0.015956076
162	0x3d861bb4	0.06548253
163	0xbd119d59	-0.03555045
164	0xbd393aa4	-0.04522194
165	0xbd3eecfe	-0.046612732
166	0xbd5e1e3c	-0.054228052
167	0xbd4d5479	-0.050129388
168	0x3c1e205e	0.009651272
169	0xbc75d2c8	-0.015003867
170	0xbc6d66db	-0.014489855
171	0x3d8ca9d8	0.068683326
172	0x3d428d99	0.04749832
173	0xbd134f87	-0.035964515
174	0xbd0e3243	-0.034715902
175	0xbd1c349e	-0.038136117
176	0xbd12902d	-0.035782028
177	0xbd1b197f	-0.03786611
178	0xbd9f6524	-0.07782963
179	0x3c69c117	0.014267228
180	0x3d91d12f	0.07119977
181	0x3d0f06d3	0.034918617
182	0xbb854e54	-0.0040681753
183	0x3cc85967	0.024456693
184	0x3bf7add9	0.007558566
185	0x3a24b18b	0.00062825595
186	0xbb4c2c04	-0.0031154165
187	0x3c55cb25	0.013048922
188	0xbce2a893	-0.027668273
189	0xbdba9c00	-0.09111786
190	0xbc2da28d	-0.010597837
191	0xbcc06394	-0.023484983
192	0xbc822618	-0.015887305
193	0x3a596aa7	0.00082937855
194	0xbd49d395	-0.049274046
195	0xbd0a2298	-0.033724397
196	0x3b16d864	0.0023017162
197	0x3c833a8f	0.016019134
198	0x3c11e910	0.008905664
199	0x3c9686d1	0.018374832
200	0xbb3a341e	-0.0028412412
201	0x3b846109	0.004039888
202	0xbde7e392	-0.113227025
203	0xbb85f1ec	-0.004087677
204	0xbda45dde	-0.08025716
205	0xbb8ee98d	-0.0043613375
206	0xbda5afd4	-0.08090177
207	0x3b67e6be	0.0035385336
208	0x3ccb2fd8	0.024803087
209	0xbccf98dc	-0.025341444
210	0xbc952324	-0.018205233
211	0x3cdb2d2f	0.026754944
212	0x3b24435d	0.0025064566
213	0x3c9d4a8a	0.019200582
214	0x3c026f1f	0.007961064
215	0xbcd2dc79	-0.025739895
216	0xbc177772	-0.009244787
217	0xbb8329bf	-0.0040027793
218	0xbc909a44	-0.017651685
219	0x3ce65593	0.028116977
220	0x3cf615ad	0.030039633
221	0xbd07597e	-0.03304433
222	0xbcca6dfc	-0.024710648
223	0xbd229b0c	-0.039698645
224	0xbd9604b1	-0.073251136
225	0x3cbc4c6c	0.02298566
226	0xbc0b9321	-0.008518965
227	0xbdb674ef	-0.08909022
228	0xbcb9aeda	-0.022666384
229	0x3b87719a	0.0041334154
230	0xbb034c41	-0.0020034465
231	0xbdc6aef3	-0.09701338
232	0xbd06fdab	-0.03295676
233	0xbbbc406f	-0.005744986
234	0x3a43627f	0.0007453337
235	0xbcf5bfd6	-0.029998701
236	0xbd32e3a0	-0.04367411
237	0x3bdf0bbe	0.0068068197
238	0x3d119d1d	0.035550226
239	0xbdaf4dcc	-0.085597605
240	0xbdc1306d	-0.094330646
241	0x3c365ebc	0.011130985
242	0xbbbab29e	-0.0056975624
243	0x3cc45ec1	0.023970963
244	0x3d1afc83	0.03783847
245	0x3c4baaec	0.012430888
246	0x3c0c88ca	0.008577535
247	0x3cf4e1c5	0.029892812
248	0xbc4f3ffb	-0.0126495315
249	0xbca39986	-0.019970667
250	0xbcf460b5	-0.02983127
251	0xbd1f375c	-0.038871154
252	0xbb086f3c	-0.0020818254
253	0xbb168cdd	-0.0022972145
254	0xbd9c0e5a	-0.07619925
255	0xbb3a26ec	-0.0028404547

network.8.bias f4 [32]
0	0x3d21c40e	0.039493613
1	0x3cdc37d0	0.026882082
2	0x3c33e3ca	0.010979602
3	0x3d3873c5	0.04503228
4	0x3d422fff	0.047409054
5	0x3d2a9af4	0.04165168
6	0x3d2af90a	0.04174141
7	0x3d550a3b	0.05201171
8	0x3cf2f0db	0.029655864
9	0x3d19ca80	0.037546635
10	0x3c8e94b5	0.017404893
11	0x3ca5685b	0.020191362
12	0x3cdb3f52	0.026763592
13	0x3b61e1fd	0.0034466975
14	0x3c5bac77	0.013407818
15	0x3cdbb98d	0.026821876
16	0x3da104ad	0.0786222
17	0x3d3758fa	0.04476259
18	0x3d8456c4	0.06461862
19	0x3cdedce6	0.027204942
20	0x3cef8c1b	0.029241612
21	0x3da1baf1	0.07896984
22	0x3cd375e1	0.025813045
23	0xbb332c2d	-0.0027339563
24	0x3d00ba25	0.03142752
25	0x3dc1c4ec	0.09461388
26	0xbc1d65db	-0.009606804
27	0x3d105849	0.035240445
28	0x3d150521	0.036381844
29	0x3d03469c	0.03204976
30	0x3d599815	0.053123552
31	0x3d102454	0.035190895

network.10.weight f4 [32]
0	0x3f373abb	0.7157399
1	0x3f512304	0.81694055
2	0x3f22ffd7	0.6367163
3	0x3f65d6b6	0.8978075
4	0x3f620ebd	0.8830374
5	0x3f60a2d8	0.8774848
6	0x3f5674e6	0.8377212
7	0x3f5280db	0.8222787
8	0x3f536973	0.8258278
9	0x3f5d4852	0.8643848
10	0x3f4e4220	0.8056965
11	0x3f276c0d	0.6539925
12	0x3f58f2d6	0.8474554
13	0x3f724c1b	0.9464738
14	0x3f231a32	0.63711846
15	0x3f445469	0.766913
16	0x3f37cd74	0.7179787
17	0x3f5a0bfb	0.8517453
18	0x3f439656	0.7640127
19	0x3f37e431	0.7183257
20	0x3f4db6f7	0.8035731
21	0x3f48ba08	0.7840886
22	0x3f5906c3	0.8477594
23	0x3f609b83	0.8773729
24	0x3f2ebfdd	0.6826151
25	0x3f45cad8	0.7726264
26	0x3f20567a	0.6263195
27	0x3f56ea20	0.83950996
28	0x3f76baf7	0.96379036
29	0x3f5a5ce5	0.85297996
30	0x3f35cf57	0.710195
31	0x3f611f5b	0.8793847

network.10.bias f4 [32]
0	0x3d934fc9	0.07192952
1	0x3e259070	0.1616838
2	0x3e5c9218	0.21540105
3	0xbd0234bf	-0.031788584
4	0xbdf67dfa	-0.12035747
5	0xbd20435e	-0.039126746
6	0xbdb172e1	-0.086644895
7	0xbd99b4d7	-0.075051956
8	0xbc710ece	-0.014713002
9	0xbe008055	-0.12548955
10	0xbd87ebee	-0.06636797
11	0x3dded623	0.10880687
12	0xbd3901de	-0.045167796
13	0x3d82c506	0.063852355
14	0x3e0e1248	0.13874161
15	0x3e15752f	0.14595483
16	0xbcdcc284	-0.026948221
17	0x3cf69cf0	0.03010413
18	0xbdf1079f	-0.11769032
19	0x3cccbbe3	0.024991935
20	0x3b0546b5	0.0020336334
21	0x3d204470	0.039127767
22	0xbcda8c9d	-0.026678378
23	0x3d55b834	0.052177623
24	0x3e0c31a0	0.13690805
25	0xbda1a9c1	-0.07893706
26	0x3e5f2e3b	0.2179498
27	0x3d0e0f2e	0.034682445
28	0x3d3e5a3f	0.046472784
29	0xbe18ba8f	-0.14914916
30	0xbc4d3eae	-0.012527151
31	0xbd0d43b8	-0.03448841

network.10.running_mean f4 [32]
0	0x3d308387	0.043094184
1	0x3d049ca8	0.03237596
2	0x3ca90452	0.020631943
3	0x3d401104	0.046891227
4	0x3d3e53b7	0.046466555
5	0x3d36944d	0.044575024
6	0x3d2959c5	0.041345377
7	0x3d68d83f	0.056846853
8	0x3d08e474	0.033420995
9	0x3d1b6a7c	0.03794335
10	0x3ce183cf	0.027528672
11	0x3d14d550	0.036336243
12	0x3d0e6aab	0.034769695
13	0x3c8d34dc	0.01723712
14	0x3cbef67e	0.023310896
15	0x3d09690c	0.033547446
16	0x3da2b49a	0.07944603
17	0x3d45ad6e	0.0482611
18	0x3d796292	0.06088502
19	0x3d08b3cc	0.033374593
20	0x3cfeb1c7	0.03109063
21	0x3d93f49e	0.072243914
22	0x3d1974c2	0.037464865
23	0x3ca6fa0a	0.0203829
24	0x3d292c76	0.041302167
25	0x3dc23f48	0.09484726
26	0x3c84a882	0.016193632
27	0x3d23b470	0.039967
28	0x3d1ce3ea	0.038303293
29	0x3d2545f4	0.040349916
30	0x3d6dc54c	0.058049485
31	0x3d24ca4d	0.04023199
