models/mlp_multiclass_crossentropy20250828_013848.pth (torch, 81762 bytes, 21 tensors)

network.0.weight f4 [128, 48]
-0.032763105 0.001082343 -0.0065536504 -0.035056323 -0.021447703 -0.0023408725 0.00751208 0.002665568
-0.010952465 0.0018365972 0.009761767 -0.0055956 -0.010104856 0.011922197 -0.0018867706 -0.0023307013
-0.0018291922 0.032424808 -0.0046610134 0.005550734 -0.017369002 -0.0010210766 -0.008265004 0.026730534
0.0032654873 -0.0029427542 -0.013596383 0.0007695522 0.0034849606 -0.0011940753 -0.006543815 -0.01268295
0.0042887037 -0.0020085257 -0.034830756 -0.0004962789 0.0005120095 -0.02436134 -0.006136557 0.02713389
-0.0179042 -0.0022994282 0.0029899185 0.0035783735 0.00059420825 -0.00097343774 -0.012477173 -0.0030374548
0.0002574888 -0.00052251376 0.0033337723 -0.0072216284 -0.0155375935 0.004628136 0.023891691 0.0053277845
-0.009790274 0.0026656995 -0.02030531 0.0014303376 0.007658403 -0.0033527762 -0.01401556 -0.0040744822
-0.010519408 -0.014850464 -0.007617891 0.004812535 -0.0017964658 -0.00036637575 0.0029059981 0.008102324
-0.00012655488 -0.020024786 -0.014934434 -0.00383428 0.011185061 -0.0014340377 -0.0024036258 -0.011099824
0.0036023313 0.003550784 0.01025392 -0.0020664937 -0.0013681601 -0.0035561745 -0.0021243826 -0.0031773143
0.001028184 -0.029300129 -0.0072778463 0.03576068 -0.0034604592 -0.0036701693 -0.002943116 -0.011827204
-0.0046000974 0.0031363366 5.022643e-05 -0.025182605 -0.016015159 0.0010070286 -0.0066313446 -0.012032135
-0.005198757 -0.0014479938 -0.0035781057 0.003176242 0.0017311482 -0.00043997794 -0.006787784 -0.014292536
-0.0022855583 0.00407474 0.0033150178 -0.009702859 0.0051661143 0.0021091716 -0.003449654 0.0049788216
-0.042840213 0.009084685 -0.0067710737 0.018747086 0.013416583 -0.0028048942 -0.0016517111 -0.0046233204
0.0022211482 0.00073729653 -0.032490116 -0.0047083357 0.0006487471 -0.035366286 -0.0020212135 0.0075649163
-0.0064763105 0.00021239501 -0.0019348316 0.0033138082 0.0013181678 0.00028640887 0.0039028549 0.0011610866
-0.007926739 0.003434601 -0.011303665 0.009837443 0.0040533887 0.0031709527 -0.059422478 0.010437524
-0.0037514446 0.0010987009 0.040093582 -0.02877417 -0.005845925 0.012606285 0.019356638 -0.0017465405
0.006040374 -0.0074979444 0.052860137 0.037232365 0.008602659 -0.0011786663 -0.003295955 0.0031525285
-0.0008899114 -0.008298309 -0.006450532 -0.027086219 -0.025354777 -0.00091880717 0.0014745612 -0.008062481
-0.0015019341 0.0044510346 -0.0018114354 -0.012808487 -0.0020323186 0.002512032 -0.008120272 0.003590299
0.00017062153 -0.0079959845 0.000532373 -0.021311536 -0.0033123367 -0.0027766505 -0.008915561 -0.0031742742
0.009496953 -0.0021185444 -0.0013410574 -0.04421586 -0.0052301134 -0.039092332 -0.005573479 -0.0026727768
-0.0024880709 0.0012232888 -0.0030582123 -0.0014125512 -0.0025196057 -0.0034985212 0.030099897 -0.0026547683
-0.0073108226 0.00082470156 0.08561753 0.0031216987 -6.992132e-05 -0.0006119881 0.0065977187 0.016128445
-0.015962785 -0.0045771343 -0.004140526 0.020486217 0.0033533839 -0.0010601912 -0.00017692301 -0.0069092344
-0.014156547 -0.037573084 -0.034797803 0.0020176845 -0.0031193402 -0.006863338 -0.010383515 0.0030904736
-0.023476781 -0.023739783 0.0029466944 0.001550078 -0.0014992078 -0.0019039728 -0.0003576161 -0.022271676
0.021091856 -0.00042717435 -0.008132753 -0.0011596899 -0.002693397 0.001910534 -0.078256965 -0.0068112123
-0.0002942628 -0.0005921482 0.008353469 0.021472797 -0.0005938333 0.005530716 0.001513592 0.00048704882
00000000: 9b32 06bd 68dd 8d3a 01c0 d6bb 3897 0fbd
00000010: 18b3 afbc 5369 19bb e527 f63b cfb0 2e3b
00000020: f871 33bc fab9 f03a d2ef 1f3c 4c5b b7bb
00000030: d78e 25bc 5255 433c 844d f7ba aebe 18bb
00000040: 81c1 efba e0cf 043d 6abb 98bb eee2 b53b
00000050: 7049 8ebc a5d5 85ba f069 07bc fef9 da3c
00000060: c901 563b 39db 40bb 5dc3 5ebc c6bb 493a
00000070: f063 643b 8582 9cba 806d d6bb 26cc 4fbc
00000080: 4188 8c3b 78a1 03bb b2aa 0ebd b718 02ba
00000090: 6038 063a 6f91 c7bc 2c15 c9bb e447 de3c
000000a0: d4ab 92bc 01b2 16bb 82f2 433b 2583 6a3b
000000b0: a4c4 1b3a 4d2e 7fba 0e6d 4cbc 0910 47bb
000000c0: 90ff 8639 4ef9 08ba 6b7b 5a3b 69a3 ecbb
000000d0: 6491 7ebc 9ea7 973b 82b8 c33c b294 ae3b
000000e0: 6367 20bc 04b3 2e3b 5257 a6bc 2a7a bb3a
000000f0: 57f3 fa3b 40ba 5bbb 85a1 65bc 3c83 85bb
00000100: 9859 2cbc 5c4f 73bc 809f f9bb 78b2 9d3b
00000110: 6477 ebba 1f16 c0b9 8f72 3e3b 9cbf 043c
00000120: d1b3 04b9 050b a4bc 8eaf 74bc 8b48 7bbb
00000130: 8c41 373c 52f6 bbba 2686 1dbb 09dc 35bc
00000140: 1715 6c3b 45b4 683b 0f00 283c 036e 07bb
00000150: d653 b3ba b50e 69bb 3a39 0bbb 7d3a 50bb
00000160: 21c4 863a d306 f0bc 007b eebb ca79 123d
00000170: dfc8 62bb 3987 70bb 4be1 40bb e4c6 41bc
00000180: 6abc 96bb ff8a 4d3b 38aa 5238 c04b cebc
00000190: 3932 83bc 46fe 833a c04b d9bb 6f22 45bc
000001a0: 565a aabb 9cca bdba a77e 6abb 8028 503b
000001b0: b2e7 e23a d7ac e6b9 0f6c debb 3e2b 6abc
000001c0: 4ec9 15bb 6685 853b c540 593b bef8 1ebc
000001d0: 8248 a93b 073a 0a3b 9713 62bb 6225 a33b
000001e0: 3879 2fbd eed7 143c e2df ddbb 7d93 993c
000001f0: 3ad1 5b3c 51d2 37bb 3a7e d8ba 397f 97bb
00000200: af90 113b 2247 413a 5b14 05bd 6248 9abb
00000210: ae10 2a3a 3ddc 10bd 5676 04bb 1ee3 f73b
00000220: 3b37 d4bb 5ab6 5e39 2d9a fdba 7a2c 593b
00000230: 5fc6 ac3a 2629 9639 0ac7 7f3b 9a2f 983a
00000240: 27df 01bc 0b17 613b 0233 39bc 3a2d 213c
00000250: 4ad2 843b c2cf 4f3b fc64 73bd 2602 2b3c
00000260: ccda 75bb 4902 903a 2b39 243d cfb7 ebbc
00000270: 2c8f bfbb 978a 4e3c d091 9e3c 2dec e4ba
00000280: 54ee c53b 51b1 f5bb df83 583d f780 183d
00000290: 2bf2 0c3c 7a7d 9aba f300 58bb a79a 4e3b
000002a0: f148 69ba a1f5 07bc fc5e d3bb ebe3 ddbc
000002b0: d2b4 cfbc 1bdc 70ba 1046 c13a 7f18 04bc
000002c0: 8cdc c4ba fcd9 913b b06d edba b0da 51bc
000002d0: a630 05bb e7a0 243b e40a 05bc 394b 6b3b
000002e0: dee8 3239 9701 03bc f28e 0b3a 8895 aebc
000002f0: ca13 59bb 77f8 35bb 9312 12bc 7c07 50bb
00000300: 1c99 1b3c 47d7 0abb 6bc6 afba b11b 35bd
00000310: 5f61 abbb 481f 20bd bba1 b6bb c129 2fbb
00000320: e70e 23bb c356 a03a 4a6c 48bb 5a25 b9ba
00000330: f81f 25bb 7247 65bb 0f94 f63c 9ffb 2dbb
00000340: a08f efbb c930 583a 3e58 af3d 6a95 4c3b
00000350: b9a2 92b8 d46d 20ba ad31 d83b cd1f 843c
00000360: 63c4 82bc c9fb 95bb 40ad 87bb b6d2 a73c
00000370: 72c4 5b3b 1df6 8aba 6984 39b9 dc66 e2bb
00000380: ddf0 67bc 3ce6 19bd 2488 0ebd 213b 043b
00000390: d86d 4cbb dae5 e0bb 9e1f 2abc 8b89 4a3b
000003a0: 6152 c0bc ef79 c2bc 541d 413b fd2b cb3a
000003b0: 1181 c4ba ba8e f9ba 6c7e bbb9 1773 b6bc
000003c0: d4c8 ac3c 5ff6 dfb9 3d3f 05bc bc00 98ba
000003d0: b483 30bb e26a fa3a 3045 a0bd 9730 dfbb
000003e0: 4947 9ab9 653a 1bba fddc 083c b8e7 af3c
000003f0: 7aab 1bba 023b b53b b863 c63a 965a ff39

network.0.bias f4 [128]
0.029094236 -0.016934624 0.02121536 0.024963267 0.008751742 -0.02391973 0.019437572 0.015278308
0.014812741 0.011326407 -0.016788086 -0.017171863 -0.0058448464 -0.017218428 -0.00027853128 -0.014529909
-0.008183072 0.020027108 -0.027318362 -0.009046795 0.0016188836 -0.04878915 -0.024259355 -0.00860982
-2.234728e-06 -0.008294566 0.0016824662 -7.4408626e-09 -0.051720798 0.002998315 -0.012357763 -0.0059536532
-0.071544416 -0.015318677 0.019062065 -0.0009719212 0.019368742 -0.030155765 -0.037999585 -0.019096604
-0.03718852 -0.007504103 -0.010014822 -0.017977966 -0.0328326 -0.009853397 -0.0037995463 -2.6638114e-05
0.018574083 -0.0055078985 -0.00038540608 4.9983882e-06 -0.007969123 0.028208375 0.005067002 -0.015617843
-0.011328745 0.003893361 -0.059696432 0.008536222 -0.039194264 -0.021600956 -0.02396914 -0.045649283
-0.012825996 -0.0033623967 -0.015267851 0.0009228398 -5.6713052e-05 0.0021111718 -0.014241414 2.0764644e-05
-0.005395846 2.6475007e-05 -0.011690967 -2.4712985e-05 -0.008979933 0.021422016 -0.0026520682 -0.027278429
-0.01825311 -6.2752605e-07 -0.0062989285 0.001107162 -0.05416863 0.021431781 0.022016313 -0.044484377
-0.0010072525 -0.0074944086 -0.022520913 -0.023495289 -0.0038007167 -0.044840984 0.006264032 1.0046546e-05
0.0014407252 -0.0054200105 0.010104205 -0.034086645 -2.3664576e-05 -0.012326807 0.027410248 -0.015980348
0.01187863 -0.009112075 -0.0024624548 -0.011203234 -0.0037827655 0.0065944833 -0.026336895 -0.020107197
-0.0007160275 -0.021492343 -0.035136484 -0.025659787 0.0020835893 0.00821623 -0.02683497 -0.022752406
-0.019586297 -0.05404709 -0.031841844 -0.0029251208 -0.0012413107 -0.020231053 0.0013018203 0.01768531
00000000: 0957 ee3c 7bba 8abc d6cb ad3c c47f cc3c
00000010: 7763 0f3c 4ff3 c3bc 8b3b 9f3c de51 7a3c
00000020: 24b1 723c 6592 393c 2b87 89bc 02ac 8cbc
00000030: 2086 bfbb a90d 8dbc d607 92b9 db0e 6ebc
00000040: 4b12 06bc e40f a43c c2ca dfbc 0239 14bc
00000050: b830 d43a 22d7 47bd 8ebb c6bc 3410 0dbc
00000060: 56f8 15b6 eee5 07bc 3386 dc3a 85aa ffb1
00000070: 30d9 53bd 617f 443b 3778 4abc dd16 c3bb
00000080: e185 92bd 30fb 7abc 0c28 9c3c 87c8 7eba
00000090: 32ab 9e3c 3909 f7bc 74a5 1bbd 7b70 9cbc
000000a0: fd52 18bd fae4 f5bb 3515 24bc 8746 93bc
000000b0: 7a7b 06bd 2470 21bc cf01 79bb ea74 dfb7
000000c0: ad28 983c 9a7b b4bb 5410 cab9 d4b7 a736
000000d0: ed90 02bc 4015 e73c 1809 a63b fbe1 7fbc
000000e0: 339c 39bc c227 7f3b 3f84 74bd 83db 0b3c
000000f0: 2a8a 20bd 7df4 b0bc ee5a c4bc befa 3abd
00000100: 2024 52bc a85b 5cbb 0226 7abc bbea 713a
00000110: 2ddf 6db8 965b 0a3b d254 69bc bc2f ae37
00000120: a3cf b0bb a516 de37 788b 3fbc bb4e cfb7
00000130: 9220 13bc 397d af3c 52ce 2dbb 0377 dfbc
00000140: 8c87 95bc 4373 28b5 3e67 cebb 311e 913a
00000150: eddf 5dbd b491 af3c 8e5b b43c 4035 36bd
00000160: c905 84ba a893 f5bb c77d b8bc 3179 c0bc
00000170: 7215 79bb 2eab 37bd 8242 cd3b 968d 2837
00000180: b7d6 bc3a 589a b1bb 1c8c 253c 709e 0bbd
00000190: 4a83 c6b7 60f6 49bc 758b e03c 38e9 82bc
000001a0: 969e 423c d04a 15bc 2361 21bb c58d 37bc
000001b0: 46e8 77bb 8916 d83b 79c0 d7bc d9b7 a4bc
000001c0: cbb3 3bba b610 b0bc 46eb 0fbd 7934 d2bc
000001d0: d48c 083b 5e9d 063c 03d5 dbbc 4163 babc
000001e0: 7173 a0bc 7b60 5dbd 986c 02bd 62b3 3fbb
000001f0: 7ab3 a2ba 98bb a5bc d7a1 aa3a c9e0 903c

network.2.weight f4 [128]
0.049141668 -0.042762913 0.047196783 0.0489166 -0.066867776 0.039468043 -0.050700635 0.052740425
0.061366376 -0.043938775 0.061744787 0.04745418 0.061512724 -0.05369373 -0.00044598297 -0.06220557
0.0480902 -0.06233486 0.057550758 -0.050011598 0.06390625 -0.06419472 0.064598516 0.058359694
-2.1528203e-05 -0.058910377 0.071989655 -0.00017364894 -0.055622514 -0.0571207 0.059071954 0.046078105
0.06500753 -0.055882666 0.060646117 -0.052385215 0.05008596 0.043867603 0.050107565 -0.044819348
0.054535713 -0.059212804 0.049674526 0.038148716 -0.04845443 -0.060773242 0.06566835 -0.0004266518
0.06883281 0.044372 0.00050788606 -5.3853233e-05 0.04459882 0.051540222 0.062269494 -0.05644622
0.04065439 0.06272064 0.05524142 0.050395533 0.07318917 -0.037809413 -0.06216148 -0.04813335
-0.04959304 0.059231605 0.054781012 0.055278733 0.045132626 -0.041362148 0.063623555 0.06007733
-0.05961017 8.155098e-06 -0.041576367 -0.0001943429 0.06476217 0.058810197 -0.05818776 -0.056522932
0.044171836 -1.7509073e-07 -0.042129166 0.048366953 0.06994645 0.054563016 -0.063510105 0.069235966
-0.041612465 0.06084807 0.06229284 0.06209599 -0.070870556 -0.054897755 0.05186254 9.6060256e-05
0.04557992 0.061111577 0.062301937 -0.050109006 -1.7493769e-05 -0.05619594 0.05344601 0.05281779
0.04594275 0.043825727 -0.04745904 0.07452531 -0.046198096 -0.04436242 0.0842722 0.058351297
0.06340678 0.06901835 -0.07256382 0.044758134 -0.056755614 0.07826819 0.06866572 0.04427868
-0.043974236 0.04987206 -0.05655111 -0.046086002 0.055237237 0.053332344 0.03601255 0.0494941
00000000: c648 493d 2a28 2fbd 6a51 413d c65c 483d
00000010: f9f1 88bd 3ea9 213d 78ab 4fbd 5806 583d
00000020: 4f5b 7b3d 25f9 33bd 1ae8 7c3d 505f 423d
00000030: c4f4 7b3d f5ed 5bbd d2d2 e9b9 45cb 7ebd
00000040: 3bfa 443d d752 7fbd 58ba 6b3d f6d8 4cbd
00000050: 48e1 823d 8578 83bd 3a4c 843d 930a 6f3d
00000060: 7797 b4b7 024c 71bd 506f 933d 8815 36b9
00000070: 6fd4 63bd 65f7 69bd 6ff5 713d 65bc 3c3d
00000080: ab22 853d 39e5 64bd 1068 783d e191 56bd
00000090: f026 4d3d 84ae 333d 973d 4d3d 7e94 37bd
000000a0: d760 5f3d 2089 72bd 8477 4b3d d441 1c3d
000000b0: 2778 46bd 5ded 78bd 217d 863d 3cb0 dfb9
000000c0: 37f8 8c3d 6abf 353d a823 053a 78e0 61b8
000000d0: 41ad 363d d71b 533d 4c0e 7f3d 2734 67bd
000000e0: 3885 263d ae73 803d d444 623d 8c6b 4e3d
000000f0: 34e4 953d 0bde 1abd 099d 7ebd 7a27 45bd
00000100: 1222 4bbd d79c 723d 0e62 603d f46b 623d
00000110: fddc 383d 5b6b 29bd 114d 823d a513 763d
00000120: cb29 74bd e1d1 0837 fb4b 2abd 86c8 4bb9
00000130: 07a2 843d f6e2 703d 4a56 6ebd 9784 67bd
00000140: 87ed 343d 9300 3cb4 a28f 2cbd 6d1c 463d
00000150: 1640 8f3d 787d 5f3d 9611 82bd 96cb 8d3d
00000160: d571 2abd d33b 793d c726 7f3d 5d58 7e3d
00000170: 9524 91bd 78dc 60bd d16d 543d f573 c938
00000180: 03b2 3a3d 2250 7a3d 5130 7f3d 1a3f 4dbd
00000190: 95bf 92b7 b72d 66bd 34ea 5a3d 7857 583d
000001a0: 772e 3c3d 9b82 333d 6964 42bd baa0 983d
000001b0: 373a 3dbd 5eb5 35bd e796 ac3d c501 6f3d
000001c0: 6adb 813d 7e59 8d3d 579c 94bd 4e54 373d
000001d0: 9378 68bd 134b a03d 9da0 8c3d 905d 353d
000001e0: 541e 34bd a546 4c3d 23a2 67bd adc4 3cbd
000001f0: 7140 623d 0473 5a3d e581 133d 53ba 4a3d

network.2.bias f4 [128]
0.004657886 -0.006525689 0.0069751726 0.0067221327 0.010229471 -0.0061272066 -0.017356431 0.019394709
0.01986784 -0.012037071 0.019171467 0.009483991 -0.0041261306 -0.0005453359 0.00014096001 -0.010329707
-0.004452553 -0.019103454 -0.0027601274 -0.009214532 0.017022293 -0.02342406 0.011186253 -0.001189626
-0.00013317257 -0.018056555 0.026139338 -9.9064106e-05 -0.011466173 -0.011086575 0.004131157 0.0031919025
0.0061922953 -0.013511617 0.021082671 -0.0045120134 0.0074098953 -0.0038985205 0.0055167833 -0.005424537
0.014792676 -0.016483927 0.010027544 0.0075023314 -0.006036471 -0.0002506981 0.019079432 -0.00033171146
0.008897818 0.011159698 0.00027263668 0.0003357675 0.0069399574 0.005181301 0.016692452 -0.008459529
0.010002828 0.014546432 0.00858557 0.0036570306 0.0038514861 -0.0026174765 -0.014266838 0.009085502
-0.0008575848 0.016759777 0.009023444 0.007691719 0.006428059 -0.009023023 0.008961727 0.019805027
-0.0018758988 0.00015064879 -0.0060901013 -4.533195e-05 0.020220347 0.016544601 -0.00023441591 0.00016300543
0.009695959 7.736049e-05 -0.0056039677 0.007486116 0.0018291223 0.0062659387 -0.0012172117 0.011797292
0.0005009948 0.015166003 0.012035768 0.018849134 0.00032881208 -0.0038868284 0.013603359 0.0008063713
0.0102917915 0.014818581 0.020668503 -0.00019421647 -0.000106934654 -0.010189123 0.0124975545 0.009666545
0.010184666 0.0060715885 0.0048731994 0.0031042902 -0.0071630273 -0.0047135535 0.019542668 0.0024689334
0.012325454 -0.00071261916 -0.010454603 0.008540622 -0.003956555 0.022103397 -0.00427626 -0.0049425694
-0.0070293387 0.00028146617 -0.0058201333 -0.002775767 0.002313346 0.011125573 -0.007490314 0.003854473
00000000: 2ea1 983b 72d5 d5bb fd8f e43b 5645 dc3b
00000010: 8399 273c bcc6 c8bb 132f 8ebc a7e1 9e3c
00000020: e1c1 a23c 2337 45bc 7b0d 9d3c be62 1b3c
00000030: 7e34 87bb dff4 0eba aace 1339 ee3d 29bc
00000040: b9e6 91bb d97e 9cbc 41e3 34bb 8cf8 16bc
00000050: 5672 8b3c d0e3 bfbc 8c46 373c 3aed 9bba
00000060: 3da4 0bb9 57eb 93bc 2a22 d63c a3c0 cfb8
00000070: 9edc 3bbc 77a4 35bc a85e 873b 3d2f 513b
00000080: bde8 ca3b d45f 5dbc 91b5 ac3c 83d9 93bb
00000090: b5ce f23b 527e 7fbb 22c6 b43b 51c0 b1bb
000000a0: fb5c 723c 4d09 87bc 914a 243c 1ed6 f53b
000000b0: 97cd c5bb 2170 83b9 784c 9c3c 8fe9 adb9
000000c0: 27c8 113c 2ad7 363c adf0 8e39 f309 b039
000000d0: 9568 e33b e7c7 a93b 9cbe 883c d699 0abc
000000e0: e7e2 233c 2854 6e3c 7eaa 0c3c cbaa 6f3b
000000f0: 3769 7c3b f889 2bbb 75bf 69bc 5bdb 143c
00000100: 8bcf 60ba cd4b 893c 11d7 133c d10a fc3b
00000110: 78a2 d23b 4dd5 13bc 35d4 123c 273e a23c
00000120: b8e0 f5ba 7af7 1d39 798f c7bb d022 3eb8
00000130: 24a5 a53c 8b88 873c 8bcd 75b9 70ec 2a39
00000140: cddb 1e3c 993c a238 7da1 b7bb 184e f53b
00000150: 29bf ef3a 8152 cd3b d98a 9fba 6e49 413c
00000160: 3155 033a d47a 783c ab31 453c 8069 9a3c
00000170: 6964 ac39 29ba 7ebb a0e0 5e3c a962 533a
00000180: e79e 283c a2c9 723c fe50 a93c 96a6 4bb9
00000190: 1b42 e0b8 48f0 26bc 8bc2 4c3c 6e60 1e3c
000001a0: 96dd 263c 2df4 c63b 5caf 9f3b 5971 4b3b
000001b0: d4b7 eabb 2774 9abb f217 a03c d4cd 213b
000001c0: b3f0 493c 10cf 3aba c849 2bbc f7ed 0b3c
000001d0: fda5 81bb 2f12 b53c de1f 8cbb 47f5 a1bb
000001e0: 5e56 e6bb c091 9339 d1b6 bebb a4e9 35bb
000001f0: 819b 173b 0948 363c 4f71 f5bb 539b 7c3b

network.2.running_mean f4 [128]
0.02412694 0.0057682544 0.029604878 0.0067843283 0.0011685487 0.0029905057 0.01297123 0.012479011
0.01070931 0.015770499 0.021669919 0.006107833 0.0008455872 0.00031710527 0.0068169567 0.0045105256
0.0015750205 0.01911372 0.002007818 0.012121624 0.015776075 0.015603855 0.0131331775 0.0004605323
4.00114e-06 0.0074335453 0.0138476025 6e-45 0.012094588 0.0052140593 0.0052720523 0.0058734636
0.0033279853 0.01029642 0.012399217 0.0058570625 0.01303845 0.0013035946 0.006575675 0.008699517
0.010732722 0.030077158 0.012697364 0.009829907 0.004356759 0.0006366853 0.008310184 0.009220135
0.0042082365 0.0074786306 2.4421155e-05 0.0030654003 0.0046706945 0.009271312 0.006854978 0.008588994
0.013211779 0.015478363 0.008707421 0.016261492 0.0013343596 0.0038708532 0.006312868 0.00037229137
0.0034609535 0.0145642655 0.005229074 0.0034884093 0.0068660355 0.007999728 0.004510363 0.017788552
0.0025197195 0.010727932 0.021239335 8.855803e-11 0.008403794 0.007481951 0.00046292518 0.00082497945
0.011733517 7.050347e-07 0.028953478 0.012371177 0.0009100345 0.008732538 0.0016190464 0.01078128
0.09093354 0.0056941533 0.009612679 0.0076075858 0.00099585 0.008693294 0.011699339 0.012364541
0.0074645104 0.022345856 0.019508783 0.0008375707 1.7377471e-06 0.009798718 0.017978 0.008962974
0.011655769 0.023506718 0.0036411856 0.0016742108 0.00415604 0.01839645 0.0074225264 0.0037269946
0.0068519996 0.00072243524 0.0073397113 0.009908115 0.0063868733 0.007159919 9.831886e-05 0.0040970836
0.010700884 0.0031028946 0.0029562418 0.020420881 0.0009778923 0.007582467 0.10500096 0.006313158
00000000: dca5 c53c a003 bd3b ee85 f23c 124f de3b
00000010: fd29 993a 5cfc 433b 4885 543c c474 4c3c
00000020: 1a76 2f3c 2231 813c 1d85 b13c 3724 c83b
00000030: 65aa 5d3a 2641 a639 c760 df3b 08cd 933b
00000040: eb70 ce3a 6094 9c3c 9995 033b c799 463c
00000050: d43c 813c 50a7 7f3c 8a2c 573c 9973 f139
00000060: 8841 8636 1995 f33b 0ee1 623c 0400 0000
00000070: 6128 463c b3da aa3b 2ec1 ac3b 2f76 c03b
00000080: 541a 5a3b 51b2 283c 1626 4b3c 9aec bf3b
00000090: 399f 553c 60dd aa3a c378 d73b 6b88 0e3c
000000a0: 4cd8 2f3c 5f64 f63c 9b08 503c 9e0d 213c
000000b0: 25c3 8e3b 3ae7 263a 7027 083c 0d10 173c
000000c0: 3fe5 893b 4d0f f53b 08dc cc37 e2e4 483b
000000d0: a00c 993b b3e6 173c b99f e03b dab8 0c3c
000000e0: 3876 583c f698 7d3c 92a9 0e3c d236 853c
000000f0: aee5 ae3a 24ae 7d3b 2ddc ce3b 1a30 c339
00000100: 2ad1 623b f59e 6e3c a758 ab3b cc9d 643b
00000110: 7bfc e03b 4b11 033c abcb 933b 4cb9 913c
00000120: e121 253b 35c4 2f3c 1dfe ad3c bdbd c22e
00000130: 11b0 093c 272b f53b c4b4 f239 6f43 583a
00000140: f03d 403c 9e41 3d35 d82f ed3c 7ab0 4a3c
00000150: 628f 6e3a eb12 0f3c 2f36 d43a f7a3 303c
00000160: 5d3b ba3d 0596 ba3b 7f7e 1d3c 0e49 f93b
00000170: 2e87 823a 516e 0e3c 96ae 3f3c a594 4a3c
00000180: da98 f43b a80e b73c e2d0 9f3c 6b90 5b3a
00000190: 893c e935 cd8a 203c 9946 933c 70d9 123c
000001a0: d7f7 3e3c 2991 c03c f5a0 6e3b 3171 db3a
000001b0: 642f 883b 27b4 963c aa38 f33b 9840 743b
000001c0: bd86 e03b cf61 3d3a f681 f03b a555 223c
000001d0: fa48 d13b c19d ea3b 8930 ce38 d440 863b
000001e0: c352 2f3c ef59 4b3b 82bd 413b b149 a73c
000001f0: 9f2c 803a 5876 f83b be0a d73d 9cde ce3b

network.2.running_var f4 [128]
0.00060086936 0.000289904 0.0005421143 0.00020544586 0.002563016 0.010925515 0.0005277206 0.00042732735
0.00039080312 0.0006073043 0.001507144 0.00019922624 0.0013959925 9.223815e-06 7.678927e-05 0.00021220311
0.0025270453 0.007343858 7.939498e-05 0.0004853632 0.08202858 0.00073830265 0.00051203254 0.00012770692
3.602814e-09 0.00029126188 0.0006668837 6e-45 0.00047285712 0.00025386695 0.0012515583 0.0033544595
0.000113310874 0.0003371172 0.004089555 0.000169056 0.02371228 0.0002256981 0.0021018297 0.00064321177
0.00049793604 0.009655111 0.0004145573 0.0038406996 0.0002177321 0.00022350528 0.00031283798 4.5922792e-05
0.00015290972 0.0003972909 2.765808e-07 5.329535e-06 0.00012534652 0.0078835 0.00024799726 0.00029714263
0.001400405 0.0005827494 0.00036073884 0.00051036023 4.9605966e-05 0.0009581969 0.0002739651 1.751317e-05
0.003474893 0.0016144892 0.00014775 0.0001220098 0.00039461278 0.0015201026 0.00046922138 0.0011785692
0.0045079817 4.494798e-05 0.0042067235 2.7270365e-13 0.00037253974 0.00020548933 0.00037539875 0.000106575826
0.0012319892 1.2235982e-10 0.009585609 0.0076520694 2.9127774e-05 0.0002633749 0.005047101 0.000622656
0.0015842026 0.00020098883 0.0007282431 0.00031694435 0.0009942653 0.00027728526 0.00053654186 6.464384e-05
0.0003550377 0.007973807 0.002865963 2.7225258e-05 2.7096785e-09 0.0004860263 0.009835487 0.006218778
0.00033824553 0.0005056646 0.036834266 0.0011430592 0.0001548361 0.00051285105 0.00039517714 0.0007846134
0.00020041096 0.0005564079 0.0003154491 0.0059103915 0.00018194952 0.000314402 1.2677254e-05 0.007860968
0.008443324 0.0031907419 7.476294e-05 0.0005497054 3.5792138e-05 0.00044666245 0.0016956949 0.0002109739
00000000: a983 1d3a 42fe 9739 ad1c 0e3a f46c 5739
00000010: 46f8 273b ee00 333c bb56 0a3a e80a e039
00000020: b5e4 cc39 8033 1f3a 5c8b c53a 63e7 5039
00000030: bcf9 b63a fcbf 1a37 ed09 a138 d782 5e39
00000040: c99c 253b bfa4 f03b db80 a638 5978 fe39
00000050: 9afe a73d a78a 413a ec39 063a 11e9 0539
00000060: 6095 7731 82b4 9839 cfd1 2e3a 0400 0000
00000070: cfe9 f739 7219 8539 540b a43a 7ed6 5b3b
00000080: 50a1 ed38 1bbf b039 ac01 863b a044 3139
00000090: 4140 c23c 5fa9 6c39 dabe 093b 369d 283a
000000a0: ec87 023a 7830 1e3c f058 d939 3fb4 7b3b
000000b0: 044f 6439 be5c 6a39 6704 a439 399d 4038
000000c0: 6456 2039 7b4b d039 fa7c 9434 5bd4 b236
000000d0: 736f 0339 cc29 013c a105 8239 cfc9 9b39
000000e0: cb8d b73a a6c3 183a 8c21 bd39 b2c9 053a
000000f0: 0010 5038 812f 7b3a f9a2 8f39 3fe9 9237
00000100: 08bb 633b 459d d33a 57ed 1a39 83df ff38
00000110: 08e4 ce39 2e3e c73a d401 f639 387a 9a3a
00000120: b1b7 933b 8786 3c38 8ed8 893b bd84 992a
00000130: 7051 c339 9f78 5739 2bd1 c439 7681 df38
00000140: b37a a13a 3a89 062f f50c 1d3c 36be fa3b
00000150: 6b57 f437 9515 8a39 2762 a53b bd39 233a
00000160: 05a5 cf3a 87c0 5239 91e7 3e3a 8d2b a639
00000170: 0252 823a 9960 9139 b7a6 0c3a 6691 8738
00000180: 5a24 ba39 92a4 023c e1d2 3b3b cc61 e437
00000190: 2b35 3a31 59d1 fe39 0625 213c e4c6 cb3b
000001a0: 8c56 b139 948e 043a 87df 163d b4d2 953a
000001b0: 805b 2239 da70 063a c72f cf39 84ae 4d3a
000001c0: 6825 5239 e7db 113a dd62 a539 f5ab c13b
000001d0: b4c9 3e39 52d6 a439 64b0 5437 4acb 003c
000001e0: de55 0a3c c41b 513b 0cca 9c38 1b1a 103a
000001f0: 841f 1638 052e ea39 1442 de3a e038 5d39

network.4.weight f4 [64, 128]
-0.004600295 0.0061409143 -0.0009672448 -0.0075112307 0.0003773113 0.010802712 0.0004102393 -0.0017443186
-0.001059527 0.0060524098 -0.0042929654 -0.0053958464 -0.0035156568 0.0073233577 0.00032577236 0.0014276707
-0.0016765585 -0.00252442 0.0022748637 -0.00040843358 -0.00039157283 0.0015451884 -0.0020924096 0.008561237
-0.00040103006 0.0040533473 -0.03646264 1.2591122e-06 -0.003225257 0.0021262164 -0.0027996346 0.0041272594
0.0018323399 0.020307755 0.0043041655 -0.0019192562 0.010823892 0.0031440144 0.0040672384 -0.00023485062
-0.021302424 0.0040637767 -0.024574757 -0.001767131 0.008909227 -0.0114566265 -0.03294039 -0.0009916413
-0.006122139 -0.013162824 0.0002685204 -3.911894e-05 -0.001255975 0.0036399357 0.007670488 -0.0018425784
0.011687526 -0.020555401 -0.004816682 -0.006086316 -0.009857015 0.013141869 0.003968908 0.0060673556
-0.001785853 -0.003782465 -0.003976744 -0.025736133 -0.003833327 0.008196243 -0.011635363 -0.0032544325
0.008961906 0.00016869462 0.0017271582 -0.00017874659 -0.0113981385 -0.0009287256 0.0014714713 0.0012175574
-0.017687107 0.0002867806 -0.0019167421 -0.0068134703 -0.008360785 -0.009926514 -0.0058549102 -0.0013340615
0.0043816497 -0.0053882073 -0.0008334397 -0.0014900564 0.013709276 0.012133241 0.002852476 0.0005332923
-0.010290538 0.0012721206 -0.023422677 -0.00651451 -0.00013143082 0.002985448 -0.0039047338 0.0027025547
0.0029826818 -0.017032286 0.0010929811 -0.0036083844 -0.0017842969 0.013426385 -0.015304885 0.0016118555
0.0062409453 0.009110426 -0.0036295112 -0.0029000323 0.014414778 -0.016712628 -0.008249922 0.0037350403
-0.0029709165 -0.0022670443 -0.0118597895 -0.0030642785 -0.0057848124 -0.004484509 -0.0029767326 0.005852201
-0.01756429 -0.003637084 -0.035360906 -0.010647852 0.0019471128 -0.0033808467 0.00689687 -0.022839183
-0.016538545 0.0031179995 -0.0006377613 -0.027948007 0.0009267558 0.009001297 -0.0009350338 -0.007253085
0.0067927344 0.0048208917 -0.0067720124 -0.005365401 0.0058728093 -0.009541862 -0.022374012 -0.019805178
0.00045892817 -0.002680695 0.007304982 -0.0003642392 0.02027647 -0.003312397 0.0031546159 0.0016800629
0.0061530713 -0.0035169446 -0.0094087785 0.006385293 0.017181987 0.0069427234 -0.016656278 0.0028574548
0.003529799 -0.0036725735 0.0016133667 0.010288381 0.0024110866 0.0076685376 0.0033875764 0.0007026243
-0.015374268 -0.013033639 -0.0022239508 -0.00048267358 0.009570592 0.004264341 -0.012517776 0.016249668
0.0108201485 -0.026381647 -0.009496336 0.0034742944 -0.0072964914 -0.0011350323 0.014020431 0.005012433
-0.0055274563 0.0027337458 0.012943033 0.013624886 -0.012000419 -0.00091258856 0.0044333762 -0.006671734
0.00050171034 -0.00038238525 0.002815259 0.00023255171 0.009877519 -0.004476897 0.00013511442 0.006497544
0.0044239103 -0.0006732504 -0.0042037345 -0.007917465 0.013496182 -0.0146334395 0.007674406 0.0012132429
-0.007284516 0.0047031026 -0.0015328688 -0.016733665 0.00043591115 0.009393306 0.0038144607 -0.0015928567
-0.011994227 0.0011967826 -0.02556749 0.0060543977 -8.402761e-05 0.004551097 0.0036260646 0.006504293
-0.010451693 -0.010977304 -0.021539776 0.0073707323 -0.00477232 0.00965545 -0.00019842754 0.0036412694
-0.009518505 0.004623128 0.01483938 0.0049602706 0.018246321 0.0006860219 -0.003237677 0.0014589899
0.008321164 0.0037351158 0.0007970155 0.017103724 0.0038977356 -0.0032547626 0.005557003 0.012330927
00000000: 12be 96bb b939 c93b b38e 7dba c520 f6bb
00000010: ded1 c539 dcfd 303c 6315 d739 9fa1 e4ba
00000020: d4df 8aba 4b53 c63b 01ac 8cbb a4cf b0bb
00000030: ef66 66bb c7f8 ef3b 6dcc aa39 ae20 bb3a
00000040: f8bf dbba bd70 25bb e115 153b 0723 d6b9
00000050: 044c cdb9 eb87 ca3a cf20 09bb 6e44 0c3c
00000060: 5841 d2b9 f1d1 843b d959 15bd c4fe a835
00000070: d55e 53bb fe57 0b3b 137a 37bb f63d 873b
00000080: 202b f03a 735c a63c f509 8d3b 8d8f fbba
00000090: b256 313c cf0b 4e3b 7846 853b 3c42 76b9
000000a0: 6c82 aebc 6e29 853b 0051 c9bc 149f e7ba
000000b0: 02f8 113c 93b4 3bbc 81ec 06bd f6f9 81ba
000000c0: 399c c8bb e3a8 57bc 33c8 8c39 a413 24b8
000000d0: 879f a4ba fd8b 6e3b b858 fb3b ac82 f1ba
000000e0: 097d 3f3c cd63 a8bc 42d5 9dbb b86f c7bb
000000f0: 517f 21bc fe50 573c 9d0d 823b abd0 c63b
00000100: 4813 eaba 3be3 77bb 594f 82bb 95d4 d2bc
00000110: 8e38 7bbb 8949 063c 40a2 3ebc 5148 55bb
00000120: f5d4 123c 9ee3 3039 d061 e23a ec6d 3bb9
00000130: 42bf 3abc b875 73ba 62de c03a 7296 9f3a
00000140: 8de4 90bc 0a5b 9639 313b fbba 8843 dfbb
00000150: adfb 08bc d1a2 22bc 8cda bfbb addb aeba
00000160: f193 8f3b 8f8f b0bb 317b 5aba ff4d c3ba
00000170: df9c 603c 80ca 463c 9bf0 3a3b a4cc 0b3a
00000180: a599 28bc 49bd a63a eae0 bfbc ac77 d5bb
00000190: b1d0 09b9 82a7 433b 90e6 7fbb 581d 313b
000001a0: 1979 433b 4b87 8bbc 5c42 8f3a a57a 6cbb
000001b0: 12df e9ba 57fa 5b3c 57c1 7abc e544 d33a
000001c0: d880 cc3b e543 153c 18dd 6dbb 780e 3ebb
000001d0: f62b 6c3c ece8 88bc ae2a 07bc 94c7 743b
000001e0: b5b3 42bb b192 14bb 904f 42bc 10d2 48bb
000001f0: 868e bdbb caf2 92bb 4915 43bb d2c3 bf3b
00000200: fce2 8fbc 255c 6ebb 99d6 10bd 5474 2ebc
00000210: 4436 ff3a 3291 5dbb 24ff e13b 3d19 bbbc
00000220: d87b 87bc 5a57 4c3b 702f 27ba 38f3 e4bc
00000230: 87f1 723a 2d7a 133c 0e1d 75ba 49ab edbb
00000240: 9695 de3b 92f8 9d3b c2e7 ddbb 3fd0 afbb
00000250: b270 c03b 7855 1cbc b449 b7bc 783e a2bc
00000260: 4c9c f039 99ae 2fbb a15e ef3b 5cf7 beb9
00000270: d71a a63c cd14 59bb acbd 4e3b 8e35 dc3a
00000280: b49f c93b 8a7c 66bb 4727 1abc b83b d13b
00000290: 3dc1 8c3c c97f e33b bf72 88bc 2344 3b3b
000002a0: 3354 673b 8faf 70bb 9a77 d33a 9990 283c
000002b0: 5203 1e3b 5b48 fb3b 1a02 5e3b 5230 383a
000002c0: 5be4 7bbc 0b8b 55bc b4bf 11bb 5a0f fdb9
000002d0: f9cd 1c3c e3bb 8b3b 5c17 4dbc 061e 853c
000002e0: fe46 313c 531e d8bc 8596 1bbc fdb0 633b
000002f0: 6817 efbb 5dc5 94ba f3b5 653c 563f a43b
00000300: aa1f b5bb a528 333b 040f 543c ea3a 5f3c
00000310: 689d 44bc c83a 6fba db45 913b 909e dabb
00000320: 3685 033a e17a c8b9 3580 383b 20d9 7339
00000330: 51d5 213c efb2 92bb 80ad 0d39 59e9 d43b
00000340: 73f6 903b 127d 30ba 7bbf 89bb 41b8 01bc
00000350: 171f 5d3c 18c1 6fbc 9579 fb3b ad05 9f3a
00000360: f3b2 eebb 7c1c 9a3b 8bea c8ba 0a15 89bc
00000370: 018b e439 62e6 193c 08fc 793b 67c7 d0ba
00000380: 6f83 44bc 5cdd 9c3a ea72 d1bc f863 c63b
00000390: fb37 b0b8 5e21 953b 45a3 6d3b f721 d53b
000003a0: 943d 2bbc 26da 33bc 2f74 b0bc 2f86 f13b
000003b0: 1f61 9cbb e431 1e3c fd10 50b9 5da2 6e3b
000003c0: 81f3 1bbc 9c7d 973b df20 733c c489 a23b
000003d0: 4f79 953c 26d6 333a 352f 54bb 943b bf3a
000003e0: 7e55 083c d8c8 743b ceee 503a 1c1d 8c3c
000003f0: 2771 7f3b db4d 55bb 8517 b63b a807 4a3c

network.4.bias f4 [64]
-0.00038838907 -0.0045071454 -0.0015413419 -0.0006779361 -0.0013820416 -0.005481956 0.0007576498 -0.0015155968
-0.0019593313 -0.0031895612 -0.0016617633 -0.0018651672 -0.0019546035 -0.0010455495 -9.2141476e-05 0.004459003
-0.0028050214 -0.0028981743 -0.006382701 -0.0020232922 -0.0027658085 0.0026758194 -0.005291514 -0.0002167876
-0.000619665 -0.0023342574 -0.0005128502 -0.0014515362 -0.0017512505 -0.0042131725 -0.003740934 -0.0015517358
-0.0005699839 -0.0027416875 -0.0040706987 -0.0020038588 -0.002768703 -0.00079449423 -0.0042834887 0.0004300819
-0.0020866601 -0.0034468016 -0.0011523899 -0.0031809683 -0.00043355548 0.00013039228 0.0009918032 -0.0029538013
-0.0025081069 0.0051081646 -0.0033851545 0.0036858483 -0.0004929252 -0.002413157 -0.0009546495 -0.00264365
-0.0012646465 -0.0008423061 -0.0028540257 0.0030469452 -0.0044713956 -0.0022299383 -0.0007953255 -0.0025748396
00000000: b3a0 cbb9 adb0 93bb da06 caba 86b7 31ba
00000010: 9f25 b5ba fba1 b3bb 049d 463a fda6 c6ba
00000020: 2068 00bb f507 51bb 86cf d9ba a078 f4ba
00000030: ce18 00bb d20a 89ba 143c c1b8 d41c 923b
00000040: 73d4 37bb 4cef 3dbb fa25 d1bb 3699 04bb
00000050: 9142 35bb cd5c 2f3b 7064 adbb 7a51 63b9
00000060: 0471 22ba 57fa 18bb cb70 06ba 7941 beba
00000070: 378a e5ba a70e 8abb 752a 75bb 9d63 cbba
00000080: f96a 15ba e2ad 33bb 7f63 85bb 2c53 03bb
00000090: 2173 35bb 9b45 50ba 825c 8cbb 9e7c e139
000000a0: 59c0 08bb bce3 61bb ca0b 97ba cb77 50bb
000000b0: d54e e3b9 e9b9 0839 65ff 813a 9094 41bb
000000c0: 0d5f 24bb 6462 a73b 78d9 5dbb 468e 713b
000000d0: a637 01ba 0e26 1ebb 7241 7aba 1641 2dbb
000000e0: 7fc2 a5ba 35ce 5cba 9b0a 3bbb 42af 473b
000000f0: c984 92bb 2824 12bb 647d 50ba a4be 28bb

network.6.weight f4 [64]
0.08783919 0.11574109 0.10438211 0.0676386 0.12155816 0.102898106 0.07906683 0.10584662
0.08268323 0.10838798 0.077343695 0.08998973 0.09080157 0.10224299 0.092105396 0.06810383
0.09797436 0.111802846 0.121944286 0.11067629 0.09703351 0.08628977 0.1007875 0.10598364
0.0868669 0.09285007 0.119101234 0.11325755 0.10285866 0.1122996 0.09843474 0.108886465
0.11354489 0.11616319 0.12189577 0.1052837 0.0992584 0.11017511 0.105912454 0.08826969
0.11647189 0.11249304 0.107667185 0.06837849 0.119469956 0.086401775 0.108310714 0.117085114
0.10912777 0.077141196 0.091438495 0.08143676 0.10208405 0.10972642 0.10026367 0.09899166
0.09123785 0.11745443 0.09640152 0.07407265 0.114222705 0.11381723 0.09722426 0.09417718
00000000: 09e5 b33d aa09 ed3d 4ac6 d53d 1b86 8a3d
00000010: 7cf3 f83d 3ebc d23d caed a13d 1dc6 d83d
00000020: d355 a93d 84fa dd3d 5f66 9e3d 894c b83d
00000030: 2cf6 b93d c664 d13d c1a1 bc3d 057a 8b3d
00000040: c8a6 c83d e4f8 e43d edbd f93d 40aa e23d
00000050: 81b9 c63d b1b8 b03d ad69 ce3d f30d d93d
00000060: 46e7 b13d 2d28 be3d 59eb f33d 93f3 e73d
00000070: 90a7 d23d 55fd e53d 2798 c93d deff de3d
00000080: 398a e83d f7e6 ed3d 7da4 f93d fb9e d73d
00000090: fd47 cb3d 7da3 e13d a1e8 d83d bdc6 b43d
000000a0: d088 ee3d c062 e63d 9d80 dc3d 060a 8c3d
000000b0: aaac f43d 6af3 b03d 02d2 dd3d 52ca ef3d
000000c0: 617e df3d 34fc 9d3d 1b44 bb3d 51c8 a63d
000000d0: 7111 d13d 3fb8 e03d 0a57 cd3d 24bc ca3d
000000e0: e9da ba3d f38b f03d 296e c53d 67b3 973d
000000f0: 98ed e93d 0219 e93d 831d c73d f7df c03d

network.6.bias f4 [64]
0.015474446 0.019754231 0.021647437 0.0016073491 0.031641178 0.017808197 -0.001287631 0.025356645
0.013651055 0.01937535 -0.00013306408 0.013780213 0.018588752 0.034219038 0.017880874 0.0047663418
0.005728025 0.01960743 0.0065825903 0.016586421 0.013055859 -0.0045228093 0.011746659 0.033340823
0.024621725 0.017161243 0.03452118 0.02166656 0.021903122 0.020087544 0.006754222 0.023095319
0.031691264 0.021596989 0.022028964 0.013099005 0.0142616145 0.026636215 0.014841573 0.018229628
0.024656525 0.015521923 0.021721642 -0.001501549 0.033774197 0.019235354 0.022183472 0.008915512
0.017660713 -0.011307861 0.009984938 -0.0026893315 0.026720572 0.022951419 0.013783167 0.032537762
0.01562944 0.019507447 0.026790172 -0.0017939486 0.028479341 0.03736167 0.02462147 0.011816318
00000000: 8888 7d3c a0d3 a13c f755 b13c b0ad d23a
00000010: 2e9a 013d 7fe2 913c bac5 a8ba bdb8 cf3c
00000020: ada8 5f3c 0eb9 9e3c 1e87 0bb9 67c6 613c
00000030: 7047 983c 4329 0c3d e97a 923c f92e 9c3b
00000040: 28b2 bb3b c39f a03c c5b2 d73b 3fe0 873c
00000050: 3ee8 553c 1334 94bb 0f75 403c 6390 083d
00000060: 80b3 c93c bc95 8c3c 1566 0d3d 127e b13c
00000070: 2d6e b33c a28e a43c 8552 dd3b 6532 bd3c
00000080: b3ce 013d 2bec b03c 1676 b43c 369d 563c
00000090: 8ca9 693c 3134 da3c 122a 733c 4d56 953c
000000a0: 7bfc c93c aa4f 7e3c 96f1 b13c a0cf c4ba
000000b0: d056 0a3d 7693 9d3c 1dba b53c 5e12 123c
000000c0: 33ad 903c 9b44 39bc de97 233c 7f3f 30bb
000000d0: 1ae5 da3c 9d04 bc3c cbd2 613c 5146 053d
000000e0: 5009 803c 15ce 9f3c 1077 db3c ed22 ebba
000000f0: 824d e93c 8d08 193d f7b2 c93c 3b99 413c

network.6.running_mean f4 [64]
0.0014016464 0.0010877325 0.0015067225 0.004027666 0.0023877872 0.0014159054 0.0017417937 0.0019101906
0.0026776285 0.0013442216 0.0013689589 0.0017739148 0.0019255474 0.0040310617 0.0020607624 0.0063144406
0.00078300596 0.0016979747 0.000674557 0.0009377432 0.0012176572 0.0026933667 0.001114502 0.0037417833
0.0023041829 0.0022144418 0.0023182123 0.0016416637 0.0023274464 0.0013877293 0.001442791 0.0012851937
0.0021185635 0.0017900303 0.0012476275 0.0014875589 0.0013045084 0.0024894706 0.0011744623 0.0028061909
0.0023167832 0.001316707 0.001891085 0.002910331 0.0020711035 0.003174661 0.002422782 0.0012270078
0.0014369854 0.0037978096 0.0013255388 0.003714076 0.0023710346 0.0018071631 0.0015240313 0.0035321426
0.0013743305 0.0014891796 0.001821895 0.0041959747 0.0021338512 0.003647726 0.0021972577 0.0011883902
00000000: 73b7 b73a 3f92 8e3a 387d c53a 83fa 833b
00000010: 6c7c 1c3b e795 b93a e64c e43a 5c5f fa3a
00000020: 277b 2f3b 9830 b03a a36e b33a b482 e83a
00000030: a662 fc3a ff16 843b db0d 073b 5ee9 ce3b
00000040: a442 4d3a 948e de3a c1d4 303a e2d2 753a
00000050: cc99 9f3a 3283 303b 7b14 923a b538 753b
00000060: c601 173b 2b20 113b 26ed 173b 182d d73a
00000070: 1288 183b 78e4 b53a 081c bd3a f273 a83a
00000080: 99d7 0a3b 739f ea3a 6f87 a33a 32fa c23a
00000090: 0afc aa3a 6326 233b 6af0 993a 12e8 373b
000000a0: 2cd5 173b 5b95 ac3a 48de f73a 40bb 3e3b
000000b0: 5abb 073b f90d 503b 89c7 1e3b 8dd3 a03a
000000c0: 3b59 bc3a ace4 783b b4bd ad3a db67 733b
000000d0: 5c63 1b3b 55de ec3a 01c2 c73a 857b 673b
000000e0: e122 b43a 9330 c33a a7cc ee3a 637e 893b
000000f0: 15d8 0b3b b00e 6f3b deff 0f3b c2c3 9b3a

network.6.running_var f4 [64]
8.32613e-06 1.0205825e-05 8.891374e-06 3.0287709e-05 1.7633667e-05 1.2078627e-05 8.162954e-06 1.44990545e-05
2.4126479e-05 1.2137996e-05 6.9587295e-06 1.0038294e-05 1.17027885e-05 4.781389e-05 1.0210826e-05 3.2674612e-05
4.6896703e-06 1.1898611e-05 7.314509e-06 4.750652e-06 7.066176e-06 1.3404101e-05 9.3589115e-06 2.3132689e-05
1.7663164e-05 1.2550202e-05 1.6614887e-05 9.855556e-06 1.6679385e-05 1.014412e-05 8.518372e-06 8.670486e-06
1.4990754e-05 1.4796571e-05 8.327371e-06 7.832661e-06 9.549107e-06 1.7106368e-05 8.615939e-06 1.7046917e-05
1.6961054e-05 9.7779775e-06 1.0534069e-05 2.78648e-05 1.3214332e-05 1.5010808e-05 1.5867607e-05 8.338399e-06
9.59458e-06 1.1681733e-05 9.375322e-06 1.5562406e-05 1.7825958e-05 1.0184255e-05 8.587377e-06 4.571064e-05
5.8179876e-06 8.3484665e-06 1.8008692e-05 1.8199633e-05 2.6002144e-05 5.3691896e-05 1.2207218e-05 8.662764e-06
00000000: 75b0 0b37 af39 2b37 292c 1537 5c12 fe37
00000010: 03ec 9337 4fa5 4a37 9ff3 0837 f740 7337
00000020: 3863 ca37 4ca4 4b37 087f e936 256a 2837
00000030: 1857 4437 c68b 4838 2a4f 2b37 190c 0938
00000040: f65b 9d36 25a0 4737 276f f536 ca67 9f36
00000050: fd19 ed36 2de2 6037 3804 1d37 120d c237
00000060: 5b2b 9437 b58e 5237 3360 8b37 4a59 2537
00000070: b5ea 8b37 aa30 2a37 21ea 0e37 7477 1137
00000080: cc80 7b37 ca3e 7837 c9b5 0b37 0669 0337
00000090: 1a35 2037 a57f 8f37 2d8d 1037 faff 8e37
000000a0: 9647 8e37 180c 2437 7bbb 3037 34bf e937
000000b0: 20b3 5d37 eed6 7b37 6d1b 8537 27e5 0b37
000000c0: 68f8 2037 a9fc 4337 b44a 1d37 038c 8237
000000d0: f488 9537 0bdd 2a37 8112 1037 6db9 3f38
000000e0: 2238 c336 6410 0c37 5f11 9737 6aab 9837
000000f0: 2e1f da37 3c33 6138 9acd 4c37 4a56 1137

network.8.weight f4 [32, 64]
-0.016520761 -0.04301107 0.011219693 -0.012786746 -0.003573704 0.012239467 0.005877798 -0.0042975736
-0.048711184 0.0052222842 0.0080230525 -0.0072750053 -0.001798127 -0.04322644 0.007127792 0.0077073597
0.012973489 0.011205583 -0.034553904 0.01913471 0.00045112637 0.03022693 -0.053955533 -0.0007292415
-0.0008098267 -0.0049768165 0.0005355494 -0.0057465974 0.0035359089 0.0044886763 -0.010724665 0.00054170814
-0.0054700403 -0.011503808 -0.008540162 0.0029291566 -0.050499048 -0.003261168 0.00071359705 0.001654164
-0.00016019368 -0.0071545006 -0.0017963931 -0.013547825 0.00037818393 -0.0088706305 0.008806236 -0.0041079912
-0.009323701 0.03467567 -0.043335617 -0.010511885 0.007064194 0.007900953 -0.014186331 -0.0037953865
-0.037231512 0.01223444 0.01696834 0.004866312 -0.04053919 -0.04100518 0.017132921 -0.0057875854
-0.01330982 -0.0048980718 -0.005704811 -0.0009524452 -0.05517818 0.002147546 0.008909688 -0.005583911
0.0010440681 0.005135755 0.0024579512 -0.012535131 -0.0008055811 0.0017895543 0.010960743 -0.0007185924
0.00802303 0.004621859 0.0016220051 -0.0009181859 0.0040603764 -0.008355986 -0.009732243 -0.004637295
-0.0008699546 0.013027553 -0.04070594 -0.044242676 0.0035263884 0.0006394423 -0.0111637805 -0.038337547
-0.0017110124 -0.007142706 -0.011398922 -0.009184808 -0.014891886 -0.0023369691 -0.012096018 0.0017838315
-0.05585602 -0.038929924 -0.024471492 0.0026759538 -0.041797172 -0.027149262 -0.036831934 -0.040797416
-0.039423622 0.023915777 -0.01445786 -0.029131956 0.004533461 -0.007571982 -0.04927103 -0.0022382291
-0.008929149 -0.0020051545 -0.008142504 -0.002966575 0.0022576796 0.00058706565 0.0040731393 0.0052979114
0.028183153 -0.025134044 0.0009711348 -0.025149876 -0.0027278669 0.012379474 0.013315333 -0.005731928
0.010184317 -0.03407954 0.0039056907 0.0018696032 -0.02055954 0.0024027317 -0.002530727 0.005906319
0.0044133216 -0.024349153 -0.050475053 -0.00393243 0.009039851 0.026856814 0.0047157034 -0.016690247
-0.024892505 -0.006405617 0.008581948 0.018416485 0.0074329353 0.0049775145 -0.039625686 0.01867821
0.0024421816 -0.003309515 -0.012632988 0.0020189416 -0.035838917 -0.0016319063 0.03407968 -0.0044887783
0.00042310866 0.031107439 -0.008888246 -0.02192044 0.009767595 -0.01569399 0.007670963 0.009402378
0.018490236 -0.006924455 0.0035477534 -0.0020717785 0.010494995 -0.017948158 -0.00019447444 0.008984331
0.0026327758 -0.0028036234 0.014196458 0.035059042 -0.0051712273 -0.0011087707 -0.018855121 0.023489522
0.012729239 -0.034167472 0.014926469 -0.025005262 -0.031205302 -0.00023829777 0.039563265 -0.036873
-0.0016404925 -0.009687049 0.013562281 0.0051688617 -0.03648877 0.006044884 0.0073119 -0.018236078
-0.010491527 0.004519745 -0.030797873 -0.010234898 0.0030736204 0.025243293 -0.00020778907 -0.024250567
-0.017752653 0.0052630114 0.0009813413 0.010034675 0.0007585494 -0.010277282 -0.004731125 0.0044097896
0.0016484718 0.0056481105 -0.003991042 0.010608418 -0.04106233 -0.0010013495 0.0077624526 0.0036917177
-0.027114546 0.008039656 -0.010018267 -0.008929913 0.00034726513 -0.027750487 0.0016158938 -0.016302645
0.008634441 0.0055219075 0.00026617496 -0.03405911 0.0074820523 -0.008335788 -0.0059509887 0.008504374
0.022180041 0.021556664 0.012865887 0.014133041 -0.0009341469 0.0031787471 0.00739648 0.02783022
00000000: 8c56 87bc 602c 30bd ced2 373c 807f 51bc
00000010: ce34 6abb 0c88 483c 8b9a c03b a9d2 8cbb
00000020: 6185 47bd b21f ab3b 1f73 033c 2b63 eebb
00000030: 21af ebba 350e 31bd 4190 e93b 058e fc3b
00000040: c28e 543c 9f97 373c 6588 0dbd 65c0 9c3c
00000050: 2885 ec39 779e f73c 7a00 5dbd 922a 3fba
00000060: 8d4a 54ba 9014 a3bb 1d64 0c3a f44d bcbb
00000070: b5ba 673b bf15 933b 81b6 2fbc 6b01 0e3a
00000080: 063e b3bb 787a 3cbc 09ec 0bbc 18f7 3f3b
00000090: 17d8 4ebd 52b9 55bb b010 3b3a 89d0 d83a
000000a0: aaf9 27b9 4d70 eabb f374 ebba b2f7 5dbc
000000b0: fd46 c639 1f56 11bc 0848 103c 549c 86bb
000000c0: 70c2 18bc 1308 0e3d b080 31bd 0b3a 2cbc
000000d0: c17a e73b 0073 013c c96d 68bc 05bc 78bb
000000e0: 1280 18bd f672 483c 3001 8b3c 9575 9f3b
000000f0: 6c0c 26bd 0cf5 27bd 575a 8c3c c9a5 bdbb
00000100: 6e11 5abc 0180 a0bb 6cef babb 84ad 79ba
00000110: 8402 62bd d8bd 0c3b f1f9 113c 3ef9 b6bb
00000120: 1dd9 883a d649 a83b 9415 213b 2660 4dbc
00000130: a22d 53ba 7a8f ea3a b094 333c eb5f 3cba
00000140: 0773 033c f772 973b 7699 d43a 6ab2 70ba
00000150: e80c 853b 8ce7 08bc fc73 1fbc 73f4 97bb
00000160: aa0d 64ba 8571 553c 46bb 26bd cf37 35bd
00000170: fb1a 673b 3fa0 273a 4ae8 36bc d507 1dbd
00000180: 0d44 e0ba 5c0d eabb 8bc2 3abc e07b 16bc
00000190: 19fd 73bc d627 19bb 602e 46bc 74cf e93a
000001a0: 48c9 64bd fc74 1fbd 7078 c8bc 0e5f 2f3b
000001b0: 8333 2bbd 2168 debc 15dd 16bd 311b 27bd
000001c0: aa7a 21bd 05eb c33c a9e0 6cbc 24a6 eebc
000001d0: 6d8d 943b 641e f8bb 6bd0 49bd 41af 12bb
000001e0: 914b 12bc e968 03bb 2368 05bc df6a 42bb
000001f0: 94f5 133b 4fe5 193a f877 853b 1a9a ad3b
00000200: 5be0 e63c e9e5 cdbc c193 7e3a 1d07 cebc
00000210: 03c6 32bb 47d3 4a3c 8e28 5a3c e6d2 bbbb
00000220: 1fdc 263c fd96 0bbd 9ef6 7f3b 790d f53a
00000230: 7b6c a8bc 2677 1d3b 8eda 25bb cb89 c13b
00000240: a09d 903b e077 c7bc eebe 4ebd 9ddb 80bb
00000250: e21b 143c d202 dc3c 3086 9a3b fcb9 88bc
00000260: 5eeb cbbc 36e6 d1bb 4c9b 0c3c 2bde 963c
00000270: fb8f f33b 6b1a a33b 8b4e 22bd 0c03 993c
00000280: 020d 203b 73e4 58bb 98fa 4ebc 3850 043b
00000290: d4cb 12bd b0e5 d5ba 2297 0b3d 9a16 93bb
000002a0: afd4 dd39 07d5 fe3c 01a0 11bc 7f92 b3bc
000002b0: 4308 203c af90 80bc b45c fb3b 6f0c 1a3c
000002c0: d678 973c 8ae6 e2bb 6d81 683b adc6 07bb
000002d0: 33f3 2b3c 0408 93bc d6eb 4bb9 0433 133c
000002e0: a68a 2c3b ffbc 37bb 4398 683c 129a 0f3d
000002f0: 6673 a9bb 2c54 91ba 0e76 9abc 196d c03c
00000300: 4c8e 503c 31f3 0bbd 268e 743c d6d7 ccbc
00000310: 43a2 ffbc 92df 79b9 170d 223d 2508 17bd
00000320: cb05 d7ba 6eb6 1ebc 5434 5e3c 8e5f a93b
00000330: 4075 15bd 2a14 c63b aa98 ef3b d463 95bc
00000340: a7e4 2bbc 5e1a 943b d24b fcbc 46b0 27bc
00000350: cb6e 493b 06cb ce3c f4e1 59b9 20a9 c6bc
00000360: 036e 91bc 5775 ac3b 5aa0 803a 7a68 243c
00000370: 63d9 463a 0c62 28bc 8e07 9bbb ff7f 903b
00000380: 8911 d83a c913 b93b 49c7 82bb eece 2d3c
00000390: f930 28bd b73f 83ba 2c5c fe3b bff0 713b
000003a0: 531f debc c3b8 033c a823 24bc c54e 12bc
000003b0: 2311 b639 fd54 e3bc 66cc d33a 208d 85bc
000003c0: 7877 0d3c 1ef1 b43b 668d 8b39 9181 0bbd
000003d0: 012c f53b d492 08bc 8300 c3bb ee55 0b3c
000003e0: ebb2 b53c 9a97 b03c 71cb 523c 458e 673c
000003f0: 8ae1 74ba 8752 503b 2c5e f23b 34fc e33c

network.8.bias f4 [32]
0.018888474 0.01651211 0.027248232 0.018686239 0.018205173 0.016570395 0.01565296 0.018970067
0.017574152 0.019398943 0.016672028 0.016427437 0.014690642 0.019614272 0.01503413 0.016613027
0.016712014 0.012728036 0.018719885 0.019285118 0.015508446 0.018540062 0.019198135 0.01059736
0.01987162 0.013344434 0.010913925 0.011405318 0.021197233 0.010982792 0.0120942425 0.019269584
00000000: 00bc 9a3c 6844 873c af37 df3c e213 993c
00000010: 0423 953c a3be 873c a33a 803c 1d67 9b3c
00000020: abf7 8f3c 88ea 9e3c c793 883c d592 863c
00000030: 05b1 703c 1cae a03c b651 763c 0b18 883c
00000040: a2e7 883c 4189 503c 725a 993c d3fb 9d3c
00000050: 2317 7e3c 54e1 973c 6845 9d3c 8da0 2d3c
00000060: cfc9 a23c 9da2 5a3c 52d0 323c 5fdd 3a3c
00000070: d2a5 ad3c 2bf1 333c ee26 463c 3fdb 9d3c

network.10.weight f4 [32]
0.7120041 0.68570626 0.6812615 0.6604551 0.69276637 0.7004731 0.6320706 0.67079407
0.7803626 0.681768 0.6451551 0.71692926 0.621599 0.72013474 0.6763842 0.7036213
0.5870993 0.7265551 0.67114085 0.6322607 0.6944587 0.74566233 0.69053316 0.67689925
0.70231944 0.6461663 0.71702206 0.67122674 0.73038995 0.6771038 0.637379 0.71533763
00000000: e745 363f 728a 2f3f 2767 2e3f 9613 293f
00000010: 2359 313f 3552 333f 61cf 213f 29b9 2b3f
00000020: d8c5 473f 5988 2e3f e228 253f ad88 373f
00000030: 1d21 1f3f c05a 383f 8427 2d3f 8720 343f
00000040: 244c 163f 84ff 393f e3cf 2b3f d6db 213f
00000050: 0cc8 313f bae3 3e3f c8c6 303f 4549 2d3f
00000060: 35cb 333f 286b 253f c28e 373f 84d5 2b3f
00000070: d6fa 3a3f ad56 2d3f 452b 233f 5e20 373f

network.10.bias f4 [32]
-0.030132093 0.059643295 -0.06663367 -0.097500026 0.0053270343 -9.6693715e-05 -0.020228969 -0.0150969755
-0.011200395 0.07036053 0.019591598 0.059961576 0.03832364 -0.07369669 -0.09327081 -0.002129198
0.03009329 0.0031924078 -0.05280715 0.05338448 0.021015245 0.0012658094 0.0057009873 -0.006009056
0.018478872 -0.07903616 -0.007456242 -0.015212934 -0.06684592 -0.005983925 0.035527416 -0.069319434
00000000: 94d7 f6bc 874c 743d 3c77 88bd 18ae c7bd
00000010: 678e ae3b 0bc8 cab8 39b7 a5bc 4e59 77bc
00000020: dd81 37bc 2e19 903d 8f7e a03c 459a 753d
00000030: 40f9 1c3d 4aee 96bd c404 bfbd 048a 0bbb
00000040: 3486 f63c b737 513b 4f4c 58bd afa9 5a3d
00000050: 2a28 ac3c 84e9 a53a 59cf ba3b 9de7 c4bb
00000060: 0161 973c b6dd a1bd 7e53 f4bb ac3f 79bc
00000070: 84e6 88bd cd14 c4bb 3285 113d 59f7 8dbd

network.10.running_mean f4 [32]
0.017412333 0.013442852 0.026903687 0.018530851 0.017637076 0.014316514 0.011971877 0.021405773
0.014111447 0.01863607 0.012891078 0.014695503 0.011251123 0.015712464 0.013324044 0.014401059
0.015669696 0.011119053 0.01617177 0.019592501 0.013370468 0.014883763 0.015616469 0.010362747
0.016017463 0.011917423 0.01030962 0.010560536 0.018420383 0.010689995 0.00955705 0.015031856
00000000: 4fa4 8e3c 683f 5c3c 1f65 dc3c 03ce 973c
00000010: a17b 903c d08f 6a3c b125 443c 295b af3c
00000020: b333 673c acaa 983c 1a35 533c 68c5 703c
00000030: a156 383c 6db7 803c 174d 5a3c 6bf2 6b3c
00000040: bc5d 803c b02c 363c a97a 843c 7480 a03c
00000050: cf0f 5b3c 07db 733c 38dc 7f3c 83c8 293c
00000060: 0e37 833c 4c41 433c aee9 283c 1906 2d3c
00000070: 58e6 963c 1725 2f3c 2c95 1c3c 2c48 763c

network.10.running_var f4 [32]
0.00023990974 0.00021888196 0.0003457589 0.00032454517 0.00023555395 0.00024259622 0.000201689 0.0003373915
0.00019496946 0.00024847995 0.0001850459 0.00022233985 0.00016198393 0.00023306887 0.00025371762 0.0002463601
0.0002152655 0.00021597485 0.00022020642 0.00030596726 0.0001834992 0.00020159526 0.00020737987 0.00017282898
0.00022496896 0.00024564101 0.00022507724 0.0001946676 0.0002655656 0.00018173933 0.00015666564 0.0002201201
00000000: 4890 7b39 ae83 6539 f946 b539 b727 aa39
00000010: 08ff 7639 6d61 7e39 7b7c 5339 ece3 b039
00000020: b770 4c39 6a46 8239 e108 4239 e623 6939
00000030: 3bda 2939 f363 7439 6705 8539 e529 8139
00000040: e5b8 6139 4f77 6239 36e7 6639 3b6a a039
00000050: b169 4039 5163 5339 1c74 5939 6d39 3539
00000060: a5e5 6b39 61c9 8039 b602 6c39 b01f 4c39
00000070: 9d3b 8b39 4891 3e39 9d46 2439 0ad0 6639
