models/mlp_multiclass_crossentropy20250829_192038.pth (torch, 81762 bytes, 21 tensors)

network.0.weight f4 [128, 48]
-0.009342407 0.0027175916 0.0014322561 -0.0014935653 -0.00041925584 0.0007837428 -0.004817642 0.0015025542
-0.0017712178 0.0014142753 -0.001139315 -0.0030136842 -0.0023005917 -0.010764701 -0.0065583684 -0.005427584
0.000104055835 -0.009264194 -0.011721363 -0.0114354165 0.0019212047 -0.0038589502 1.6462674e-05 -0.0012620077
-0.0046422323 -0.00017938175 0.00090895174 -0.002651961 -0.0026652704 -0.0012898904 0.006731544 -0.0012356775
0.01929031 0.00067484117 -0.0020276501 0.0010389112 0.0025901916 0.0015375292 -0.0006595021 0.0048849
-0.0016840127 -0.04659171 -0.0033876626 0.036670096 -0.005235783 -0.00470599 -0.0039268355 0.009766478
-0.01896914 -0.0015133197 0.0037091274 -0.0048279627 -0.007069422 0.00296593 0.06746991 -0.014388489
-0.0014821708 -0.0017886012 -0.008937696 0.020850684 0.0019597996 -0.005842906 0.00456793 0.0017842556
-0.00971942 0.002711952 0.025768515 0.0057584774 0.0018500069 -0.005832844 -0.000104867664 4.4147393e-05
0.0009925284 -0.0032507307 -0.015352087 -0.0023502833 0.010831452 0.004491151 -0.0019794544 -0.015376107
-0.011814728 0.0038957598 0.00070401194 -0.008877117 -0.00049051485 0.002911591 -0.0071399226 0.0044318596
-0.004771242 0.003800053 0.00805175 0.0013172171 0.0036243927 0.0025693881 -0.010281903 -0.012192731
0.0041885725 -0.0027713273 0.0001756579 -0.00019417747 0.0042036553 -0.0033877317 -0.0061680987 -0.0022650706
0.0034029633 -0.00031205712 0.0019947628 -0.0052111465 -0.006397437 -0.0009391258 0.0013244835 0.0049260207
-0.00916679 -0.0056593036 0.0068035126 0.0057382057 -0.016067432 0.00094665715 0.0024572567 -0.005526167
-0.001011656 -0.00040997358 -0.0038840973 0.005004332 -0.004490414 0.002236984 -0.005027212 -0.004286497
-0.046979256 -0.004920222 0.00031221003 0.0040848074 0.0008748269 0.0011259 0.0023164954 0.006730498
-0.0027540664 -0.012103081 0.004331084 0.011154523 0.00041127158 -0.0020510424 0.0012720264 0.0023635994
0.013826418 -0.0019900927 -2.6987831e-05 -0.016605165 0.0071785804 -0.00075944857 -0.01627316 -0.002929725
-0.005341801 -0.0016675292 -0.0039383257 -0.021262823 0.0012068516 -0.0024198648 0.00058693945 -0.0010033096
-0.0033262842 -0.0020032204 0.0040439395 0.007703992 0.0021694282 0.0010790243 0.0022583725 0.0022507187
-0.001223807 -0.0049123657 -0.006563117 0.0037824265 0.006688924 -0.0035329899 0.0015209427 -0.0060907127
0.01581212 -0.001542248 -0.012948057 0.007665571 0.009619568 -0.0042819995 -0.0015519446 -0.0022886272
-0.0069983504 -0.011914121 0.0031679508 -0.022581682 8.95638e-05 0.00092364295 -0.0007616869 -0.0006301925
6.9733064e-06 0.00027070908 0.00017488976 0.00076815626 -0.00022979037 0.0008627114 0.00027959252 0.0006745487
0.0001996256 -0.00022355668 0.00050224876 0.00078931917 0.00040562052 0.00012289679 -3.9326773e-05 8.3333405e-05
0.0004309132 0.000353096 -1.7720204e-05 0.0004443964 0.00034898616 0.0004967751 0.00045250735 0.0008987185
-1.5991283e-05 0.0004746582 0.0011440299 -0.00024165113 0.00015105758 2.1818421e-05 0.00016116569 0.001458444
0.00046258062 0.0009062426 0.00017426463 0.000639847 -4.3855263e-05 0.00011144953 0.0010525929 3.0886145e-05
-0.0003035808 -0.0010699381 -0.00023328088 -8.3801475e-05 -9.969231e-05 -0.0002621487 1.1223516e-06 -0.000103863174
-0.017587047 -0.0032112158 0.0017874101 -0.021349316 -0.0049860543 -0.036520522 0.01068056 -0.00997956
-0.00033573533 -0.00076792395 0.004687369 0.015320068 -0.004257198 -0.0010998943 0.0047279806 -0.007033423
00000000: e510 19bc 9f19 323b 8aba bb3a bcc3 c3ba
00000010: 91cf dbb9 1774 4d3a 4fdd 9dbb 5af1 c43a
00000020: 3528 e8ba 345f b93a 1155 95ba 3b81 45bb
00000030: 86c5 16bb 6e5e 30bc 95e7 d6bb e0d9 b1bb
00000040: 8d38 da38 d9c8 17bc f60a 40bc 9d5b 3bbc
00000050: efd0 fb3a 71e6 7cbb 5319 8a37 f469 a5ba
00000060: de1d 98bb 6c18 3cb9 b846 6e3a 86cc 2dbb
00000070: d1ab 2ebb 8a11 a9ba 4994 dc3b 75f6 a1ba
00000080: b606 9e3c d3e7 303a 53e2 04bb 132c 883a
00000090: 34c0 293b eb86 c93a 70e2 2cba 8311 a03b
000000a0: 17ba dcba f3d6 3ebd 8c03 5ebb 6233 163d
000000b0: ee90 abbb b534 9abb afac 80bb 9403 203c
000000c0: 2b65 9bbc 955a c6ba d514 733b e333 9ebb
000000d0: 9ca6 e7bb 0c60 423b aa2d 8a3d b2bd 6bbc
000000e0: 6645 c2ba 7f6f eaba 6a6f 12bc 0ecf aa3c
000000f0: fb6f 003b d975 bfbb 93ae 953b afdd e93a
00000100: 343e 1fbc 01bb 313b 7e18 d33c 9cb1 bc3b
00000110: ee7b f23a 7121 bfbb 66ec dbb8 e72a 3938
00000120: ba17 823a 360a 55bb 5287 7bbc 3607 1abb
00000130: 6776 313c 812a 933b bcb9 01bb 11ec 7bbc
00000140: 9092 41bc 0150 7f3b 718d 383a 5471 11bc
00000150: e595 00ba 64d0 3e3b 03f6 e9bb 2239 913b
00000160: 1458 9cbb 4f0a 793b 7deb 033c 79a6 ac3a
00000170: 3887 6d3b 2e63 283b 6d75 28bc 05c4 47bc
00000180: 4b40 893b 289f 35bb cf30 3839 1e9c 4bb9
00000190: d1be 893b b504 5ebb c31d cabb 9471 14bb
000001a0: 4004 5f3b 999b a3b9 91ba 023b 44c2 aabb
000001b0: 97a1 d1bb aa2f 76ba 4b9a ad3a 756a a13b
000001c0: 4e30 16bc ae71 b9bb 00f0 de3b 8f07 bc3b
000001d0: d99f 83bc 1629 783a ed09 213b d914 b5bb
000001e0: 8b99 84ba b9f1 d6b9 578c 7ebb 61fb a33b
000001f0: 5324 93bb 5d9a 123b 50bb a4bb be75 8cbb
00000200: 526d 40bd d039 a1bb 1fb0 a339 d9d9 853b
00000210: a454 653a ef92 933a 58d0 173b 828b dc3b
00000220: 917d 34bb 004c 46bc c4eb 8d3b 76c1 363c
00000230: f09f d739 c86a 06bb 20ba a63a 9ee6 1a3b
00000240: 3388 623c 376c 02bb ed63 e2b7 8e07 88bc
00000250: 4c3a eb3b bb15 47ba 4a4f 85bc a100 40bb
00000260: 460a afbb ff90 daba 120d 81bb 5f2f aebc
00000270: 382f 9e3a 9896 1ebb d7dc 193a 7c81 83ba
00000280: cafd 59bb 7648 03bb 0683 843b c571 fc3b
00000290: f72c 0e3b 0c6e 8d3a 3401 143b cb80 133b
000002a0: 2668 a0ba e9f7 a0bb 6a0f d7bb 96e2 773b
000002b0: c32e db3b bc89 67bb 5e5a c73a 9a94 c7bb
000002c0: 6b88 813c 4125 caba 1624 54bc 782f fb3b
000002d0: 649b 1d3c 0450 8cbb 9f6a cbba cbfc 15bb
000002e0: 6b52 e5bb 7233 43bc 659d 4f3b 38fd b8bc
000002f0: 33d4 bb38 a120 723a f1ab 47ba 8133 25ba
00000300: 3ffc e936 f5ed 8d39 9d62 3739 185e 493a
00000310: e2f3 70b9 9527 623a 4696 9239 32d4 303a
00000320: 9752 5139 8a6a 6ab9 58a9 033a 50ea 4e3a
00000330: 77a9 d439 dbdd 0039 cdf2 24b8 48c3 ae38
00000340: 31ec e139 be1f b939 d9a5 94b7 e0fd e839
00000350: 21f8 b639 033a 023a 823e ed39 fa97 6b3a
00000360: 0525 86b7 8cdb f839 46f3 953a bb63 7db9
00000370: 3665 1e39 b406 b737 96fe 2839 4329 bf3a
00000380: 8586 f239 e990 6d3a ceba 3639 68bb 273a
00000390: 3bf1 37b8 03ba e938 28f7 893a bf8b 0138
000003a0: ed29 9fb9 2a3d 8cba dc9c 74b9 93be afb8
000003b0: e711 d1b8 0171 89b9 b5a3 9635 1ed1 d9b8
000003c0: b612 90bc 4373 52bb 8847 ea3a c3e4 aebc
000003d0: 0e62 a3bb 8b96 15bd 84fd 2e3c 4f81 23bc
000003e0: a205 b0b9 814e 49ba 8098 993b 0601 7b3c
000003f0: f77f 8bbb 542a 90ba 2ded 9a3b a178 e6bb

network.0.bias f4 [128]
-0.052940063 -0.04418643 -0.050010495 -0.036744796 0.00017923015 -0.051998064 -0.08251845 0.0016163692
-0.011488557 -0.04616856 -0.041531794 -0.03432958 -0.03553416 -0.014592438 -0.1777531 -0.040247325
-0.018163385 -0.028712582 -0.07214523 -0.025833178 -0.056225598 -0.09030264 -0.098796934 -0.056867052
-0.091124035 -0.08063259 -0.028277474 -0.0273392 -0.045062777 -0.062442806 -0.039425325 -0.04152323
-0.044866383 -0.045364756 -0.05965612 -0.04248351 -0.032178294 -0.06987387 -0.042753026 -0.05318646
-0.0002505671 -0.005947262 -0.065339595 -0.03167312 -0.08718422 -0.009669433 -0.05212759 -0.06651932
-0.04551221 -0.044389233 -0.06624791 -0.029940644 -0.15252951 -0.06348943 -0.024013637 -0.07863875
-0.04914252 -0.078714825 -0.0020822333 -0.0002105289 -0.033375353 -0.000115408446 -0.049932532 -0.023226237
-0.0140017085 -0.0500658 -0.07387289 -0.034800727 -0.053780373 -0.059308536 -0.045239814 -0.07457193
-0.00910571 -0.09644246 -0.028908616 -0.0750531 -0.045700807 -0.022177545 -0.04211104 -0.058853477
-0.13344046 -0.05706787 -0.039444774 -0.06139077 -0.04858507 -0.019916227 -0.12984867 -0.044879436
-0.015939943 -0.17085916 -0.111582145 -0.07701271 -0.02096266 -0.00012467058 -0.048126448 -0.026621649
-0.028342096 -0.066143766 -0.016796947 -0.031907517 -0.03028641 -0.07721913 -0.038708594 -0.009078914
-0.07877788 -0.00028445132 -0.042529233 -0.04267754 -0.031149568 -0.032968394 -0.020865032 -0.030365102
-0.014200044 -0.065375656 -0.04704095 -0.03550808 -0.050776307 -0.019946003 -0.049200054 -0.031431258
-0.029399764 -0.12471499 -0.059427068 -0.028756512 -0.013703378 -0.04220387 -0.07073114 -0.07273672
00000000: aed7 58bd d4fc 34bd ced7 4cbd b681 16bd
00000010: baef 3b39 ecfb 54bd 6fff a8bd 5adc d33a
00000020: 803a 3cbc 3e1b 3dbd 3e1d 2abd 2c9d 0cbd
00000030: 448c 11bd 1f15 6fbc e904 36be 61da 24bd
00000040: 61cb 94bc a636 ebbc e1c0 93bd 1aa0 d3bc
00000050: d04c 66bd 97f0 b8bd 0c56 cabd 6ded 68bd
00000060: 3d9f babd b322 a5bd 29a6 e7bc 75f6 dfbc
00000070: bf93 38bd 07c4 7fbd 737c 21bd 4314 2abd
00000080: d0c5 37bd 65d0 39bd fa59 74bd 3003 2ebd
00000090: 63cd 03bd 081a 8fbd cc1d 2fbd 0cda 59bd
000000a0: 8c5e 83b9 40e1 c2bb c4d0 85bd acbb 01bd
000000b0: a48d b2bd 8b6c 1ebc bd83 55bd 483b 88bd
000000c0: 036b 3abd 7cd1 35bd fcac 87bd 1546 f5bc
000000d0: b230 1cbe bf06 82bd 3fb8 c4bc 5a0d a1bd
000000e0: ab49 49bd 3d35 a1bd 1476 08bb 6cc1 5cb9
000000f0: 98b4 08bd 7007 f2b8 0e86 4cbd f344 bebc
00000100: 6c67 65bc cc11 4dbd ab4a 97bd 358b 0ebd
00000110: cf48 5cbd 82ed 72bd 624d 39bd 2bb9 98bd
00000120: 1e30 15bc a083 c5bd c3d1 ecbc 71b5 99bd
00000130: c530 3bbd afad b5bc a07c 2cbd 5810 71bd
00000140: 9ea4 08be 00c0 69bd d890 21bd e374 7bbd
00000150: 2301 47bd 5b27 a3bc 0df7 04be 80d3 37bd
00000160: 7c94 82bc b4f5 2ebe 2e85 e4bd d7b8 9dbd
00000170: e2b9 abbc 01ba 02b9 3d20 45bd a515 dabc
00000180: af2d e8bc 6276 87bd c099 89bc 75b1 02bd
00000190: 351b f8bc 1025 9ebd e78c 1ebd babf 14bc
000001a0: 4c56 a1bd 6922 95b9 2233 2ebd a5ce 2ebd
000001b0: 612d ffbc de09 07bd 25ed aabc 3cc0 f8bc
000001c0: 4da7 68bc ace3 85bd 03ae 40bd ec70 11bd
000001d0: d1fa 4fbd cd65 a3bc ff85 49bd 10be 00bd
000001e0: c6d7 f0bc 936a ffbd cc69 73bd c792 ebbc
000001f0: 2284 60bc f7dd 2cbd 7ddb 90bd fdf6 94bd

network.2.weight f4 [128]
0.0498469 0.042408723 -0.050761353 -0.048001174 -0.00015382214 0.050943844 0.089727536 0.041160487
-0.04167902 0.051671855 0.053328607 0.051723544 0.056739315 0.04617354 0.06696797 0.04889185
-0.047001164 0.056338854 0.054099396 -0.03995692 0.04915954 0.07702639 0.071147844 0.043335218
0.07878296 0.09076956 0.053267375 0.05284894 0.05735118 0.059309453 0.047319867 0.08225181
0.049496103 0.05980237 0.06600724 -0.049479686 0.045983028 0.045908935 0.04699452 0.06729778
-2.0690119e-05 0.052716505 0.05896974 0.061126187 0.06383632 0.050873008 0.059299145 0.060986113
0.060875397 0.056932542 0.04825256 0.06299918 0.06972547 0.04993391 0.06358106 0.06757637
0.059191544 0.06931051 -0.0060801865 -1.1641034e-05 0.061326534 0.052199285 0.044649772 0.054680433
0.037878994 0.060851004 0.044830207 -0.051500052 0.05948928 0.05193889 0.057207435 0.060627826
0.047538582 0.055065528 0.041901488 0.053843603 0.047816668 0.05765553 0.058896735 0.048176263
0.06422221 0.05121787 0.057674628 0.052797195 0.05907491 0.05371269 0.06710629 0.057391435
0.03307912 0.062190555 0.052181114 0.056508824 0.045385513 2.0849811e-05 0.053366974 0.049364187
0.04377521 0.059557695 0.044538643 0.052931953 0.047720905 0.062963404 0.05537774 0.046827562
0.07110512 -0.00012348953 0.05353781 0.05953032 0.05110966 0.05397704 0.03633008 0.05185453
0.04885024 0.06273297 0.05479793 0.050283365 0.053722084 0.05208083 0.055848103 0.0521941
0.047592327 0.065177634 0.0478912 0.050549198 -0.04752606 0.07566474 0.06495799 0.089131124
00000000: 432c 4c3d c5b4 2d3d 23eb 4fbd e19c 44bd
00000010: 514b 21b9 7eaa 503d 12c3 b73d e697 283d
00000020: 9fb7 2abd dea5 533d 196f 5a3d 11dc 533d
00000030: 7c67 683d 7720 3d3d 8126 893d d242 483d
00000040: 4b84 40bd 92c3 663d 5497 5d3d dea9 23bd
00000050: 845b 493d 03c0 9d3d f6b5 913d 4580 313d
00000060: f658 a13d 64e5 b93d e42e 5a3d 2178 583d
00000070: 12e9 6a3d 78ee 723d 7ad2 413d a373 a83d
00000080: 6dbc 4a3d 54f3 743d ce2e 873d 36ab 4abd
00000090: b358 3c3d 020b 3c3d 537d 403d 6bd3 893d
000000a0: b18f adb7 43ed 573d 418a 713d 745f 7a3d
000000b0: 9ebc 823d 3760 503d a9e3 723d 93cc 793d
000000c0: 7b58 793d 1932 693d 7aa4 453d b705 813d
000000d0: 3acc 8e3d 8087 4c3d c936 823d 7b65 8a3d
000000e0: d572 723d abf2 8d3d 4d3c c7bb dc4d 43b7
000000f0: 8831 7b3d ebce 553d aee2 363d 97f8 5f3d
00000100: 0127 1b3d e73e 793d e19f 373d b8f1 52bd
00000110: 08ab 733d e0bd 543d 5852 6a3d e254 783d
00000120: d1b7 423d 648c 613d e5a0 2b3d 1c8b 5c3d
00000130: 69db 433d 3428 6c3d b43d 713d 7954 453d
00000140: ef86 833d d4c9 513d 3b3c 6c3d df41 583d
00000150: 88f8 713d d601 5c3d 066f 893d 4813 6b3d
00000160: f97d 073d 86bb 7e3d ddbb 553d cc75 673d
00000170: 29e6 393d a1e6 ae37 5497 5a3d 1a32 4a3d
00000180: a24d 333d c5f2 733d 276e 363d 2dcf 583d
00000190: ff76 433d f5f2 803d c5d3 623d 42ce 3f3d
000001a0: 909f 913d f87c 01b9 764a 5b3d 11d6 733d
000001b0: 5d58 513d 0717 5d3d dace 143d 6a65 543d
000001c0: 3017 483d 257a 803d cb73 603d eef5 4d3d
000001d0: b00b 5c3d b552 553d fbc0 643d 7bc9 553d
000001e0: 2cf0 423d da7b 853d 9029 443d ad0c 4f3d
000001f0: b0aa 42bd 1df6 9a3d b208 853d 618a b63d

network.2.bias f4 [128]
-0.0024123536 0.008297328 -0.011800511 -0.0020850897 0.00015748377 0.005188854 -0.001312946 0.0027077307
-0.0056752134 0.014623847 0.012239904 0.011102886 0.016070982 0.011647448 0.0022830102 0.010570552
-0.010903078 0.016210565 0.00714331 -0.009147582 0.0030344387 -0.0026088052 -0.0013327322 0.009136178
-0.0015941629 0.0049839253 0.0045654606 0.011819405 0.012826748 0.011889323 0.005673404 0.019329138
0.0050572427 0.010627645 -0.0017663394 -0.009972387 0.00525055 0.0054421304 0.012859221 0.0027823031
0.00029652898 0.017284997 -0.0018681051 0.01877777 0.0022118357 0.012875431 0.017312206 0.012586692
0.022766087 0.014774197 0.0023084346 0.016020149 0.0030318606 -0.004417792 0.011209291 0.00618098
0.011478075 0.0021441365 0.00038770918 -9.278346e-05 0.020929007 0.020653712 0.005786636 0.012310071
-0.0011933807 0.01046483 -0.0017082386 -0.012659205 0.01312884 -0.0023388178 0.008842674 0.0068380665
0.016390597 -0.0010290198 -0.0063032503 -0.0017318231 0.010311469 0.015760345 0.01729134 0.0049450863
0.0114050275 0.0011225145 0.011786677 0.005751264 0.009409454 0.023067791 0.0015545873 0.0118839415
0.0007289121 -0.010797031 -0.0045813657 0.010470073 0.0047193533 0.00042797366 0.008244951 0.00880613
0.0068919 -0.0005846174 0.010197332 0.012088985 0.008571151 0.021324797 0.012681937 0.014701481
0.007029669 0.00015701173 0.013347475 0.0108707575 0.013288045 0.010009301 0.0023687116 0.0113775255
0.012965256 0.0053950474 0.011739782 0.008140353 0.012334273 0.008904312 0.009671189 0.015111763
0.011000506 0.014197085 0.0028998856 0.010175122 -0.011276919 0.024502795 0.015462041 -0.0007899433
00000000: 9418 1ebb 84f1 073c ee56 41bc 00a6 08bb
00000010: 3a22 2539 4307 aa3b 2817 acba 2f74 313b
00000020: 24f7 b9bb dc98 6f3c e189 483c e1e8 353c
00000030: 4ba7 833c f0d4 3e3c 8e9e 153b 1c30 2d3c
00000040: d3a2 32bc 05cc 843c 6d12 ea3b bddf 15bc
00000050: 6fdd 463b 7df8 2abb 12af aeba e8af 153c
00000060: 3bf3 d0ba 3250 a33b dc99 953b 2da6 413c
00000070: 4827 523c 6fcb 423c f6e7 b93b 2458 9e3c
00000080: 3ab7 a53b 931f 2e3c 8484 e7ba 3963 23bc
00000090: ce0c ac3b e653 b23b 7baf 523c 4d57 363b
000000a0: 7277 9b39 4499 8d3c 35db f4ba d7d3 993c
000000b0: 72f4 103b 79f3 523c 54d2 8d3c 6a38 4e3c
000000c0: f27f ba3c 790f 723c 1b49 173b b03c 833c
000000d0: 2eb2 463b 20c3 90bb 2da7 373c d189 ca3b
000000e0: 890e 3c3c a484 0c3b 7245 cb39 be94 c2b8
000000f0: 4f73 ab3c f931 a93c d29d bd3b 2eb0 493c
00000100: 366b 9cba ae74 2b3c fae6 dfba 8e68 4fbc
00000110: 591a 573c da46 19bb dde0 103c dc11 e03b
00000120: 9345 863c 2de0 86ba 7f8b cebb 57fe e2ba
00000130: 70f1 283c d71b 813c 91a6 8d3c 640a a23b
00000140: 27dc 3a3c 5621 933a e81c 413c 1975 bc3b
00000150: 1c2a 1a3c aaf8 bc3c 4bc3 cb3a ddb4 423c
00000160: 7714 3f3a 08e6 30bc 481f 96bb ab8a 2b3c
00000170: cea4 9a3b a761 e039 d515 073c 9647 103c
00000180: 73d5 e13b 0241 19ba b612 273c e110 463c
00000190: 036e 0c3c 57b1 ae3c e6c7 4f3c 7bde 703c
000001a0: 2359 e63b 84a3 2439 5eaf 5a3c 431b 323c
000001b0: 1ab6 593c 0dfe 233c 633c 1b3b cd68 3a3c
000001c0: 3a6c 543c f0c8 b03b 3758 403c 1d5f 053c
000001d0: b115 4a3c 64e3 113c e873 1e3c 5497 773c
000001e0: 773b 343c e49a 683c 020c 3e3b 8eb5 263c
000001f0: d4c2 38bc 16ba c83c 8054 7d3c 3314 4fba

network.2.running_mean f4 [128]
0.00083970977 0.005775152 0.005457608 0.0010736478 0.0029568342 0.0053626224 0.00018263153 0.019989964
0.0103359595 0.0055022226 0.007838686 0.005171403 0.008301939 0.012268806 0.0008443776 0.005119161
0.008222983 0.013306881 0.008377115 0.0070232265 0.0015242996 0.0003415625 0.00019566754 0.005830934
0.00082272995 0.0015397142 0.004531557 0.012696025 0.004299809 0.0051680384 0.0039184466 0.005409282
0.004980575 0.00475286 0.0011015618 0.0025606228 0.0050460016 0.009118263 0.008823081 0.002959739
2.9832017e-05 0.016390823 0.0008328747 0.011542618 0.0018407562 0.009466756 0.0080105895 0.004879419
0.0114943255 0.0093842745 0.0010204555 0.007789052 0.0025389593 0.00085760443 0.0070089544 0.0033006228
0.006607602 0.00048085322 0.0043391204 7.4402575e-05 0.01365192 0.021763308 0.004703122 0.009575025
0.016934386 0.016513843 0.0032749572 0.005752501 0.005524373 0.00047347278 0.005732928 0.00286555
0.01617964 0.0012614331 0.0025713807 0.00039609577 0.008782418 0.005407999 0.006339081 0.0013710707
0.006674754 0.00097438315 0.0075848373 0.0021358712 0.0036179498 0.014677001 0.0019845741 0.0060770595
0.008748981 0.00043876228 0.00019328124 0.009770043 0.0068681166 0.00010077761 0.004847706 0.0049105794
0.007560874 0.0009713839 0.017189374 0.009014838 0.007879039 0.008301655 0.0046119797 0.016947577
0.0037382443 0.0010144216 0.01363941 0.004667004 0.0049619703 0.009778976 0.004880344 0.00974208
0.014921944 0.0031596313 0.005945195 0.006868091 0.005151116 0.008902541 0.0044123526 0.010573825
0.0047120363 0.008961518 0.003494254 0.0057455744 0.01633089 0.0072181905 0.0067636985 0.0026616303
00000000: f81f 5c3a 7c3d bd3b bcd5 b23b a4b9 8c3a
00000010: 72c7 413b f0b8 af3b c780 3f39 fec1 a33c
00000020: 2858 293c fd4b b43b d56d 003c df74 a93b
00000030: db04 083c 1a03 493c 3959 5d3a a3be a73b
00000040: b1b9 063c 1b05 5a3c 2b40 093c 1823 e63b
00000050: 02cb c73a be13 b339 1b2c 4d39 6b11 bf3b
00000060: 79ac 573a 3cd0 c93a 757d 943b fd02 503c
00000070: 6ae5 8c3b a658 a93b 5066 803b 5940 b13b
00000080: 1734 a33b e1bd 9b3b 4862 903a 1fd0 273b
00000090: ee58 a53b c464 153c af8e 103c 2ef8 413b
000000a0: c53f fa37 0c46 863c 4655 5a3a 401d 3d3c
000000b0: 8745 f13a 741a 1b3c d93e 033c 89e3 9f3b
000000c0: b252 3c3c 80c0 193c cec0 853a 4e3b ff3b
000000d0: ab64 263b dcd0 603a 5fab e53b 434f 583b
000000e0: 9584 d83b 071b fc39 2e2f 8e3b 9408 9c38
000000f0: 4dac 5f3c f748 b23c a61c 9a3b 91e0 1c3c
00000100: fbb9 8a3c 0a48 873c aaa0 563b 7a7f bc3b
00000110: cd05 b53b 713c f839 49db bb3b f4cb 3b3b
00000120: 2a8b 843c ac56 a53a 9c84 283b 13ab cf39
00000130: 22e4 0f3c 9535 b13b 11b8 cf3b 80b5 b33a
00000140: e5b7 da3b bf6d 7f3a 3a8a f83b f9f9 0b3b
00000150: 201b 6d3b ce77 703c a10f 023b 1222 c73b
00000160: e357 0f3c ad09 e639 8aab 4a39 8812 203c
00000170: f00d e13b 9158 d338 81d9 9e3b ede8 a03b
00000180: 35c1 f73b 78a4 7e3a bbd0 8c3c f9b2 133c
00000190: 1617 013c aa03 083c 1720 973b a5d5 8a3c
000001a0: 55fd 743b 57f6 843a d577 5f3c abed 983b
000001b0: 0698 a23b 0038 203c 4beb 9f3b 3f9d 1f3c
000001c0: 2b7b 743c d111 4f3b e9cf c23b b90d e13b
000001d0: b1ca a83b f7db 113c 7f95 903b d63d 2d3c
000001e0: 6d67 9a3b 55d3 123c dbff 643b 5f45 bc3b
000001f0: 5cc8 853c 9286 ec3b 04a2 dd3b bf6e 2e3b

network.2.running_var f4 [128]
4.9225633e-05 0.00015479764 0.00012704343 2.4393492e-05 1.5437092e-05 0.00013562276 6.380701e-06 0.00041097592
0.00032554378 0.0001489472 0.00018600725 0.00022151363 0.00019611165 0.00026455798 2.3280201e-05 0.0001339869
0.00026785274 0.00027255944 0.0003253246 0.00027824528 4.0395153e-05 9.561631e-06 5.704962e-06 0.00014210999
9.257952e-05 0.00016273343 0.0001295313 0.00042805777 9.085257e-05 0.00012271426 7.3271134e-05 0.00016866118
0.00014143209 0.00013707817 0.0002226316 0.00014273576 0.00020198336 0.0003596259 0.0001662855 0.00048138562
5.151106e-09 0.00031026363 9.628164e-05 0.0010121906 8.885616e-05 0.0003153366 0.00025927371 0.00020617632
0.00029043583 0.00048054784 2.9239967e-05 0.00028324593 7.149779e-05 2.1066244e-05 0.0016696254 8.6138345e-05
0.00019384114 9.308271e-06 0.000102693804 2.5044697e-08 0.0006658663 0.0014669468 0.0001331011 0.00050749595
0.0003707842 0.012435566 0.0017192302 0.0002091382 0.00015865573 1.00406705e-05 0.00018295656 0.0001403045
0.00038719783 2.2325488e-05 7.3531526e-05 1.7067836e-05 0.00035307472 0.00033181158 0.00015441258 3.4956403e-05
0.00032953266 3.7005913e-05 0.00033771762 5.0433064e-05 8.568319e-05 0.00032951485 5.065893e-05 0.00015989043
0.00046077382 8.543428e-06 5.419061e-06 0.0005715831 0.001056179 1.245197e-07 0.00013775055 0.00016275376
0.00021500154 2.5810019e-05 0.00051993586 0.00030659066 0.00028029704 0.00020056282 0.00011877727 0.00033650757
9.682078e-05 6.5586432e-06 0.00041472752 0.00010165826 0.00010996464 0.0005185363 0.000171816 0.00043081748
0.0004190652 8.248664e-05 0.00018516344 0.00020840329 0.00012504795 0.00038735414 0.00010064315 0.00024314507
0.00012479555 0.00044752267 7.894066e-05 0.00013310541 0.0004082253 0.00020615396 0.00026937661 0.0027506708
00000000: 9f77 4e38 2d51 2239 f636 0539 a0a0 cc37
00000010: e77e 8137 f535 0e39 ce19 d636 4178 d739
00000020: bfad aa39 b62e 1c39 f10a 4339 1d46 6839
00000030: 52a3 4d39 5fb4 8a39 da49 c337 d67e 0c39
00000040: 966e 8c39 4fe6 8e39 5490 aa39 73e1 9139
00000050: f76d 2938 e46a 2037 406d bf36 5c03 1539
00000060: 4027 c238 6ca3 2a39 cbd2 0739 f16c e039
00000070: 1a88 be38 dcac 0039 24a9 9938 a4da 3039
00000080: 634d 1439 a4bc 0f39 3772 6939 57ab 1539
00000090: 7fcb 5339 2c8c bc39 ed5c 2e39 7c62 fc39
000000a0: 9cfd b031 e1aa a239 d0ea c938 7bab 843a
000000b0: 4a58 ba38 c353 a539 21ef 8739 0931 5839
000000c0: a345 9839 0af2 fb39 5a48 f537 a080 9439
000000d0: 15f1 9538 6ab7 b037 55d7 da3a 2ca5 b438
000000e0: d641 4b39 b82a 1c37 515d d738 df21 d732
000000f0: 888d 2e3a 9146 c03a 0e91 0b39 7a09 053a
00000100: d065 c239 8bbe 4b3c cb57 e13a 1c4c 5b39
00000110: d35c 2639 5a74 2837 07d8 3f39 b41e 1339
00000120: d000 cb39 9f47 bb37 f034 9a38 e62c 8f37
00000130: e31c b939 fff6 ad39 d0e9 2139 279e 1238
00000140: 20c5 ac39 cc36 1b38 b10f b139 1788 5338
00000150: d0b0 b338 bcc2 ac39 9d7a 5438 43a8 2739
00000160: 0494 f139 be55 0f37 61d5 b536 4bd6 153a
00000170: 7d6f 8a3a b7b3 0534 2271 1039 e1a8 2a39
00000180: 0972 6139 9882 d837 4e4c 083a e7bd a039
00000190: d5f4 9239 2c4e 5239 1018 f938 486d b039
000001a0: 430c cb38 5112 dc36 c96f d939 5d31 d538
000001b0: d19c e638 62ee 073a 8229 3439 58df e139
000001c0: fbb5 db39 adfc ac38 6f28 4239 d586 5a39
000001d0: 4e1f 0339 cb15 cb39 6110 d338 c2f4 7e39
000001e0: 8ddb 0239 7aa1 ea39 f28c a538 3692 0b39
000001f0: 1307 d639 082b 5839 1e3b 8d39 9944 343b

network.4.weight f4 [64, 128]
-0.011116038 -0.019486252 0.010503987 -0.001755233 5.2427105e-05 -0.008818749 -0.0022453307 -0.014867493
-0.009221068 -0.008329207 -0.016650274 -0.0035519546 0.006710984 -0.0025842534 0.0006704085 0.004317649
0.0049866717 -0.0002260761 0.005436681 0.0057353317 0.0047480417 -0.012537766 -0.011189935 0.005798067
-0.007485027 -0.008395349 0.004557273 0.005893959 0.00038337486 -0.007863256 -0.0018602164 -0.0019556484
0.0081353905 0.004805411 -0.0030647146 0.008684944 -0.0015017069 -0.009276661 0.0077437623 0.001810881
0.00037850314 0.009241864 0.0021137327 -0.010234939 -0.024775509 -0.0018386414 -0.031360216 -0.012672211
0.0026796777 -0.010708222 0.0052874726 -0.012147782 -0.0030686846 0.0058624633 -0.033928372 -0.009780981
-0.004502306 0.007120487 -0.00025808412 6.8733396e-05 0.0012949669 0.0005590493 -0.012739444 -0.0008174567
-0.0003375425 0.005329367 0.011591542 0.013353749 -0.014439035 -0.0058729397 0.00994351 -0.0014754988
0.0008910082 0.002356561 0.00917165 -0.0013307248 0.007209031 -0.00924228 0.0014608384 0.0034615928
-6.103117e-05 -0.009357582 0.0039403494 0.0037763813 0.0018900393 0.0021421202 0.004610558 0.0027352495
0.008843328 0.0023278329 -0.009113565 -0.017651616 0.0018024631 0.00012735679 0.0031656062 -0.011120345
-0.021235334 0.0021827584 0.0017191435 -0.00018561535 0.0014828724 -0.005980309 -0.00874515 0.0061522466
-0.012015414 0.00041941056 0.0029522139 0.011442085 0.006073668 0.00045329853 -0.004816504 0.0026853217
-0.005236308 0.0036680338 -0.005686325 -0.024538364 -0.02072101 0.002205951 -0.0035555086 -0.005552707
-0.005916195 0.002468664 0.0013894839 -0.015241464 -0.008382803 -0.0054703066 -0.031233178 -0.010804566
-0.0034661475 0.010164764 0.000328325 -0.004147737 3.089952e-05 0.0006760781 -0.009910959 0.007573077
0.0019883274 0.0056116837 0.00018229464 -0.017789949 -0.009226543 0.001293351 0.01078447 -0.0103241755
0.015474687 0.0033552789 0.006256629 -0.00544685 -0.0074722674 -0.0075996676 0.0023361568 0.0070533683
-0.013394511 0.021583503 -0.012234574 -0.004447337 0.0016514678 -0.01983372 -0.010241577 -0.022421481
0.0121377595 0.0035309633 -0.005016827 0.015808102 -0.013344221 0.0041245325 -0.005882515 -0.01367434
-0.00026422125 0.008982173 -0.0023816302 0.0037786486 -0.008556235 -0.016669277 0.0023916084 0.0013672124
0.0074439594 0.003010333 0.0031092088 -0.006858454 -0.0025401583 -0.00095988717 -0.009228962 0.004570906
0.008665985 -0.0029468983 -0.0004023716 0.00027138976 -0.013888218 -0.00033141958 -0.008720851 0.0017419247
0.009853759 0.004651533 -0.00039713236 0.020638708 -0.017228315 -0.0093873525 -0.016259125 -0.0012572171
-0.0014395097 -0.0012163259 -0.0014717313 0.009617854 -0.0023459196 -0.010390343 -0.022964835 0.0041513457
0.0024629144 -0.009814768 -0.0053048143 0.009731075 -0.0035095196 0.0074137333 -0.02395893 -0.024517907
0.008355199 0.0017479273 0.004364376 -0.0017403042 0.00082836323 -0.0002866006 -0.019750884 -0.009910001
0.012189935 -0.003968057 0.002957407 0.00063744583 -0.0037430553 -0.008342825 0.005545508 0.012769825
0.005213247 -0.00019383428 0.006687704 -0.02171872 -0.0049691848 -0.00013725716 -0.013232535 0.006545303
-0.005393634 -0.011424471 -0.010341729 -0.006028258 -0.0018375657 -0.0025818408 -0.0002257712 -0.00089290744
-0.0119158905 0.0033083064 -0.008511298 -0.015587526 -0.005619317 -0.022010792 -0.009479881 -0.0045478046
00000000: 0b20 36bc a2a1 9fbc ea18 2c3c d90f e6ba
00000010: 2de5 5b38 847c 10bc 6626 13bb c996 73bc
00000020: f613 17bc 3a77 08bc 2866 88bc e9c7 68bb
00000030: d0e7 db3b 945c 29bb 5abe 2f3a 117b 8d3b
00000040: 3c67 a33b d70e 6db9 3026 b23b 73ef bb3b
00000050: 7695 9b3b 346b 4dbc fd55 37bc b6fd bd3b
00000060: f544 f5bb a58c 09bc 2d55 953b 1d22 c13b
00000070: b4ff c839 e3d4 00bc 81d2 f3ba 562a 00bb
00000080: 4d4a 053c b676 9d3b 61d9 48bb 4c4b 0e3c
00000090: ecd4 c4ba 23fd 17bc 63bf fd3b 155b ed3a
000000a0: d571 c639 306b 173c 8d86 0a3b 72b0 27bc
000000b0: 02f6 cabc 91fe f0ba 9273 00bd 1b9f 4fbc
000000c0: 889d 2f3b 8a71 2fbc 8942 ad3b 7e07 47bc
000000d0: fc1b 49bb e819 c03b 7af8 0abd 6840 20bc
000000e0: 1588 93bb f952 e93b 774f 87b9 f624 9038
000000f0: e1bb a93a 2a8d 123a 1ab9 50bc 974a 56ba
00000100: 30f8 b0b9 f8a1 ae3b 73ea 3d3c afc9 5a3c
00000110: b491 6cbc ca71 c0bb 1bea 223c 8665 c1ba
00000120: 8c92 693a 8870 1a3b b044 163c b76b aeba
00000130: bc39 ec3b ef6c 17bc 9a79 bf3a e4db 623b
00000140: b8fb 7fb8 8b50 19bc 0c1e 813b 2a7d 773b
00000150: 32bb f73a d062 0c3b 2a14 973b df41 333b
00000160: 9be3 103c 8e8e 183b 1051 15bc 1f9a 90bc
00000170: a040 ec3a 148b 0539 0f76 4f3b 1c32 36bc
00000180: b9f5 adbc 9c0c 0f3b e254 e13a bea1 42b9
00000190: f15c c23a 78f6 c3bb d147 0fbc c998 c93b
000001a0: 4ddc 44bc 55e4 db39 ee79 413b 9577 3b3c
000001b0: 9f05 c73b b3a8 ed39 c4d3 9dbb 39fc 2f3b
000001c0: 5695 abbb 6563 703b 5a54 babb ae04 c9bc
000001d0: 1cbf a9bc b791 103b 8903 69bb 7bf3 b5bb
000001e0: a4dc c1bb 4fc9 213b 581f b63a 55b7 79bc
000001f0: 0658 09bc 4240 b3bb b9dc ffbc a205 31bc
00000200: 4e28 63bb 1c8a 263c 0923 ac39 bde9 87bb
00000210: 1b9a 0138 d53a 313a 9361 22bc 9327 f83b
00000220: 994e 023b 37e2 b73b 5826 3f39 3abc 91bc
00000230: ed2a 17bc a885 a93a 58b1 303c bb26 29bc
00000240: 8b89 7d3c 3de4 5b3b 6804 cd3b 7d7b b2bb
00000250: ecd9 f4bb a206 f9bb 351a 193b f11f e73b
00000260: a774 5bbc e3cf b03c 8673 48bc f7ba 91bb
00000270: 1076 d83a 537a a2bc 4acc 27bc 41ad b7bc
00000280: 74dd 463c bc67 673b 3264 a4bb fe7f 813c
00000290: b8a1 5abc 1627 873b 1dc2 c0bb 570a 60bc
000002a0: 2d87 8ab9 f729 133c 2015 1cbb 34a3 773b
000002b0: 732f 0cbc 028e 88bc 88bc 1c3b 0934 b33a
000002c0: 75ec f33b 0249 453b dec3 4b3b e2bc e0bb
000002d0: c978 26bb f0a0 7bba 1235 17bc 8ac7 953b
000002e0: c7fb 0d3c c020 41bb 67f5 d2b9 5149 8e39
000002f0: 698b 63bc 62c2 adb9 e6e1 0ebc 4b51 e43a
00000300: a971 213c e36b 983b 3436 d0b9 8212 a93c
00000310: 6522 8dbc 69cd 19bc db31 85bc 35c9 a4ba
00000320: eead bcba 206d 9fba 1ce7 c0ba 3494 1d3c
00000330: 00be 19bb 423c 2abc c020 bcbc 0308 883b
00000340: d968 213b 1fce 20bc 02d4 adbb 166f 1f3c
00000350: f8ff 65bb e7ee f23b 8545 c4bc c7d9 c8bc
00000360: 3fe4 083c b51a e53a 0a03 8f3b eb1a e4ba
00000370: 8426 593a e242 96b9 9bcc a1bc 8f5d 22bc
00000380: 4bb8 473c 7a06 82bb 0ed1 413b 441a 273a
00000390: 0c4e 75bb 58b0 08bc 18b7 b53b 8738 513c
000003a0: e3d3 aa3b fe3f 4bb9 8724 db3b 75eb b1bc
000003b0: 8bd4 a2bb b0ec 0fb9 46cd 58bc fb79 d63b
000003c0: 15bd b0bb b42d 3bbc 5b70 29bc b188 c5bb
000003d0: 79da f0ba 1a34 29bb ffbc 6cb9 0112 6aba
000003e0: de3a 43bc 2cd0 583b f972 0bbc d362 7fbc
000003f0: 3f22 b8bb fa4f b4bc 8151 1bbc c005 95bb

network.4.bias f4 [64]
-0.0021572877 -0.0005585076 -0.0019919074 -0.00021111377 -0.0026072683 -0.0046072146 -0.0025604726 -0.0028396987
0.0018518876 -0.00011777997 -0.0027878315 -0.0038995608 -0.001644142 -0.00058838504 -0.00023570389 -0.0005333858
-0.0039524296 0.0005250843 -0.00014295315 -0.00045119543 0.0008237529 0.00026656644 -0.0011475486 -0.0014616931
-0.002650211 0.0018905685 0.0005028696 0.009117215 -0.0019757072 -0.0027428598 0.00084142864 -0.00027027618
-0.0022066417 -0.011039462 -0.0021766166 -0.00041723475 -0.0026199277 -0.0002646159 -0.0023583567 -0.0016700379
-0.0068415687 -0.0014467459 -0.002714839 -0.0014136344 -0.00016370436 -0.002870633 -0.0012071205 -0.001602556
0.004392505 -0.001079873 -0.00021137192 -0.0012391099 0.0023188025 -0.002540793 -0.0005334663 -0.0022673015
-0.00035903094 -0.0031966844 -0.0040918104 -0.0021446927 -0.00014295412 -0.0012098268 -0.0020509858 -0.0013592307
00000000: 4861 0dbb d068 12ba a98a 02bb 6c5e 5db9
00000010: b4de 2abb 1ef8 96bb 9acd 27bb 3d1a 3abb
00000020: 09bb f23a a400 f7b8 0db4 36bb c68f 7fbb
00000030: 4080 d7ba da3d 1aba 4827 77b9 ead2 0bba
00000040: 6283 81bb d0a5 093a b2e5 15b9 6d8e ecb9
00000050: 1ff1 573a f1c1 8b39 5769 96ba 4896 bfba
00000060: 2aaf 2dbb f4cc f73a 02d3 033a 5f60 153c
00000070: de7a 01bb 8dc1 33bb 5293 5c3a dbb3 8db9
00000080: 4e9d 10bb dcde 34bc 91a5 0ebb 4dc0 dab9
00000090: 18b3 2bbb 25bc 8ab9 a98e 1abb 2ce5 daba
000000a0: 3d2f e0bb bda0 bdba 71eb 31bb b349 b9ba
000000b0: 0ea8 2bb9 3b21 3cbb 3e38 9eba db0c d2ba
000000c0: 01ef 8f3b 868a 8dba b8a3 5db9 a169 a2ba
000000d0: 0df7 173b 6f83 26bb 51d8 0bba 0297 14bb
000000e0: 513c bcb9 777f 51bb 9814 86bb f98d 0cbb
000000f0: f4e5 15b9 0d93 9eba d569 06bb 3728 b2ba

network.6.weight f4 [64]
0.112330005 0.10441354 0.11253125 0.09877468 0.109470606 0.08097266 0.11994253 0.11366131
0.07800238 0.07120921 0.08533771 0.12012649 0.11578174 0.09782553 0.0984777 0.096551664
0.117309794 0.10864588 0.0778682 0.0871245 0.09893776 0.086509846 0.108664125 0.09758531
0.117175214 0.07933256 0.09946964 0.07963591 0.099611975 0.11785521 0.07860498 0.10016367
0.11306759 0.09289643 0.10950028 0.08991153 0.10465942 0.08161447 0.112875864 0.111535616
0.10611354 0.09792297 0.10469024 0.081147 0.1077427 0.104403846 0.10764344 0.112549014
0.07331996 0.09951918 0.09644736 0.10583532 0.09020058 0.09985062 0.09645016 0.10092001
0.10215184 0.10191241 0.11879018 0.09488427 0.10359584 0.106278285 0.10332316 0.11550806
00000000: 460d e63d c4d6 d53d c976 e63d 614a ca3d
00000010: 2032 e03d fed4 a53d 6ea4 f53d 43c7 e83d
00000020: b6bf 9f3d 22d6 913d 8ac5 ae3d e104 f63d
00000030: fa1e ed3d c058 c83d adae c93d e1bc c53d
00000040: 1e40 f03d bb81 de3d 5d79 9f3d 546e b23d
00000050: e19f ca3d 132c b13d 4c8b de3d cfda c73d
00000060: 8ff9 ef3d 1c79 a23d bdb6 cb3d 2718 a33d
00000070: 5d01 cc3d 135e f13d a6fb a03d 9c22 cd3d
00000080: fb8f e73d 7c40 be3d af41 e03d 8923 b83d
00000090: ae57 d63d 7d25 a73d 762b e73d c96c e43d
000000a0: 0e52 d93d d78b c83d d667 d63d 6630 a63d
000000b0: 34a8 dc3d afd1 d53d 2a74 dc3d 1980 e63d
000000c0: c628 963d b6d0 cb3d 3286 c53d 30c0 d83d
000000d0: 15bb b83d 7b7e cc3d a987 c53d 26af ce3d
000000e0: fc34 d13d 74b7 d03d 4448 f33d af52 c23d
000000f0: 0e2a d43d 6ea8 d93d 189b d33d 7d8f ec3d

network.6.bias f4 [64]
0.018679043 0.033292487 0.017915783 0.020193977 0.02362121 0.006223977 0.026415525 0.022308873
-0.00051160814 0.004195186 0.0140137505 0.02133831 0.025555199 0.02895805 0.017773231 0.014054277
0.029615523 0.03136653 0.016528403 0.022266991 0.025545023 0.017864732 0.02009816 0.022893023
0.020919638 0.011763682 0.028232686 -0.015902933 0.0144433435 0.026360868 0.0122652855 0.030438093
0.015602181 -0.009215653 0.012204479 0.0116954055 0.01671508 0.011044994 0.035361245 0.013075935
-0.0005367422 0.015332817 0.014669387 0.007862438 0.036252156 0.021108843 0.026047736 0.030568872
0.0022015583 0.03434337 0.0235505 0.02308621 0.0027484142 0.0075834678 0.02042784 0.019979035
0.023554277 0.02379079 0.020252729 0.0129713975 0.03906628 0.017724037 0.022663016 0.024881028
00000000: cb04 993c b45d 083d 1fc4 923c d76d a53c
00000010: 4581 c13c 81f2 cb3b 5f65 d83c 19c1 b63c
00000020: 711d 06ba c577 893b ee99 653c aecd ae3c
00000030: 2359 d13c 6f39 ed3c 2b99 913c e943 663c
00000040: 419c f23c 317a 003d 9366 873c 4469 b63c
00000050: cc43 d13c 0f59 923c e5a4 a43c 268a bb3c
00000060: a95f ab3c 75bc 403c 3c48 e73c de46 82bc
00000070: c6a3 6c3c bff2 d73c 56f4 483c 4f59 f93c
00000080: 4aa0 7f3c 40fd 16bc 4cf5 473c 169e 3f3c
00000090: 10ee 883c 10f6 343c f4d6 103d 723c 563c
000000a0: 29b4 0cba 7f36 7b3c de57 703c 75d1 003c
000000b0: 247d 143d 74ec ac3c 1062 d53c 926b fa3c
000000c0: 0548 103b a2ab 0c3d faec c03c 4b1f bd3c
000000d0: bd1e 343b bd7e f83b 4958 a73c 13ab a33c
000000e0: e6f4 c03c e7e4 c23c 0de9 a53c fc85 543c
000000f0: f703 203d 0032 913c caa7 b93c 4cd3 cb3c

network.6.running_mean f4 [64]
0.0016630916 0.003035812 0.0015095096 0.0033745416 0.0015376349 0.0026247576 0.0018300544 0.0013605624
0.0030795406 0.0040763607 0.0015403288 0.0014120596 0.0014881063 0.0030816996 0.0013387055 0.0022701286
0.0016821749 0.0026329875 0.004684533 0.002294738 0.0026381866 0.002129445 0.0015582042 0.0025982866
0.0011271775 0.00331938 0.0029369346 0.0058843214 0.0020065536 0.001716853 0.0026073235 0.0023911498
0.00105474 0.0002568208 0.0014156039 0.0021751504 0.0013148655 0.0030914992 0.0027051768 0.0015607392
8.687634e-05 0.0019806912 0.0016531863 0.0019951735 0.0027663338 0.0017464646 0.0019138416 0.0026655202
0.0032538287 0.0031619826 0.0019177962 0.0018130697 0.002612775 0.00095657265 0.0020021626 0.0020594175
0.0019013517 0.0013557256 0.001394131 0.0019284901 0.0034237972 0.0016666732 0.001647413 0.001731657
00000000: 18fc d93a 79f4 463b bdda c53a 6a27 5d3b
00000010: 778a c93a 2004 2c3b 70de ef3a e654 b23a
00000020: 1ed2 493b fe92 853b dce4 c93a dc14 b93a
00000030: 900c c33a 57f6 493b 8177 af3a 70c6 143b
00000040: 6c7c dc3a 338e 2c3b b680 993b 5163 163b
00000050: 6de5 2c3b 298e 0b3b a83c cc3a 0448 2a3b
00000060: cdbd 933a f589 593b 9679 403b 44d1 c03b
00000070: 6280 033b 0708 e13a a1df 2a3b d6b4 1c3b
00000080: 343f 8a3a e7a5 8639 c98b b93a f88c 0e3b
00000090: 9157 ac3a c09a 4a3b 5649 313b b891 cc3a
000000a0: 6131 b638 7cce 013b baaf d83a 75c1 023b
000000b0: 614b 353b a1e9 e43a ded9 fa3a 02b0 2e3b
000000c0: 303e 553b 4439 4f3b 905e fb3a 86a4 ed3a
000000d0: 173b 2b3b 81c2 7a3a b736 033b 4bf7 063b
000000e0: c736 f93a 9ab2 b13a 46bb b63a 64c5 fc3a
000000f0: c961 603b 4674 da3a 02ee d73a c4f8 e23a

network.6.running_var f4 [64]
1.1033062e-05 1.8670888e-05 1.1390067e-05 2.3788603e-05 8.483019e-06 2.6361588e-05 1.2439859e-05 1.0471784e-05
1.5430885e-05 2.5317546e-05 7.904138e-06 8.668489e-06 1.060221e-05 2.1815064e-05 6.4666465e-06 9.66759e-06
1.3006794e-05 2.001739e-05 4.787402e-05 1.531328e-05 1.9792376e-05 8.898744e-06 1.0560221e-05 1.7366305e-05
9.489414e-06 1.5679556e-05 1.6268268e-05 2.369618e-05 1.1838842e-05 1.0299342e-05 1.2671001e-05 1.6281396e-05
6.278561e-06 2.5812276e-06 5.569093e-06 1.2665047e-05 9.700891e-06 1.9135525e-05 2.551269e-05 1.1865221e-05
7.741587e-07 1.2209122e-05 1.1825562e-05 8.184749e-06 1.5947642e-05 1.4326959e-05 9.412592e-06 1.9060953e-05
1.239503e-05 3.0389228e-05 1.403951e-05 9.754987e-06 1.1373711e-05 3.7868592e-06 9.4294255e-06 1.2229757e-05
1.2721214e-05 9.960644e-06 8.815999e-06 1.2028015e-05 2.2324926e-05 1.150894e-05 1.0662055e-05 9.488452e-06
00000000: a41a 3937 6d9f 9c37 f717 3f37 a38d c737
00000010: 4a52 0e37 1423 dd37 cab4 5037 f8af 2f37
00000020: 9371 8137 0461 d437 049c 0437 e06e 1137
00000030: 25e0 3137 7eff b637 12fc d836 fc31 2237
00000040: c137 5a37 05eb a737 56cc 4838 0575 8037
00000050: ce07 a637 d14b 1537 ce2b 3137 dbad 9137
00000060: b934 1f37 9787 8337 d777 8837 29c7 c637
00000070: 709f 4637 56cb 2c37 8995 5437 0894 8837
00000080: 6eac d236 2739 2d36 25de ba36 f67b 5437
00000090: 02c1 2237 3a85 a037 1604 d637 bc10 4737
000000a0: c8cf 4f35 c8d5 4c37 6766 4637 3b51 0937
000000b0: 4dc7 8537 d25d 7037 c6ea 1d37 16e5 9f37
000000c0: 40f4 4f37 5fec fe37 3c8b 6b37 5aa9 2337
000000d0: b7d1 3e37 bf21 7e36 1333 1e37 682e 4d37
000000e0: 336d 5537 a41c 2737 6de8 1337 eecb 4937
000000f0: 6a46 bb37 8516 4137 2de1 3237 9730 1f37

network.8.weight f4 [32, 64]
0.004993458 -0.01975605 -0.007790616 -0.047747876 0.0027658546 -0.035136644 0.0032773113 0.0003938307
0.0068009305 0.00973767 0.009497714 0.0007971125 0.006220024 -0.002859776 -0.004901784 0.02159954
-0.008057184 0.0022140518 -0.048703562 0.0068372325 0.005130619 0.01992066 0.011280691 -0.051797308
0.0017571389 -0.032456018 -0.017414022 0.01742715 -0.010711424 -0.0010504121 0.013513245 0.0086729415
0.008756795 -0.0032909329 0.020910561 -0.030525576 -0.0039907577 0.008861401 -0.033517707 -0.0047697467
-0.020569604 0.005139692 -0.011178638 0.011214382 -0.0037564202 0.007939315 0.0111544095 -0.0540438
0.0061020744 -0.028470417 0.00010877676 0.010663878 1.4819925e-06 -0.009688288 -0.0042470056 -0.018711658
-0.007170294 -0.027329044 -0.02523334 -0.008359108 -0.028822675 0.0065867975 -0.0038001838 0.0067147757
0.002184636 -0.051420555 0.006165259 0.0037729493 -0.040704224 0.0066810483 -0.031054672 0.00011834226
0.0034102213 0.0056837997 -0.0028933568 0.00051499746 0.001888663 0.0019825571 -0.006509857 -0.019743625
-0.0015280416 -0.038984455 -0.014502419 -0.0005069799 -0.039024897 0.0017931534 0.008842409 -0.0033284242
-0.00061402394 0.0031339482 -0.052922618 -0.0055918917 -0.03625138 0.0009959105 0.005186592 -0.0041944557
0.0039011685 -0.0005729548 -0.04391879 -0.010191103 -0.031340785 -0.014523057 0.003308536 0.0043038065
0.0031013938 -0.023048328 -0.0010886949 0.009103835 -0.060584202 -0.0027988036 -0.003729363 -0.043665837
0.012265976 0.0030376646 -0.004841845 0.00048720866 -0.006188692 -0.005669661 -0.040061004 -0.005485749
-0.0026788625 -0.0024646253 -0.03701246 0.0066011967 0.0025129407 -0.040059187 -0.0009453785 -0.03282564
-0.0072903167 -0.03428462 -0.013470483 -0.013812406 -0.012956125 -0.0076335594 -5.494889e-05 0.010180788
0.005014946 0.005978716 0.013593727 -0.009641656 0.007090304 0.0007273854 -0.010120922 0.014003182
-0.04384494 -0.0056550144 -0.046734303 0.013720466 -0.010295563 0.025958061 0.0033892193 -0.054237783
-0.013017144 -0.025434341 -0.020066513 0.0050898506 -0.006325572 -0.0090239085 0.0074740234 0.007990129
0.007118212 -0.018871643 0.003666839 -0.017923756 -0.00433454 0.013491546 -0.002731371 -0.0071356883
-0.028913211 -0.002526489 -0.0024982758 0.01393458 -0.005524271 0.0041294494 0.002178871 -0.05032428
0.018064832 0.00025791023 -0.0065261833 0.007848852 -0.0039144657 -0.02759349 -0.010443622 -0.013906695
0.009633383 -0.045888327 -0.050237954 -0.0016435559 -0.0075420057 0.0041445694 0.005027533 -0.0031429622
-0.0038848524 0.005160717 -0.056639433 0.0019930496 0.016368285 -0.04471097 -0.004173878 -0.031121744
-0.0009590376 -0.03213919 0.016510367 0.0025978382 -0.049689535 -0.044944473 0.0050211414 -0.015193808
0.0014570947 -0.0048883692 0.0032978023 0.0036519954 0.015055152 -0.0034118944 -0.045459058 -0.004615005
-0.029225498 0.015646752 0.0062509836 0.049626704 0.002296478 -0.0011131762 0.0049679438 -0.009045034
-0.03429844 -0.023785716 0.021821493 0.017055912 0.008370742 -0.0050178156 -0.038400587 -0.0066178325
0.014360816 0.013660696 -0.028516995 -0.004947109 -0.0016269473 -0.0015096399 0.002395525 -0.0007239777
-0.005226027 -0.022167664 -0.0032980065 0.011692925 0.0034757159 -0.009455447 -0.008334158 0.0054961946
-0.051486198 0.011475171 -0.0065714167 -0.0044421013 -0.0033845555 -0.0006706627 -0.013030514 0.004200918
00000000: 29a0 a33b 71d7 a1bc 6c48 ffbb 4793 43bd
00000010: 5743 353b 71eb 0fbd 29c8 563b 107b ce39
00000020: 57da de3b c08a 1f3c 4d9c 1b3c 50f5 503a
00000030: 58d1 cb3b 146b 3bbb 259f a0bb 85f1 b03c
00000040: 4702 04bc a019 113b 637d 47bd dd0a e03b
00000050: c01e a83b a730 a33c a6d2 383c 6a29 54bd
00000060: cc4f e63a 9af0 04bd daa7 8ebc 62c3 8e3c
00000070: f87e 2fbc fbad 89ba a866 5d3c f418 0e3c
00000080: a978 0f3c b1ac 57bb a04c ab3c c610 fabc
00000090: e7c4 82bb 692f 113c dd49 09bd 894b 9cbb
000000a0: 9681 a8bc dd6a a83b 9b26 37bc 87bc 373c
000000b0: 462e 76bb e713 023c fcc0 363c 085d 5dbd
000000c0: e9f3 c73b cb3a e9bc 141f e438 8cb7 2e3c
000000d0: e0e8 c635 a0bb 1ebc 772a 8bbb 3149 99bc
000000e0: c9f4 eabb 29e1 dfbc 26b6 cebc a4f4 08bc
000000f0: 881d ecbc 10d6 d73b 810c 79bb 9f07 dc3b
00000100: 1c2c 0f3b 5c9e 52bd f105 ca3b 9643 773b
00000110: 79b9 26bd b2ec da3b 5e66 febc 842e f838
00000120: 057e 5f3b 2b3f ba3b 799e 3dbb e500 073a
00000130: 048d f73a caed 013b a350 d5bb 62bd a1bc
00000140: 9148 c8ba 2aae 1fbd 8e9b 6dbc d8e6 04ba
00000150: 92d8 1fbd 3e08 eb3a c0df 103c b121 5abb
00000160: 73f6 20ba ed62 4d3b 63c5 58bd 303c b7bb
00000170: 547c 14bd 3689 823a 4af4 a93b a571 89bb
00000180: bfaa 7f3b 5932 16ba 30e4 33bd 96f8 26bc
00000190: 325f 00bd 1ef2 6dbc 06d4 583b f206 8d3b
000001a0: c140 4b3b d9cf bcbc 8ab2 8eba 4028 153c
000001b0: 2427 78bd 226c 37bb 5468 74bb f3da 32bd
000001c0: 3bf7 483c 8e13 473b 57a8 9ebb 0a70 ff39
000001d0: 83ca cabb 90c8 b9bb 0217 24bd ccc1 b3bb
000001e0: db8f 2fbb 8d85 21bb 619a 17bd da4e d83b
000001f0: 26b0 243b 1a15 24bd 47d3 77ba 2e74 06bd
00000200: 9ce3 eebb 086e 0cbd 4db3 5cbc 6e4d 62bc
00000210: ed45 54bc f022 fabb ec78 66b8 52cd 263c
00000220: 6b54 a43b 1be9 c33b 39b8 5e3c 09f8 1dbc
00000230: c855 e83b 02ae 3e3a 39d2 25bc 9a6d 653c
00000240: c096 33bd b34d b9bb 786c 3fbd cecb 603c
00000250: b9ae 28bc 00a6 d43c aa1d 5e3b 7028 5ebd
00000260: dc45 55bc ae5b d0bc 8762 a4bc c3c8 a63b
00000270: be46 cfbb 04d9 13bc a7e8 f43b 08e9 023c
00000280: e43f e93b b498 9abc 5a4f 703b d7d4 92bc
00000290: c208 8ebb a50b 5d3c cd00 33bb 7ed2 e9bb
000002a0: 66db ecbc 7493 25bb 1dba 23bb dd4d 643c
000002b0: f204 b5bb 5550 873b 64cb 0e3b d520 4ebd
000002c0: b3fc 933c 2038 8739 98d9 d5bb 7998 003c
000002d0: eb44 80bb be0b e2bc ba1b 2bbc e8d8 63bc
000002e0: 56d5 1d3c 66f5 3bbd 50c6 4dbd 966c d7ba
000002f0: ee22 f7bb 2bcf 873b 01be a43b 28fa 4dbb
00000300: 0299 7ebb 3b1b a93b c0fe 67bd d39d 023b
00000310: c816 863c da22 37bd 07c5 88bb 07f3 febc
00000320: ed67 7bba 62a4 03bd c040 873c 7e40 2a3b
00000330: 4187 4bbd b217 38bd 6388 a43b 73ef 78bc
00000340: fcfb be3a 9d2e a0bb f11f 583b 5156 6f3b
00000350: e2a9 763c 179a 5fbb 4733 3abd 7839 97bb
00000360: 506a efbc 9e2d 803c 0dd5 cc3b 5f45 4b3d
00000370: 8280 163b ffe7 91ba 22ca a23b 9f31 14bc
00000380: 857c 0cbd 43da c2bc fdc2 b23c d7b8 8b3c
00000390: 7025 093c 7d6c a4bb ef49 1dbd 67da d8bb
000003a0: a149 6b3c 1dd1 5f3c 799c e9bc 5c1b a2bb
000003b0: 4b3f d5ba 1cdf c5ba 3efe 1c3b 52c9 3dba
000003c0: 183f abbb f698 b5bc 5e23 58bb af93 3f3c
000003d0: d6c8 633b 05eb 1abc fe8b 08bc 6c19 b43b
000003e0: 31e3 52bd 5b02 3c3c 0a55 d7bb 0c8f 91bb
000003f0: 6bcf 5dbb 69cf 2fba f07d 55bc dba7 893b

network.8.bias f4 [32]
0.0133374175 0.011907526 0.018726952 0.014310002 0.017712032 0.010707466 0.014611758 0.01524505
0.02005352 0.011146144 0.014904608 0.018981416 0.02150964 0.014481016 0.01848989 0.01822778
0.019922454 0.019914554 0.023282066 0.0126635125 0.02052199 0.022165218 0.030550558 0.019029206
0.02105366 0.019019369 0.013064998 0.019148482 0.0215284 0.010489413 0.015756613 0.018524168
00000000: 2f85 5a3c c917 433c 4469 993c 8074 6a3c
00000010: d318 913c 5e6e 2f3c 2866 6f3c 60c6 793c
00000020: 4847 a43c 519e 363c 7532 743c ea7e 9b3c
00000030: fc34 b03c c941 6d3c 1c78 973c 6d52 953c
00000040: 6a34 a33c d923 a33c 08ba be3c 9f7a 4f3c
00000050: bb1d a83c d593 b53c 2a45 fa3c 23e3 9b3c
00000060: ba78 ac3c 82ce 9b3c 930e 563c 47dd 9c3c
00000070: 545c b03c c9db 2b3c 0314 813c ffbf 973c

network.10.weight f4 [32]
0.6986814 0.734629 0.66387916 0.721119 0.70612967 0.6506962 0.61833346 0.73143387
0.67233676 0.58191544 0.6473101 0.7762372 0.6385899 0.6331986 0.74697435 0.71385646
0.6634908 0.7626542 0.70474917 0.7348197 0.7673594 0.67889637 0.6336035 0.75021285
0.71351856 0.7152751 0.608388 0.7557565 0.75546414 0.7230251 0.5538512 0.74140793
00000000: c9dc 323f a510 3c3f fcf3 293f 419b 383f
00000010: eac4 343f 0794 263f 1a4b 1e3f 403f 3b3f
00000020: 431e 2c3f 69f8 143f 1db6 253f 7bb7 463f
00000030: a17a 233f 4e19 223f b639 3f3f 4cbf 363f
00000040: 88da 293f 4e3d 433f 716a 343f 251d 3c3f
00000050: aa71 443f 27cc 2d3f d733 223f f30d 403f
00000060: 27a9 363f 451c 373f 51bf 1b3f 4279 413f
00000070: 1966 413f 2c18 393f 31c9 0d3f e9cc 3d3f

network.10.bias f4 [32]
-0.010515492 0.009720449 0.00743593 -0.052994262 0.0770875 0.07654456 0.097047836 -0.002338546
-0.011815347 0.010632677 -0.004706482 0.01271686 0.054746345 0.09424718 -0.004694577 0.060315583
-0.07030635 0.0010622849 -0.071373686 0.00953448 -0.0048542065 0.010526578 -0.043583333 0.025207002
-0.1148878 -0.067211516 0.028271945 -0.0784024 -0.006711103 -0.022068197 0.032634094 0.0013384945
00000000: 2c49 2cbc 8542 1f3c 1aa9 f33b 8310 59bd
00000010: 0de0 9d3d 65c3 9c3d 04c1 c63d 4b42 19bb
00000020: 2895 41bc ae34 2e3c d538 9abb 605a 503c
00000030: b43d 603d aa04 c13d f7d4 99bb 790d 773d
00000040: c7fc 8fbd 5e3c 8b3a 5e2c 92bd 8236 1c3c
00000050: 0910 9fbb ab77 2c3c 7084 32bd ea7e ce3c
00000060: 4b4a ebbd 31a6 89bd 919a e73c 7091 a0bd
00000070: d0e8 dbbb 5dc8 b4bc 54ab 053d 6c70 af3a

network.10.running_mean f4 [32]
0.012239809 0.011052002 0.015654169 0.013508798 0.0144855715 0.009859509 0.014040553 0.015697598
0.020641483 0.010293849 0.012760568 0.015259435 0.01949145 0.013468855 0.016132245 0.015434076
0.017240148 0.01553402 0.023935802 0.011446134 0.014580989 0.020649021 0.030574355 0.016569695
0.019668782 0.014692006 0.009144893 0.016128993 0.017087005 0.0124578765 0.012771904 0.016359342
00000000: 7b89 483c 7513 353c 2c3d 803c 0154 5d3c
00000010: e454 6d3c c789 213c 590a 663c 4098 803c
00000020: 5418 a93c 88a7 283c b411 513c b602 7a3c
00000030: 89ac 9f3c 79ac 5c3c c527 843c 35df 7c3c
00000040: 363b 8d3c 6782 7e3c 0415 c43c 9188 3b3c
00000050: 1ae5 6e3c 2328 a93c 1277 fa3c 2bbd 873c
00000060: 6d20 a13c bdb6 703c 76d4 153c f320 843c
00000070: 0cfa 8b3c 1f1c 4c3c 3f41 513c 0704 863c

network.10.running_var f4 [32]
0.00024233673 0.00020917301 0.00024114278 0.00026520362 0.00023414413 0.00018204753 0.00021663084 0.00021839883
0.0002990451 0.00018101618 0.0002059549 0.00023419196 0.00028039492 0.00021693936 0.00022775627 0.00024288535
0.0002620756 0.00023165597 0.00036942383 0.00022237957 0.00025649063 0.00027198915 0.00037840387 0.00024572114
0.00034794013 0.00023344594 0.00017483332 0.00025144903 0.0002944343 0.00024275931 0.00015440208 0.0002099865
00000000: c51b 7e39 7455 5b39 46db 7c39 070b 8b39
00000010: 9684 7539 03e4 3e39 6627 6339 fd01 6539
00000020: 27c9 9c39 29cf 3d39 99f5 5739 6d91 7539
00000030: f801 9339 377a 6339 dcd1 6e39 0aaf 7e39
00000040: 3167 8939 ade8 7239 3aaf c139 902e 6939
00000050: 9779 8639 c499 8e39 8264 c639 22d4 8039
00000060: bc6b b639 2bc9 7439 7653 3739 ebd4 8339
00000070: 4e5e 9a39 358d 7e39 fee6 2139 d22f 5c39
