models/mlp_multiclass_crossentropy20250909_175915.pth (torch, 83253 bytes, 21 tensors)

network.0.weight f4 [128, 50]
0.07875309 0.0005086054 -0.05670749 0.0073008514 -0.027816834 -0.04298697 -0.13073064 0.011417512
-0.037171576 -0.007877775 0.06791064 -0.037491783 -0.026784457 0.021902647 0.053778157 -0.0123614315
0.058947872 0.05756088 -0.024252636 0.037873305 0.037153598 0.0061352714 -0.04599812 0.01868407
-0.010626641 -0.043427616 -0.020014882 0.0135542005 -0.025744578 0.0035990681 -0.016263409 -0.027109541
0.03704814 0.043562114 -0.0040906686 -0.028362082 -0.010355666 -0.026035082 0.0338326 0.008389232
-0.1211611 -0.022378623 -0.090541564 -0.1250996 -0.031188445 -0.13162345 -0.010065567 0.020280272
0.00831964 0.014928592 -0.012163387 -0.0073259952 -0.043348204 -0.025163846 -0.06737455 -0.009891746
-0.004787227 -0.03795154 -0.002220151 -0.0039920183 -0.055434648 -0.03366167 -0.049875967 -0.038375307
-0.03990041 0.035584204 -0.0610877 -0.04999264 0.04501048 0.029188009 -0.07547463 -0.0008142171
-0.1046346 0.011576134 -0.01927892 -0.026080428 0.010882881 0.016886327 -0.13701063 -0.015279553
-0.05448133 0.04283324 0.032937083 -0.0437425 -0.08442297 0.025976947 0.053979557 0.009978178
-0.00064031867 0.020798782 -0.011169798 -0.05225246 0.023779018 -0.012390033 0.04256156 -0.15160039
-0.027729506 -0.030727489 -0.03212516 -0.014352014 0.0022478434 -0.0012061043 -0.024088625 -0.027916523
-0.018169759 0.017626839 -0.024653843 -0.019373223 0.022336962 0.0013649134 0.004844122 -0.007704861
-0.015146638 0.009930469 0.02735534 -0.013414525 0.008276948 -0.026583005 0.15212744 0.029176831
-0.0034620864 0.016217636 -0.009935839 -0.04445806 -0.032033924 0.023192357 0.034779888 0.030115677
-0.012486864 0.0033615334 -0.02823426 0.022168932 0.0076424386 0.0099347355 -0.0068806084 0.012282691
-0.016813068 0.05745286 0.027609063 -0.018350707 0.040626504 0.015215266 0.05488973 0.045894932
0.08151924 -0.07332898 -0.025324374 -0.024794908 0.042204496 -0.054585915 -0.11613889 -0.013152076
-0.007432504 -0.017984776 0.008824948 0.00066273357 0.31455016 -0.044158455 0.015621343 -0.01226971
-0.07582968 0.10066852 -0.035458446 -0.017139211 -0.15476885 0.015760073 -0.055062715 -0.028454475
0.0063909516 -0.016301649 0.0055857156 -0.00020019924 0.025073776 0.012667162 -0.02099412 -0.06204549
0.049677722 -0.004692697 0.023366764 0.027414687 -0.0071762614 -0.013200436 -0.09467395 0.034164302
0.01226818 -0.023156222 -0.008803623 0.00057638256 0.101025745 -0.097416356 -0.038912468 0.071144424
-0.04129296 -0.04646142 0.051575057 -0.06713111 -0.020307729 -0.0043570837 -0.03573488 -0.002167482
0.028932724 0.033749506 0.0037240435 -0.055634268 0.051620085 -0.05078621 -0.07872465 -0.011819587
0.019308917 -0.008910244 -0.00072461885 -0.0652956 -0.01866396 -0.0067970343 0.008369258 -0.00316173
-0.029673172 0.028331628 0.11148759 -0.003809082 -0.044542212 0.0042863255 -0.015981246 -0.017767837
0.009986681 0.027920581 0.06987072 0.019691171 -0.037927434 0.028353356 0.0066672135 0.026141759
-0.006732734 -0.06323031 -0.06271684 0.02010154 -0.019821448 0.022313168 -0.038569532 -0.07718768
0.020183545 -0.01159925 0.021386946 0.016902164 -0.05940084 -0.0128900455 -0.007622393 0.033957813
0.015454239 -0.018000694 -0.020655673 -0.019400237 -0.008450274 0.04740259 0.003091804 0.045350507
00000000: 4d49 a13d ee53 053a 1d46 68bd fb3b ef3b
00000010: 21e0 e3bc 1b13 30bd 41de 05be 8410 3b3c
00000020: 3941 18bd c811 01bc bc14 8b3d fc90 19bd
00000030: 146b dbbc 2e6d b33c 7c46 5c3d 9a87 4abc
00000040: 5373 713d f5c4 6b3d 77ad c6bc 0a21 1b3d
00000050: 5f2e 183d 630a c93b 8668 3cbd 560f 993c
00000060: 5d1b 2ebc 28e1 31bd 40f6 a3bc 7012 5e3c
00000070: 4be6 d2bc 58de 6b3b d73a 85bc d414 debc
00000080: cabf 173d 306e 323d 040b 86bb 9957 e8bc
00000090: d0aa 29bc 8647 d5bc 0d94 0a3d fd72 093c
000000a0: 5023 f8bd 6053 b7bc db6d b9bd 1c1a 00be
000000b0: e97e ffbc 4cc8 06be 0cea 24bc d022 a63c
000000c0: 194f 083c 0e97 743c f148 47bc e70e f0bb
000000d0: e38d 31bd 6924 cebc abfb 89bd fd10 22bc
000000e0: 2cde 9cbb 1373 1bbd f47f 11bb 7acf 82bb
000000f0: 710f 63bd d2e0 09bd be4a 4cbd 6d2f 1dbd
00000100: 9d6e 23bd bec0 113d 1937 7abd 15c5 4cbd
00000110: e95c 383d b11b ef3c 7192 9abd 2f71 55ba
00000120: aa4a d6bd d3a9 3d3c d3ee 9dbc 9fa6 d5bc
00000130: 1c4e 323c 3255 8a3c 844c 0cbe 1757 7abc
00000140: d127 5fbd e871 2f3d 09e9 063d 562b 33bd
00000150: f3e5 acbd 9bcd d43c ab19 5d3d 837b 233c
00000160: 0fdb 27ba 3562 aa3c 8701 37bc ad06 56bd
00000170: 37cc c23c 91ff 4abc 0855 2e3d 223d 1bbe
00000180: fd28 e3bc 37b8 fbbc ac95 03bd b624 6bbc
00000190: 8e50 133b 2516 9eba 8255 c5bc 31b1 e4bc
000001a0: bfd8 94bc 2966 903c dbf6 c9bc 98b4 9ebc
000001b0: 01fc b63c e5e6 b23a 71bb 9e3b 0f79 fcbb
000001c0: 9b29 78bc 68b3 223c 4e18 e03c 99c8 5bbc
000001d0: 099c 073c 9ac4 d9bc 4cc7 1b3e 4004 ef3c
000001e0: 2ce4 62bb d9da 843c eec9 22bc a819 36bd
000001f0: 0136 03bd e6fd bd3c 5b75 0e3d 27b5 f63c
00000200: b495 4cbc 2c4d 5c3b 894b e7bc 9f9b b53c
00000210: 6c6d fa3b 4dc5 223c ba76 e1bb 573d 493c
00000220: 8fbb 89bc b153 6b3d 672c e23c 3954 96bc
00000230: fa67 263d 7349 793c 0ed4 603d 53fc 3b3d
00000240: 8ff3 a63d 812d 96bd 1075 cfbc b11e cbbc
00000250: 9fde 2c3d 7b95 5fbd 3ada edbd ce7b 57bc
00000260: 5d8c f3bb cf54 93bc 8496 103c 4cbb 2d3a
00000270: b80c a13e 7fdf 34bd a9f0 7f3c e506 49bc
00000280: 974c 9bbd 4c2b ce3d e03c 11bd 8867 8cbc
00000290: ba7b 1ebe 451b 813c 7189 61bd 5c19 e9bc
000002a0: 306b d13b 098b 85bc 6108 b73b 93ec 51b9
000002b0: 8567 cd3c ee89 4f3c dcfb abbc 6923 7ebd
000002c0: de7a 4b3d 32c5 99bb a86b bf3c c494 e03c
000002d0: d826 ebbb a446 58bc 6ae4 c1bd deef 0b3d
000002e0: 7a00 493c 1eb2 bdbc 123d 10bc 6118 173a
000002f0: 96e6 ce3d 3a82 c7bd ae62 1fbd 2bb4 913d
00000300: cf22 29bd 544e 3ebd 5e40 533d 097c 89bd
00000310: 655c a6bc dec5 8ebb bd5e 12bd 500c 0ebb
00000320: 5204 ed3c ec3c 0a3d 150f 743b c2e0 63bd
00000330: 956f 533d 3305 50bd 643a a1bd f1a6 41bc
00000340: bc2d 9e3c 46fc 11bc 59f4 3dba b3b9 85bd
00000350: 29e5 98bc a8b9 debb 361f 093c 0735 4fbb
00000360: 2715 f3bc bb17 e83c 9b53 e43d cba1 79bb
00000370: e571 36bd 4e74 8c3b 1aeb 82bc db8d 91bc
00000380: 2d9f 233c b4b9 e43c 6118 8f3d 614f a13c
00000390: cc59 1bbd 4c45 e83c a478 da3b 3e27 d63c
000003a0: 449e dcbb e57e 81bd b071 80bd fcab a43c
000003b0: 9760 a2bc 1bca b63c 16fb 1dbd 9314 9ebd
000003c0: f657 a53c c80a 3ebc ad33 af3c 6876 8a3c
000003d0: 4c4e 73bd c530 53bc 44c5 f9bb 5917 0b3d
000003e0: c733 7d3c 3176 93bc 1636 a9bc 3fed 9ebc
000003f0: 0573 0abc 3829 423d dd9f 4a3b 74c1 393d

network.0.bias f4 [128]
-0.114952676 -0.069398254 -0.033708323 -0.10925289 -0.06410421 -0.10026082 -0.17336896 -0.12456587
-0.14175494 -0.093351014 -0.022503983 -0.13931632 -0.15665813 -0.049994756 -0.08024261 -0.15448204
-0.069089524 -0.05000044 -0.23324239 -0.25460434 -0.14644545 -0.17702138 -0.18704928 -0.16591105
-0.12954059 -0.09588091 -0.27163506 -0.033556376 -0.036771562 0.0038321747 -0.10080217 -0.02683437
-0.07672234 -0.052150086 -0.1193681 -0.20175608 -0.10793568 0.00019280378 -0.037391882 -0.16983114
-0.1620721 -0.07940107 -0.08738619 -0.007485 -0.17674838 -0.1938099 -0.07244469 -0.24740908
-0.20221941 -0.12022996 -0.08189681 -0.10454477 -0.12413332 -0.16948481 -0.13956669 -0.14313942
-0.18222779 -0.27127022 -0.4089621 -0.19091587 -0.25082743 -0.11628667 -0.30763683 -0.2036379
-0.089950144 -0.138397 -0.095000915 -0.098432586 -0.086227864 -0.07693001 -0.11968865 -0.0060363887
-0.1470188 -0.15291183 -0.143655 -0.09548739 -0.14037101 -0.21538986 -0.0418742 -0.106820844
-0.23128779 -0.13907108 -0.11865761 -0.12988533 -0.13185734 -0.13246277 -0.1653822 -0.1785558
-0.14001973 -0.14001231 -0.03365804 -0.09188435 -0.1066122 -0.033139564 -0.016618479 -0.08339575
-0.050915938 -0.09053793 -0.032992084 -0.1490969 -0.07914238 -0.028076593 -0.0819843 -0.14382082
-0.094651885 -0.16689572 -0.074387744 -0.060479693 -0.13765381 -0.10057794 -0.11080625 -0.15124337
-0.12902465 -0.02104593 -0.10093155 -0.10340735 -0.01316047 -0.20328774 -0.17490225 -0.09764745
-0.13072726 -0.12167793 -0.093968146 -0.0737521 -0.05607016 -0.059079815 -0.1653487 -0.20348904
00000000: 4f6c ebbd ac20 8ebd bd11 0abd fbbf dfbd
00000010: 1149 83bd 8b55 cdbd a287 31be 641c ffbd
00000020: 3528 11be d12e bfbd 465a b8bc f0a8 0ebe
00000030: fd6a 20be 4dc7 4cbd 3d56 a4bd 8a30 1ebe
00000040: cf7e 8dbd 43cd 4cbd 18d7 6ebe 805b 82be
00000050: ccf5 15be 1845 35be d989 3fbe 96e4 29be
00000060: 4aa6 04be 365d c4bd c013 8bbe 6972 09bd
00000070: c79d 16bd 3925 7b3b 5e71 cebd c1d3 dbbc
00000080: 9a20 9dbd 549b 55bd 4377 f4bd 2599 4ebe
00000090: 620d ddbd 5f2b 4a39 3b28 19bd 37e8 2dbe
000000a0: 3bf6 25be 079d a2bd 88f7 b2bd bb44 f5bb
000000b0: 87fd 34be 1a76 46be e25d 94bd ce58 7dbe
000000c0: 9b12 4fbe 203b f6bd 84b9 a7bd 921b d6bd
000000d0: 9c39 febd 6d8d 2dbe 92ea 0ebe 2493 12be
000000e0: ec99 3abe eee3 8abe 7b63 d1be 737f 43be
000000f0: 746c 80be b527 eebd 9382 9dbe 7486 50be
00000100: c837 b8bd f1b7 0dbe d78f c2bd 0697 c9bd
00000110: 3c98 b0bd 7b8d 9dbd 531f f5bd e6cc c5bb
00000120: 198c 16be eb94 1cbe 4c1a 13be e58e c3bd
00000130: 6bbd 0fbe 298f 5cbe 4884 2bbd e3c4 dabd
00000140: b5d6 6cbe a668 0ebe c302 f3bd a900 05be
00000150: 9c05 07be 52a4 07be f459 29be 55d7 36be
00000160: 5561 0fbe 635f 0fbe 03dd 09bd dd2d bcbd
00000170: 7f57 dabd 5abd 07bd 7a23 88bc 64cb aabd
00000180: 3b8d 50bd f36b b9bd b522 07bd dcac 18be
00000190: 6615 a2bd e200 e6bc 62e7 a7bd c445 13be
000001a0: d9d8 c1bd b6e6 2abe 9a58 98bd 8eb9 77bd
000001b0: 1ff5 0cbe cffb cdbd 63ee e2bd 8bdf 1abe
000001c0: 0a1f 04be 8468 acbc 33b5 cebd 3cc7 d3bd
000001d0: 039f 57bc a92a 50be 9319 33be 63fb c7bd
000001e0: 5edd 05be 4732 f9bd 5f72 c0bd 570b 97bd
000001f0: d3a9 65bd adfd 71bd 2b51 29be 6e5f 50be

network.2.weight f4 [128]
0.1927276 0.1728403 0.112252414 0.19053516 0.16890435 0.16328368 0.19291177 0.18353905
0.13964714 0.16411686 0.12502478 0.17273854 0.20393044 0.13624047 0.16929509 0.175405
0.14284353 0.07416694 0.19751391 0.28942075 0.1562975 0.22277538 0.24849482 0.17631061
0.13316454 0.1760775 0.22073932 0.118314736 0.14585827 0.08659269 0.122882694 0.13803747
0.26296696 0.12741274 0.17728686 0.17894447 0.20498437 0.29897332 0.16515858 0.16179918
0.2091836 0.15804435 0.24914908 0.16744773 0.23153585 0.22073638 0.14282054 0.21438567
0.17751807 0.16620074 0.17476708 0.16999947 0.15853362 0.14546375 0.20618424 0.2444394
0.24152952 0.18843623 0.29161707 0.23121026 0.15405884 0.20438755 0.21305378 0.12555848
0.15747586 0.19404821 0.18134515 0.24532095 0.20622972 0.10902804 0.17122385 0.13213463
0.17548941 0.1288204 0.15745062 0.16525792 0.2373159 0.22047013 0.14735979 0.1772687
0.19255358 0.16825715 0.14137243 0.1619563 0.1565714 0.14173639 0.19418539 0.1697369
0.24829409 0.16631146 0.16158485 0.12124114 0.15669312 0.15807019 0.119681396 0.15914012
0.07581086 0.23004441 0.15220016 0.13668746 0.12970541 0.14962354 0.114711516 0.24089724
0.1896952 0.12850022 0.20363785 0.13828774 0.24211793 0.14906019 0.1854225 0.098484896
0.16933283 0.1468784 0.17949542 0.145969 0.10739155 0.23700298 0.22502935 0.13328162
0.17421922 0.13329053 0.14511943 0.13638605 0.14716354 0.15841301 0.20572683 0.20319667
00000000: 625a 453e 0cfd 303e 98e4 e53d a61b 433e
00000010: 43f5 2c3e d633 273e aa8a 453e a9f1 3b3e
00000020: a9ff 0e3e 400e 283e 7f06 003e 5fe2 303e
00000030: 24d3 503e 9f82 0b3e b15b 2d3e 5e9d 333e
00000040: 9345 123e d6e4 973d 1641 4a3e f52e 943e
00000050: 740c 203e 3b1f 643e 6d75 7e3e c58a 343e
00000060: 495c 083e a94d 343e 7d09 623e ff4e f23d
00000070: df5b 153e 8257 b13d eca9 fb3d b259 0d3e
00000080: 9ba3 863e 7c78 023e b08a 353e 383d 373e
00000090: 6ce7 513e 0813 993e 551f 293e afae 253e
000000a0: 3a34 563e 61d6 213e f020 7f3e 6b77 2b3e
000000b0: bc17 6d3e b808 623e 8c3f 123e eb87 5b3e
000000c0: 4cc7 353e 8730 2a3e 24f6 323e 5714 2e3e
000000d0: a356 223e 73f4 143e f621 533e 524e 7a3e
000000e0: 8453 773e 6df5 403e d54e 953e 62c2 6c3e
000000f0: 9ac1 1d3e f84a 513e c52a 5a3e 6792 003e
00000100: 5a41 213e 93b4 463e 8bb2 393e 6a35 7b3e
00000110: e22d 533e 184a df3d 4e55 2f3e 4d4e 073e
00000120: 7fb3 333e 7fe9 033e bc3a 213e 5f39 293e
00000130: f002 733e ecc2 613e 7ce5 163e ed85 353e
00000140: c42c 453e 9a4b 2c3e efc3 103e dfd7 253e
00000150: 4154 203e 5823 113e 89d8 463e 83cf 2d3e
00000160: ce40 7e3e 8d4d 2a3e 8076 253e 464d f83d
00000170: 2974 203e 27dd 213e 851b f53d a1f5 223e
00000180: b942 9b3d c390 6b3e 5cda 1b3e ccf7 0b3e
00000190: 7fd1 043e ea36 193e dfed ea3d c4ad 763e
000001a0: 753f 423e 9095 033e 7186 503e 4d9b 0d3e
000001b0: c3ed 773e 3ca3 183e 65df 3d3e 73b2 c93d
000001c0: 9665 2d3e 4b67 163e a6cd 373e e678 153e
000001d0: 1af0 db3d e9b0 723e 186e 663e fa7a 083e
000001e0: 8666 323e 507d 083e 309a 143e c9a8 0b3e
000001f0: 0ab2 163e 0537 223e 0eaa 523e ca12 503e

network.2.bias f4 [128]
0.017417153 0.0059719686 -0.008861702 0.033814177 0.048426304 -0.013146901 0.04665226 0.005434104
0.026301254 0.007330871 0.007945614 -0.0040168995 0.025373138 0.014841302 0.013382849 0.038511388
0.03730958 0.0043256916 -0.012861827 0.06151663 0.024948386 0.035088405 0.092156745 0.03184078
-0.041538946 0.023046924 0.0106194625 0.028596997 0.03939584 -0.0040418752 0.01828001 -0.0017232313
0.14419603 0.04943048 0.024816372 -0.0042229933 0.038735803 0.18837011 0.052170727 0.002715685
0.00811754 0.0064553604 0.05634881 0.016767856 0.0564742 0.048600346 0.0022918554 0.034034338
-0.0045355866 0.014358403 0.014414691 0.03262055 0.028223513 0.014395029 0.03732777 0.0732626
0.07289494 -0.029972201 0.025013072 0.044119254 -0.011385746 0.031020112 -0.0114375595 0.021909794
0.019202175 0.014603206 0.05946932 0.08823569 0.0816725 -0.006788592 0.046799418 0.039717212
0.039633755 0.0027096493 0.040469315 0.031783246 0.016446702 0.022776559 0.01489292 0.029069023
0.008245032 0.03610908 -0.0036293229 0.0034033563 -0.01644323 0.013272453 0.04995576 0.037091248
0.062611416 0.010957755 -0.0009831777 0.0068142815 0.036961783 -0.0127943475 0.018944357 0.04626331
0.012386877 0.045841794 0.065231495 0.025434876 0.014565683 0.037139207 0.02801046 0.104626186
0.045743186 0.0059939837 0.020536682 -0.014453576 0.022499507 0.0119979605 0.025672447 -0.0065692477
0.02730935 0.025072666 0.0069430647 0.0010575386 0.013544685 0.05313454 -0.009175553 0.018745545
-0.005235025 0.024811003 0.019681586 0.02219025 0.026696576 0.030492747 0.032837793 0.020787276
00000000: 6bae 8e3c 81b0 c33b ac30 11bc bc80 0a3d
00000010: a95a 463d 1966 57bc 7116 3f3d 9110 b23b
00000020: ba75 d73c ce37 f03b 522e 023c 32a0 83bb
00000030: 54db cf3c ef28 733c bd43 5b3c 1ebe 1d3d
00000040: eed1 183d 88be 8d3b 6aba 52bc ddf8 7b3d
00000050: 8f60 cc3c dcb8 0f3d adbc bc3d 7a6b 023d
00000060: be24 2abd e7cc bc3c 41fd 2d3c 4044 ea3c
00000070: 885d 213d b571 84bb f6bf 953c 0cde e1ba
00000080: 20a8 133e 9d77 4a3d b44b cb3c 0961 8abb
00000090: 6fa9 1e3d 18e4 403e f9b0 553d a2f9 313b
000000a0: 6eff 043c 7d87 d33b 03ce 663d be5c 893c
000000b0: 7e51 673d 2811 473d f432 163b 9767 0b3d
000000c0: 429f 94bb 823f 6b3c 992b 6c3c 209d 053d
000000d0: ff34 e73c 21d9 6b3c 01e5 183d b40a 963d
000000e0: f149 953d 4388 f5bc 37e8 cc3c 64b6 343d
000000f0: 488b 3abc e41d fe3c 9a64 3bbc 2b7c b33c
00000100: e14d 9d3c 4942 6f3c 1a96 733d eab4 b43d
00000110: e943 a73d d672 debb bfb0 3f3d 84ae 223d
00000120: 0157 223d 5f94 313b 27c3 253d 262f 023d
00000130: 3cbb 863c e895 ba3c 6f01 743c 2922 ee3c
00000140: 2c16 073c 1de7 133d efd9 6dbb d80a 5f3b
00000150: f4b3 86bc b474 593c 699e 4c3d feec 173d
00000160: 6a3a 803d 2888 333c f8dd 80ba 564a df3b
00000170: 3d65 173d 629f 51bc 3231 9b3c 997e 3d3d
00000180: 54f2 4a3c 9bc4 3b3d 1798 853d cd5c d03c
00000190: e7a4 6e3c 481f 183d 3176 e53c 4146 d63d
000001a0: 355d 3b3d 2e69 c43b 8b3c a83c b1ce 6cbc
000001b0: e350 b83c 1893 443c 064f d23c d842 d7bb
000001c0: dcb7 df3c 3165 cd3c a682 e33b 1b9d 8a3a
000001d0: 87ea 5d3c 9aa3 593d 0f55 16bc 4290 993c
000001e0: 938a abbb 7240 cb3c 473b a13c 54c8 b53c
000001f0: c7b2 da3c edcb f93c ec80 063d 144a aa3c

network.2.running_mean f4 [128]
0.0747604 0.067868784 0.07998267 0.047453444 0.07048868 0.08649324 0.039524168 0.050276034
0.057934634 0.06425604 0.08177639 0.032596122 0.05413708 0.060320966 0.0675261 0.03489934
0.0734298 0.062102493 0.035641838 0.09669008 0.026395509 0.05237207 0.060157675 0.051361263
0.029616099 0.07259376 0.0036176606 0.068876 0.0976908 0.091437906 0.044646382 0.090129845
0.0915484 0.06911506 0.05861077 0.017673554 0.040593185 0.14871712 0.0643894 0.042661525
0.020143108 0.09213712 0.14736064 0.102551445 0.043192495 0.026172617 0.049689826 0.033225548
0.046471488 0.06281335 0.09757992 0.028051807 0.04598239 0.021704698 0.07455167 0.0897085
0.048272092 0.0067897374 0.020772232 0.049607765 0.026981074 0.062895775 0.04300974 0.019061156
0.053787842 0.08432322 0.058563918 0.087884925 0.10615969 0.05173883 0.08200259 0.09516315
0.045775823 0.03736585 0.041632667 0.047176663 0.043020204 0.07323655 0.08162239 0.07108028
0.03448852 0.039610133 0.038741317 0.077621244 0.027138047 0.050667502 0.03537372 0.04612706
0.11243144 0.03307215 0.09882386 0.028786406 0.035205837 0.0835489 0.0766244 0.0451766
0.040510096 0.067261934 0.063501224 0.029899964 0.042504676 0.0856469 0.034612767 0.07480338
0.06065497 0.013052225 0.0996733 0.060684856 0.03175018 0.05226464 0.029822767 0.028787855
0.041786008 0.10838501 0.054613788 0.049151856 0.090614036 0.059538327 0.02780164 0.037610278
0.048348248 0.020313405 0.050956782 0.06766179 0.07672505 0.09504677 0.038240157 0.03465437
00000000: fb1b 993d cafe 8a3d f4cd a33d 8b5e 423d
00000010: 5e5c 903d 5e23 b13d 18e4 213d 3eee 4d3d
00000020: de4c 6d3d ac98 833d 617a a73d 8383 053d
00000030: d8be 5d3d 1e13 773d 204b 8a3d 9cf2 0e3d
00000040: 5d62 963d 2f5f 7e3d 2dfd 113d 7305 c63d
00000050: 653b d83c 1884 563d e567 763d 3060 523d
00000060: 769d f23c 0aac 943d 4616 6d3b dc0e 8d3d
00000070: 1d12 c83d cc43 bb3d 20df 363d ff95 b83d
00000080: ba7d bb3d 328c 8d3d d911 703d 21c8 903c
00000090: 0a45 263d 4d49 183e 97de 833d dabd 2e3d
000000a0: 2903 a53c 63b2 bc3d b5e5 163e 7e06 d23d
000000b0: 9dea 303d f567 d63c 8f87 4b3d 8317 083d
000000c0: e358 3e3d 49a4 803d fbd7 c73d e7cc e53c
000000d0: 0858 3c3d 0dce b13c 8cae 983d 17b9 b73d
000000e0: f5b8 453d 727c de3b 872a aa3c 8331 4b3d
000000f0: 6a07 dd3c 80cf 803d fb2a 303d 2426 9c3c
00000100: a450 5c3d a7b1 ac3d b8e0 6f3d 03fd b33d
00000110: 406a d93d 18ec 533d f9f0 a73d e6e4 c23d
00000120: 6e7f 3b3d ef0c 193d 0487 2a3d 513c 413d
00000130: f435 303d 0bfd 953d a429 a73d 8a92 913d
00000140: d643 0d3d 3c3e 223d 37af 1e3d e3f7 9e3d
00000150: 9c50 de3c ba88 4f3d 09e4 103d baef 3c3d
00000160: 7442 e63d aa76 073d 2a64 ca3d 78d1 eb3c
00000170: ff33 103d b01b ab3d 41ed 9c3d 190b 393d
00000180: eaed 253d a0c0 893d ee0c 823d c5f0 f43c
00000190: 6219 2e3d a467 af3d 1ec6 0d3d 8432 993d
000001a0: 5971 783d 00d9 553c 8421 cc3d af90 783d
000001b0: 7a0c 023d 7213 563d e04e f43c 82d4 eb3c
000001c0: ce27 2b3d f6f8 dd3d b5b2 5f3d 7553 493d
000001d0: da93 b93d 76de 733d 44c0 e33c 3c0d 1a3d
000001e0: d008 463d 4c68 a63c 0fb8 503d 4492 8a3d
000001f0: 0622 9d3d e2a7 c23d b6a1 1c3d bef1 0d3d

network.2.running_var f4 [128]
0.28731045 0.006537644 0.02410547 0.00700217 0.05543143 0.020075131 0.006577356 0.007239731
0.028824449 0.050091602 0.022743315 0.004554458 0.010329473 0.00992856 0.013800587 0.021655811
0.106327936 0.011024225 0.005370041 0.17267255 0.005613954 0.022765268 0.010078746 0.10124244
0.0043017417 0.046772085 0.00055446266 0.015815355 0.0148040755 0.013971699 0.009262674 0.012363281
0.020592878 0.0118293995 0.016476834 0.0024241835 0.008370872 0.040705953 0.022360679 0.006716765
0.023537232 0.018396081 0.19146083 0.038583018 0.008849431 0.0040886556 0.048807267 0.060140584
0.08064544 0.026650455 0.012317618 0.0072528403 0.006763057 0.0038424844 0.02153957 0.033746574
0.0070468783 0.00057200436 0.0027222289 0.01666798 1.0604811 0.520885 0.029286796 0.0036698922
0.009127572 0.07161941 0.016006732 0.017027272 0.016937647 0.009910599 0.013968419 0.046126753
0.008070679 0.007510402 0.00857686 0.03977265 0.0073097176 0.030412422 0.017323447 0.017497642
0.0069680708 0.17738992 0.00702581 0.3047769 0.0032589687 0.0069678887 0.029202843 0.0059477375
0.08290995 0.008131979 0.014136942 0.011623858 0.006050079 0.029740855 0.013788828 0.016790494
0.009058136 0.3009125 0.017262165 0.00766543 0.025737919 0.0152348885 0.0071328306 0.012630705
0.010367583 0.0043350006 0.03884396 0.33136633 0.006700473 0.008085637 0.0055402643 0.006073328
0.011057887 0.034028064 0.009713641 0.010257037 0.016688779 0.022423722 0.0034606731 0.0047567342
0.014190354 0.004058011 0.0046986896 0.019932617 0.04918294 0.013106513 0.008129661 0.008703428
00000000: 5b1a 933e bc39 d63b d678 c53c 7672 e53b
00000010: 110c 633d 9a74 a43c dc86 d73b 443b ed3b
00000020: 4021 ec3c da2c 4d3d 3050 ba3c 903d 953b
00000030: f33c 293c 66ab 223c db1b 623c 8767 b13c
00000040: 76c2 d93d f39e 343c 2bf7 af3b 13d1 303e
00000050: 42f5 b73b 3a7e ba3c 5321 253c 3258 cf3d
00000060: a0f5 8c3b 1694 3f3d 5c59 113a 348f 813c
00000070: cb8c 723c 8ee9 643c 78c2 173c 5c8f 4a3c
00000080: 65b2 a83c 19d0 413c 6dfa 863c 0ddf 1e3b
00000090: fb25 093c 49bb 263d be2d b73c 4f18 dc3b
000000a0: 27d1 c03c 61b3 963c 4f0e 443e 3a09 1e3d
000000b0: 34fd 103c 21fa 853b 21ea 473d f955 763d
000000c0: 7029 a53d 0e52 da3c d6cf 493c 3ca9 ed3b
000000d0: a29c dd3b 31d2 7b3b c173 b03c d939 0a3d
000000e0: 80e9 e63b 90f2 153a 6c67 323b 4a8b 883c
000000f0: d8bd 873f b858 053f ddea ef3c 9382 703b
00000100: d08b 153c 32ad 923d 8d20 833c c77c 8b3c
00000110: d2c0 8a3c 1160 223c ccdb 643c 68ef 3c3d
00000120: e23a 043c d119 f63b f585 0c3c a5e8 223d
00000130: 5b86 ef3b 7923 f93c e7e9 8d3c 3757 8f3c
00000140: 6a54 e43b b4a5 353e c438 e63b b80b 9c3e
00000150: 6c94 553b e352 e43b cd3a ef3c 3de5 c23b
00000160: b1cc a93d fe3b 053c a29e 673c fe71 3e3c
00000170: be3f c63b 18a3 f33c 89ea 613c 388c 893c
00000180: 9368 143c 3411 9a3e 6269 8d3c 4a2e fb3b
00000190: 54d8 d23c c19b 793c 85ba e93b 04f1 4e3c
000001a0: cbdc 293c 9f0c 8e3b d81a 1f3d d9a8 a93e
000001b0: a48f db3b 9f79 043c 1b8b b53b c502 c73b
000001c0: 242c 353c 0361 0b3d f725 1f3c 220d 283c
000001d0: e8b6 883c f4b1 b73c 76cc 623b 61de 9b3b
000001e0: a97e 683c 10f9 843b 77f7 993b ba49 a33c
000001f0: 0d74 493d b3bc 563c 4532 053c d398 0e3c

network.4.weight f4 [64, 128]
-0.055393003 0.03540078 0.024059 0.043162394 -0.007889413 -0.07520284 -0.0007693516 -0.15293692
-0.016583774 0.023055125 0.033598036 -0.027842676 0.024682665 -0.0149100395 -0.039140016 0.014659643
0.05011794 0.05662163 -0.058651075 -0.0072444603 -0.020562228 0.04997518 -0.019721463 0.030522827
0.029301906 -0.04766572 0.0781235 0.01346887 -0.008626265 0.000189837 -0.011993267 -0.011069979
-0.04908888 -0.00051119155 0.004049975 -0.0965106 -0.021260617 -0.01806357 -0.022488784 0.033501595
-0.00422505 -0.044374365 0.0036354437 0.0121074105 -0.038314994 -0.00078576425 -0.011770625 0.0077868365
0.049537793 0.03562387 0.022162275 -0.0026548635 -0.027837288 0.0002974749 0.044623468 -0.004714824
0.026456907 -0.06468356 0.0037798483 0.06940074 0.007016336 0.022053467 0.019057607 -0.0053478912
0.066133335 0.030870626 -0.01556099 0.0050214548 -0.05105921 -0.011974905 0.036937915 0.00079921796
0.01765233 -0.07503019 0.0117999595 0.021686614 -0.078677654 0.009434426 -0.029278303 0.0020624548
-0.06872872 -0.016267246 -0.06771711 0.06508839 0.0045486237 -0.014712141 -0.09608118 -0.007860932
-0.015901744 0.037378572 -0.037688397 0.005554071 -0.071432225 -0.051775247 -0.01948618 -0.02417885
-0.012741534 -0.041372865 0.018172543 0.025243195 0.027794091 0.007949707 0.03183783 0.0013804126
0.04400852 0.01817828 -0.0010727376 0.0135170035 -0.048421513 -0.029604571 0.021986675 -0.008893855
0.003565648 -0.03204296 -0.021758853 0.05761798 -0.006784912 -0.037437104 0.00054123125 -0.010199773
0.034388453 0.063108824 0.009302263 -0.009336452 -0.033879656 0.0323577 -0.044095676 0.077875674
0.014234607 0.03709551 0.023571096 -0.08720198 -0.023194501 0.006279635 -0.01200462 0.022621142
-0.047184046 0.032661613 -0.027569301 0.051394884 0.03600043 -0.028633937 0.04911728 -0.0128806215
-0.06951485 -0.0035800803 -0.011905019 -0.015233379 -0.030902194 -0.11664618 -0.013592348 -0.08854644
-0.028123606 -0.054091897 -0.027213963 -0.043191403 -0.019179503 -0.009073009 -0.04644974 -0.005917049
-0.0019059387 -0.0062980494 -0.13789377 0.04294238 -0.048400242 0.0074813203 -0.10065923 0.026309777
-0.018997183 -0.0021747018 0.029351166 -0.035763513 0.014216348 -0.052654054 0.012083069 -0.011846288
-0.04373697 0.0060082823 0.042461548 -0.02152208 -0.042969577 0.032453086 -0.12135958 -0.022788515
-0.0142193865 -0.024622856 -0.045234773 0.009200775 -0.07724928 -0.062497985 -0.0069291997 -0.024051465
-0.05101849 -0.022987785 -0.018642806 -0.008787699 -0.03682031 -0.00261634 0.03378602 -0.004659112
0.014482904 -0.00019663782 -0.04194365 -0.017233964 0.008430844 -0.0051853065 0.030874582 -0.09202756
0.019378342 -0.007889335 -0.053644553 -0.018307667 -0.011222785 -0.10688283 0.005678459 -0.000923735
-0.009075135 -0.027831439 0.050111327 0.016875144 0.017355634 0.035403818 -0.034702394 -0.017125698
-0.0073961616 -0.014973482 -0.021867575 0.06239671 0.035739653 0.007904703 0.040531743 0.0317981
-0.020674849 -0.03410303 0.009579797 0.006688815 0.0144839 -0.011351072 0.022836935 0.03099572
-0.015335607 -0.019593652 0.008976131 0.02697649 0.0114726545 -0.024828292 -0.01596487 0.079125315
0.008052917 -0.003666477 -0.043832824 -0.005918286 -0.060823344 -0.040405627 -0.030151198 -0.10300184
00000000: c6e3 62bd 6900 113d 6117 c53c 0dcb 303d
00000010: 9942 01bc f203 9abd 50ae 49ba 7f9b 1cbe
00000020: b2da 87bc 1ade bc3c 189e 093d 5316 e4bc
00000030: 4d33 ca3c 3d49 74bc 4851 20bd 002f 703c
00000040: 7848 4d3d 15ec 673d 1c3c 70bd f062 edbb
00000050: 1e72 a8bc c6b2 4c3d e88e a1bc 020b fa3c
00000060: 8d0a f03c 213d 43bd 37ff 9f3d 89ac 5c3c
00000070: 2e55 0dbc fb0e 4739 687f 44bc db5e 35bc
00000080: 6c11 49bd 7c01 06ba a7b5 843b 59a7 c5bd
00000090: bf2a aebc 0dfa 93bc 663a b8bc f838 093d
000000a0: 4a72 8abb e5c1 35bd a040 6e3b 295e 463c
000000b0: 2ff0 1cbd bffb 4dba 94d9 40bc b828 ff3b
000000c0: 24e8 4a3d 56ea 113d a98d b53c 38fd 2dbb
000000d0: 060b e4bc 68f6 9b39 19c7 363d cf7e 9abb
000000e0: 28bc d83c d078 84bd 55b7 773b fa21 8e3d
000000f0: 4be9 e53b 79a9 b43c b31e 9c3c 5d3d afbb
00000100: ea70 873d 65e4 fc3c 86f3 7ebc 048b a43b
00000110: 7623 51bd 6432 44bc 364c 173d 9c82 513a
00000120: 9f9b 903c 6ea9 99bd 9e54 413c 20a8 b13c
00000130: c021 a1bd da92 1a3c 0dd9 efbc 402a 073b
00000140: a5c1 8cbd e342 85bc 45af 8abd 104d 853d
00000150: 9f0c 953b 310b 71bc 36c6 c4bd 23cb 00bc
00000160: 6044 82bc 461a 193d 265f 1abd edfe b53b
00000170: 0f4b 92bd 4812 54bd 7ba1 9fbc b912 c6bc
00000180: dec1 50bc 9876 29bd 96de 943c d1ca ce3c
00000190: 6fb0 e33c 7d3f 023c 6268 023d f6ee b43a
000001a0: 4742 343d 9eea 943c 1a9b 8cba 6c76 5d3c
000001b0: a355 46bd 4985 f2bc 661d b43c 88b7 11bc
000001c0: a6ad 693b 7b3f 03bd 9f3f b2bc d500 6c3d
000001d0: f853 debb a657 19bd 6ae1 0d3a f31c 27bc
000001e0: e8da 0c3d 333f 813d 8568 183c ebf7 18bc
000001f0: 65c5 0abd 8289 043d ab9d 34bd 487d 9f3d
00000200: 4538 693c 76f1 173d 2c18 c13c f496 b2bd
00000210: 6502 bebc 65c5 cd3b 07af 44bc f94f b93c
00000220: 0f44 41bd 2fc8 053d 04d9 e1bc 7183 523d
00000230: 3075 133d b891 eabc 332f 493d 3e09 53bc
00000240: cd5d 8ebd c89f 6abb 450d 43bc 6c95 79bc
00000250: 9926 fdbc 31e4 eebd 71b2 5ebc d657 b5bd
00000260: 7a63 e6bc 778f 5dbd d1ef debc 78e9 30bd
00000270: 551e 9dbc f5a6 14bc 1542 3ebd cee3 c1bb
00000280: b1d0 f9ba de5f cebb 0634 0dbe 59e4 2f3d
00000290: 553f 46bd dd25 f53b 6d26 cebd 9a87 d73c
000002a0: fb9f 9bbc 7185 0ebb db71 f03c c37c 12bd
000002b0: afeb 683c c7ab 57bd 11f8 453c ef16 42bc
000002c0: 8925 33bd 20e1 c43b 29ec 2d3d 134f b0bc
000002d0: de00 30bd 87ed 043d 5f8b f8bd fbae babc
000002e0: 6ef8 68bc dfb5 c9bc 1948 39bd d9be 163c
000002f0: df34 9ebd e3fd 7fbd 570e e3bb 9407 c5bc
00000300: c4f8 50bd e150 bcbc ccb8 98bc 48fa 0fbc
00000310: e5d0 16bd e776 2bbb 3663 0a3d 77ab 98bb
00000320: b449 6d3c 9030 4eb9 1bcd 2bbd 3e2e 8dbc
00000330: 8621 0a3c 81e9 a9bb b1ec fc3c f278 bcbd
00000340: 54bf 9e3c 4542 01bc 64ba 5bbd f6f9 95bc
00000350: c6df 37bc 63e5 dabd 5e12 ba3b ce26 72ba
00000360: e0af 14bc c2fe e3bc 8941 4d3d be3d 8a3c
00000370: 672d 8e3c 9803 113d 1924 0ebd 314b 8cbc
00000380: 805b f2bb 5653 75bc a123 b3bc b193 7f3d
00000390: be63 123d ba82 013c 9d04 263d b93e 023d
000003a0: 4d5e a9bc 9eaf 0bbd 95f4 1c3c d92d db3b
000003b0: e14d 6d3c d9f9 39bc 8614 bb3c bcea fd3c
000003c0: 3342 7bbc de82 a0bc 9f10 133c cdfd dc3c
000003d0: cdf7 3b3c b464 cbbc c2c8 82bc 740c a23d
000003e0: 62f0 033c 4749 70bb 0c8a 33bd 2eee c1bb
000003f0: e621 79bd 5f80 25bd a5ff f6bc a1f2 d2bd

network.4.bias f4 [64]
-0.062013417 -0.029355165 -0.03713072 -0.002638524 -0.051120784 -0.029266067 -0.0140397735 -0.023359071
-0.06656508 0.019019468 0.039463684 -0.16994977 0.03760789 -0.06074784 0.008898 -0.044631317
0.03868911 -0.04613213 -0.023310358 -0.01060197 0.0013120868 -0.01463911 -0.0075528016 -0.040873513
0.002063037 0.057231076 -0.08146416 0.046167206 -0.051806293 -0.06919714 -0.010264008 0.014189005
-0.04387738 -0.051305015 -0.0013911838 0.019496143 0.0043293573 -0.0067774286 -0.015227368 -0.102240786
-0.013523204 0.015017166 -0.016518204 -0.024197262 0.017388346 -0.05352952 -0.0797905 -0.018898567
-0.012365207 -0.010404467 -0.043826915 -0.021067802 -0.021208787 -0.0174655 0.0125258975 0.010691277
-0.0047352146 0.008516361 -0.0022477726 -0.053487573 -0.04304902 -0.04038079 0.026913796 0.009711645
00000000: c801 7ebd 3e7a f0bc 6216 18bd 16eb 2cbb
00000010: 0764 51bd 64bf efbc 1407 66bc 865b bfbc
00000020: 4653 88bd b7ce 9b3c aca4 213d 5007 2ebe
00000030: bb0a 1a3d bad2 78bd ebc8 113c 54cf 36bd
00000040: 7978 1e3d 0bf5 3cbd 5df5 bebc e3b3 2dbc
00000050: 54fa ab3a e1d8 6fbc 7e7d f7bb fc6a 27bd
00000060: 0434 073b 226b 6a3d aed6 a6bd d319 3d3d
00000070: d632 54bd 3bb7 8dbd 5f2a 28bc 0079 683c
00000080: c5b8 33bd 3525 52bd 6258 b6ba 60b6 9f3c
00000090: 48dd 8d3b 3115 debb 367c 79bc 9e63 d1bd
000000a0: 6e90 5dbc 8f0a 763c 2f51 87bc 5639 c6bc
000000b0: 0172 8e3c c541 5bbd 3469 a3bd 2bd1 9abc
000000c0: 7097 4abc 7f77 2abc da83 33bd 6296 acbc
000000d0: 0dbe adbc cf13 8fbc 6c39 4d3c 772a 2f3c
000000e0: dc29 9bbb 3588 0b3c 5e4f 13bb c915 5bbd
000000f0: 2b54 30bd 5466 25bd 527a dc3c 971d 1f3c

network.6.weight f4 [64]
0.19700605 0.1980864 0.21454261 0.21227375 0.2412105 0.20949036 0.1750052 0.1920189
0.18597877 0.14966147 0.22619335 0.18782327 0.15925747 0.1836407 0.17767887 0.23434655
0.16775022 0.19492304 0.225657 0.20482801 0.18823335 0.1660296 0.17673923 0.21593507
0.21376745 0.17134304 0.19514632 0.18630187 0.18565214 0.18454781 0.23233749 0.20360112
0.18624638 0.16499661 0.17744453 0.20571187 0.15000215 0.22175264 0.16361696 0.21410649
0.20451328 0.16715899 0.2511962 0.23432614 0.198298 0.17051323 0.21989767 0.18618308
0.2217285 0.19353011 0.19724469 0.205715 0.19468705 0.1704331 0.17306896 0.20110567
0.20937635 0.19096096 0.2322209 0.19051419 0.20268765 0.20600931 0.1849499 0.17380564
00000000: f4bb 493e 29d7 4a3e 0fb1 5b3e 4a5e 593e
00000010: e3ff 763e a484 563e 9034 333e 9aa0 443e
00000020: 3871 3e3e db40 193e 3b9f 673e be54 403e
00000030: 6414 233e 4f0c 3c3e 73f1 353e 8bf8 6f3e
00000040: b7c6 2b3e e899 473e a112 673e 6fbe 513e
00000050: 3ec0 403e aa03 2a3e 21fb 343e 151e 5d3e
00000060: dbe5 5a3e 8d74 2f3e 70d4 473e ebc5 3e3e
00000070: 981b 3e3e 1afa 3c3e e1e9 6d3e d07c 503e
00000080: 5fb7 3e3e dff4 283e 05b4 353e 22a6 523e
00000090: 2a9a 193e 2013 633e 348b 273e bb3e 5b3e
000000a0: ee6b 513e ba2b 2b3e ca9c 803e 31f3 6f3e
000000b0: a20e 4b3e 059b 2e3e db2c 613e c7a6 3e3e
000000c0: cc0c 633e c22c 463e 83fa 493e f4a6 523e
000000d0: 0b5c 473e 0486 2e3e fd38 313e a5ee 4d3e
000000e0: c166 563e 458b 433e 51cb 6d3e 2716 433e
000000f0: 5a8d 4f3e 1bf4 523e 8263 3d3e 1bfa 313e

network.6.bias f4 [64]
0.032224037 0.01976401 -0.008150526 0.038445868 0.013115094 0.01372395 -0.0076387897 0.055311453
0.01670442 0.049503606 0.029250963 -0.00087688025 0.009328778 0.03595807 0.044804204 0.02742102
0.012293859 0.037306838 -0.007071611 0.055824306 0.05474381 0.010875588 0.040089674 0.0143475225
0.020011563 -0.00016720228 0.024281 0.01208782 0.049571637 0.0121643795 0.035946075 0.043400776
0.028485468 -0.002830676 0.0299033 0.061974123 0.03213789 -0.008015267 0.042200424 0.010725456
0.012079038 0.013686268 0.003073585 0.061057776 0.03016314 0.021564264 0.036086373 0.018609313
0.029003786 -0.0027607456 0.06912418 0.034755364 0.029349506 0.013096777 0.019970044 0.019387124
0.0066317185 0.046133548 0.04369207 0.009796001 0.077936135 0.0035328877 0.020664845 0.024185263
00000000: 5afd 033d 22e8 a13c c989 05bc 6a79 1d3d
00000010: b1e0 563c 6bda 603c d04e fabb 438e 623d
00000020: b5d7 883c 4bc4 4a3d b79f ef3c 70de 65ba
00000030: bbd7 183c c548 133d 9d84 373d 0ca2 e03c
00000040: 2f6c 493c 0ecf 183d f9b8 e7bb 07a8 643d
00000050: 0c3b 603d 862f 323c 1235 243d df11 6b3c
00000060: 4aef a33c 0553 2fb9 f3e8 c63c fe0b 463c
00000070: a10b 4b3d 1b4d 473c 313c 133d 03c5 313d
00000080: 5b5a e93c dd82 39bb c4f7 f43c 94d8 7d3d
00000090: 05a3 033d 7752 03bc 5ada 2c3d d3b9 2f3c
000000a0: 28e7 453c 5e3c 603c 336e 493b b817 7a3d
000000b0: b018 f73c 8aa7 b03c 4ecf 133d 8f72 983c
000000c0: 5999 ed3c a0ed 34bb fa90 8d3d a45b 0e3d
000000d0: 606e f03c dd93 563c 3898 a33c bfd1 9e3c
000000e0: e34e d93b 88f6 3c3d 75f6 323d 687f 203c
000000f0: fb9c 9f3d 0588 673b 5249 a93c 2c20 c63c

network.6.running_mean f4 [64]
0.019567743 0.017746687 0.018264052 0.047295522 0.03008232 0.042331353 0.031714845 0.029280046
0.009691588 0.06251384 0.06867811 0.016710807 0.059702087 0.020503795 0.05558566 0.0149827115
0.045090247 0.01970879 0.03518296 0.059819512 0.041972242 0.04017305 0.04723451 0.03437973
0.03034163 0.09703558 0.017682195 0.05900058 0.042557295 0.027634904 0.022981891 0.04652771
0.035565313 0.02295714 0.04391288 0.04245639 0.029588751 0.04645787 0.03266127 0.043637495
0.041186724 0.03655451 0.019566072 0.030617706 0.029379215 0.03256211 0.014178512 0.03611072
0.027573245 0.04167584 0.040243994 0.06887814 0.028897507 0.036124248 0.043753635 0.040914923
0.03466965 0.032491796 0.051392842 0.021184474 0.027566602 0.045506276 0.06926538 0.03903923
00000000: 884c a03c 8061 913c 7e9e 953c f3b8 413d
00000010: 336f f63c a463 2d3d 6de7 013d b5dc ef3c
00000020: 77c9 1e3c 4207 803d 1ca7 8c3d 1ae5 883c
00000030: 2d8a 743d 93f7 a73c caad 633d 0c7a 753c
00000040: 8db0 383d 5474 a13c 021c 103d 4e05 753d
00000050: 16eb 2b3d 7f8c 243d f978 413d c2d1 0c3d
00000060: 038f f83c 97ba c63d 40da 903c 98aa 713d
00000070: 8f50 2e3d 9862 e23c 8544 bc3c d793 3e3d
00000080: efac 113d 9d10 bc3c fedd 333d c0e6 2d3d
00000090: 1c64 f23c 9c4a 3e3d d3c7 053d 3bbd 323d
000000a0: 69b3 283d 2fba 153d 0749 a03c fcd1 fa3c
000000b0: aeac f03c d95f 053d fd4c 683c d6e8 133d
000000c0: 49e1 e13c 49b4 2a3d e3d6 243d fb0f 8d3d
000000d0: 77ba ec3c 05f7 133d 0337 333d 6896 273d
000000e0: c301 0e3d 1e16 053d 4d81 523d 108b ad3c
000000f0: 5bd3 e13c ca64 3a3d 02db 8d3d 9ae7 1f3d

network.6.running_var f4 [64]
0.0023172959 0.0013944007 0.0013605171 0.004728589 0.0026999293 0.003953102 0.0024268925 0.0028029955
0.0005912542 0.0063996734 0.0069417083 0.0023105857 0.005343186 0.0019901546 0.0070219226 0.0011619331
0.00391457 0.0015221972 0.0044677695 0.008286469 0.0043066037 0.0038708816 0.005173277 0.0038206899
0.0025098391 0.010609226 0.0019036644 0.0044377167 0.0059871813 0.0026108923 0.0018409947 0.004105973
0.005484046 0.0022689442 0.003452276 0.0036253338 0.0031267882 0.0050758016 0.003175904 0.0066237478
0.003942791 0.0034601225 0.0017371511 0.0026948494 0.0023124793 0.003730399 0.0008982545 0.00451031
0.0025505899 0.0046658656 0.0051619746 0.0099028265 0.0029152487 0.0036805167 0.0039852965 0.0033284547
0.003020133 0.0025865799 0.006235057 0.0019488846 0.003212531 0.0071089976 0.006083564 0.0033988063
00000000: c6dd 173b 53c4 b63a 6153 b23a 48f2 9a3b
00000010: 4cf1 303b 0689 813b 800c 1f3b 76b2 373b
00000020: 66fe 1a3a 5ab4 d13b 4577 e33b 326d 173b
00000030: e515 af3b 416d 023b 2818 e63b 014c 983a
00000040: cb45 803b 7684 c73a 5e66 923b f8c3 073c
00000050: 691e 8d3b 9eae 7d3b 9884 a93b 8a64 7a3b
00000060: 1d7c 243b 52d2 2d3c 6184 f93a 446a 913b
00000070: 1e30 c43b 811b 2b3b 884d f13a 668b 863b
00000080: 83b3 b33b 91b2 143b 953f 623b 0297 6d3b
00000090: cdea 4c3b e952 a63b d422 503b 060c d93b
000000a0: 8732 813b 39c3 623b 1eb1 e33a 129c 303b
000000b0: f78c 173b b679 743b d778 6b3a 39cb 933b
000000c0: cc27 273b 1ee4 983b c825 a93b 773f 223c
000000d0: c20d 3f3b d334 713b 1797 823b 3422 5a3b
000000e0: 6ced 453b 9c83 293b 734f cc3b b771 ff3a
000000f0: 5489 523b 98f2 e83b a258 c73b 82be 5e3b

network.8.weight f4 [32, 64]
0.025450679 -0.0096650645 -0.0037349502 0.0024623056 -0.13682586 -0.055259105 -0.070846416 -0.044182584
-0.027287908 -0.02707466 -0.026460651 -0.010345057 -0.025742557 0.020485045 0.013352025 0.022786727
0.06355631 0.022102136 -0.027710065 0.048860315 0.0025463821 0.02636484 0.0057442617 0.027554808
-0.03956206 0.053762466 -0.0013950113 -0.05478364 -0.0013902233 -0.05525654 -0.045564093 0.029461917
0.026144207 0.015789334 0.018494796 -0.020833783 0.0057040225 -0.061966687 -0.016325729 -0.030334543
-0.08152205 -0.044041283 -0.07334902 0.0165988 -0.005849448 0.005616509 0.009923661 0.03283313
0.018457824 -0.030890547 -0.05181807 -0.009251797 -0.053232305 -0.028623201 -0.020447027 0.029110702
0.00042727517 -0.026239568 -0.12836716 -0.009577595 0.009441036 -0.031463295 0.035053805 -0.03877056
0.024101036 -0.11615263 -0.0236433 0.018689478 -0.011780884 -0.0036856846 -0.021897066 -0.0021540676
-0.07354816 -0.003301509 0.00885494 -0.018843142 -0.053407516 -0.01769291 -0.010140477 -0.08851815
-0.10691774 0.005755884 0.03580122 -0.008640068 -0.004998384 0.026641844 -0.047970276 0.0047989795
0.061727572 0.021752631 0.01983909 0.024272846 0.021752039 -0.0190322 -0.046974048 0.015758635
-0.006109547 -0.054429773 -0.005794784 -0.06254126 -0.053354796 0.028344976 -0.07645195 -0.03107895
-0.071790025 -0.088579856 -0.011412384 0.049742643 -0.07185816 -0.034504924 -0.016815534 -0.008823004
-0.104852505 0.030508457 -0.012393038 -0.05859505 -0.0045526684 -0.07481868 -0.0036230562 0.0421638
-0.018286658 -0.09556811 -0.015775772 -0.008044673 -0.031994816 0.03675601 0.039905842 -0.024723997
-0.05913903 -0.014461262 -0.07373568 -0.10045444 -0.0044551687 0.019190768 0.02172051 -0.039030097
0.010904778 -0.011474707 0.028019788 0.060233075 0.058584277 0.06665129 -0.12246217 0.015157773
-0.03156715 -0.03895079 0.010885334 -0.022418277 0.041088715 0.018534606 -0.07138452 -0.06451851
0.020081233 -0.015960041 -0.0050839377 -0.0547791 -0.09914694 0.005128618 0.005594889 0.0314044
-0.029635638 -0.044165865 -0.00429166 0.021648949 -0.010400808 -0.079814576 -0.01091265 0.03306379
0.01678018 -0.0004188867 0.066986 0.04599647 0.0041915197 -0.018883685 0.002812686 0.012067832
0.015331141 0.021574548 0.010127823 -0.0149444435 0.0130042685 0.0015431158 0.0063441936 -0.010294654
0.022585344 0.006938081 0.027330998 0.042537846 -0.09993445 -0.08919334 -0.08124034 -0.0095374705
-0.028884677 -0.07676745 0.0339079 0.013584754 -0.037070666 0.040680613 0.014396751 -0.08092204
0.021560194 0.014691083 -0.028141303 -0.107200444 -0.0073548313 -0.06745968 -0.0075863213 -0.0429324
0.01715276 -0.032056265 -0.040203113 0.009039215 0.029827466 -0.013382135 0.015749576 0.08775226
-0.00933113 0.0048065204 -0.05771672 -0.032947805 0.024693862 -0.08216873 -0.080341235 -0.05596719
0.031971414 0.03204658 0.05025961 0.014015151 -0.023161318 0.039816633 0.004669211 -0.11079607
-0.053633768 -0.023073059 -0.097714394 -0.082135424 -0.024964724 0.03128069 0.039280448 0.045845065
-0.0141461035 0.039889213 0.017743694 0.017462382 -0.040290568 0.016330527 0.0056495587 -0.050239135
-0.08723836 0.031733904 -0.013675929 -0.085357375 0.04701784 0.011839847 0.06123199 -0.049366515
00000000: f17d d03c 385a 1ebc 11c6 74bb a25e 213b
00000010: 141c 0cbe 5f57 62bd ed17 91bd ccf8 34bd
00000020: e48a dfbc adcb ddbc 02c4 d8bc 507e 29bc
00000030: 0ee2 d2bc 41d0 a73c 74c2 5a3c 3bab ba3c
00000040: d029 823d 8a0f b53c 3800 e3bc c121 483d
00000050: 34e1 263b 14fb d73c 5c3a bc3b 9fba e13c
00000060: d40b 22bd 0836 5c3d d0d8 b6ba cf64 60bd
00000070: 2738 b6ba af54 62bd 6aa1 3abd 1e5a f13c
00000080: 602c d63c a258 813c 6682 973c 9cab aabc
00000090: cfe8 ba3b c8d0 7dbd 89bd 85bc 2680 f8bc
000000a0: 08f5 a6bd a264 34bd 0338 96bd 35fa 873c
000000b0: baac bfbb b10a b83b da96 223c 087c 063d
000000c0: dd34 973c 2c0e fdbc 2f3f 54bd d994 17bc
000000d0: 1e0a 5abd 347b eabc 8680 a7bc 9179 ee3c
000000e0: e703 e039 5df4 d6bc ae72 03be 58eb 1cbc
000000f0: 93ae 1a3c a8df 00bd 9494 0f3d e1cd 1ebd
00000100: 896f c53c 6ee1 edbd 98af c1bc ad1a 993c
00000110: 9c04 41bc 878b 71bb 7a61 b3bc 422b 0dbb
00000120: 6ba0 96bd 215e 58bb 4f14 113c ef5c 9abc
00000130: d7c1 5abd b9f0 90bc 3e24 26bc 0149 b5bd
00000140: b0f7 dabd db9b bc3b 4da4 123d 128f 0dbc
00000150: 7cc9 a3bb ff3f da3c 7b7c 44bd c240 9d3b
00000160: 0dd6 7c3d 9332 b23c 9685 a23c d9d7 c63c
00000170: 5531 b23c 6be9 9bbc dc67 40bd 4118 813c
00000180: 9832 c8bb c1f1 5ebd 2ce2 bdbb a215 80bd
00000190: 8f8a 5abd b933 e83c d792 9cbd 4899 febc
000001a0: a606 93bd 5b69 b5bd 02fb 3abc f1be 4b3d
000001b0: 5f2a 93bd 0955 0dbd bbc0 89bc 5c8e 10bc
000001c0: e9bc d6bd dfec f93c 2b0c 4bbc 5d01 70bd
000001d0: 8d2e 95bb 893a 99bd cc70 6dbb f3b3 2c3d
000001e0: e7cd 95bc 37b9 c3bd 313c 81bc cecd 03bc
000001f0: ff0c 03bd 788d 163d 4f74 233d fb89 cabc
00000200: c43b 72bd eeee 6cbc bb02 97bd 0fbb cdbd
00000210: aafc 91bb f535 9d3c 36ef b13c 06de 1fbd
00000220: f4a9 323c 6900 3cbc c189 e53c f5b6 763d
00000230: 11f6 6f3d 7980 883d 72cd fabd 4f58 783c
00000240: 8e4c 01bd dd8a 1fbd 6658 323c 89a6 b7bc
00000250: a44c 283d e3d5 973c 0c32 92bd 4822 84bd
00000260: 6681 a43c a2be 82bc 2997 a6bb 0d60 60bd
00000270: 8d0d cbbd f70d a83b 5555 b73b e6a1 003d
00000280: 70c6 f2bc 44e7 34bd 0ea1 8cbb 2359 b13c
00000290: 2768 2abc d375 a3bd f9ca 32bc e66d 073d
000002a0: 9776 893c 059e dbb9 f52f 893d cb66 3c3d
000002b0: 0459 893b f5b1 9abc 0a55 383b 28b8 453c
000002c0: 772f 7b3c 1bbd b03c 2bef 253c 8ad9 74bc
000002d0: db0f 553c 6042 ca3a f4e2 cf3b e9aa 28bc
000002e0: e604 b93c d758 e33b 42e5 df3c 2a3c 2e3d
000002f0: 6faa ccbd ffaa b6bd 5661 a6bd 0d43 1cbc
00000300: 8f9f ecbc 4138 9dbd 03e3 0a3d 9792 5e3c
00000310: 69d7 17bd b7a0 263d 5ae0 6b3c 74ba a5bd
00000320: 019f b03c deb2 703c 9788 e6bc e88b dbbd
00000330: cc00 f1bb 4d28 8abd ad96 f8bb e2d9 2fbd
00000340: f283 8c3c 6e4d 03bd 05ac 24bd 3719 143c
00000350: bb58 f43c be40 5bbc 4105 813c 75b7 b33d
00000360: 99e1 18bc 0480 9d3b 5e68 6cbd 47f4 06bd
00000370: c84a ca3c 1448 a8bd f289 a4bd da3d 65bd
00000380: 75f4 023d 4643 033d 05dd 4d3d ce9f 653c
00000390: cebc bdbc c416 233d 2e00 993b 0de9 e2bd
000003a0: 15af 5bbd b603 bdbc 7c1e c8bd 9e36 a8bd
000003b0: d282 ccbc 2e20 003d 89e4 203d 09c8 3b3d
000003c0: 0fc5 67bc df62 233d 395b 913c 450d 8f3c
000003d0: b907 25bd 99c7 853c ef1f b93b 8dc7 4dbd
000003e0: 06aa b2bd 69fb 013d 0111 60bc d9cf aebd
000003f0: c795 403d ebfb 413c 65ce 7a3d 8b34 4abd

network.8.bias f4 [32]
0.06497104 0.047207866 0.051004782 0.043296166 0.050643586 0.08481182 0.061905038 0.03446537
0.04104435 0.046740167 0.064373136 0.053243246 0.017605571 0.033371683 0.09786642 0.03712282
0.025350314 0.06985728 0.07475458 0.045110505 0.04816571 0.028845344 0.0642443 0.019912153
0.0763303 0.05156235 0.09177846 0.07302008 0.071306 0.07462375 0.113370284 0.06292639
00000000: 890f 853d 095d 413d 64ea 503d 5257 313d
00000010: a66f 4f3d d2b1 ad3d 2390 7d3d 8f2b 0d3d
00000020: 1f1e 283d 9e72 3f3d 10d6 833d 9715 5a3d
00000030: 8f39 903c bfb0 083d 316e c83d 190e 183d
00000040: 76ab cf3c 5511 8f3d ee18 993d cbc5 383d
00000050: 6849 453d 124d ec3c 8492 833d d01e a33c
00000060: 0f53 9c3d 0b33 533d 58f6 bb3d 8d8b 953d
00000070: e108 923d 56d4 983d ae2e e83d 8ddf 803d

network.10.weight f4 [32]
0.8014665 0.68573874 0.77587235 0.7108559 0.85847366 0.7751794 0.83187747 0.9117969
0.7527316 0.86474323 0.70790374 0.90336275 0.7053688 0.66421014 0.7451192 0.88787216
1.0136886 0.8124163 0.65974826 0.9072033 0.8820711 0.7572201 0.93946874 0.7893433
0.9342124 0.8550132 0.75479436 0.9218256 0.94879884 0.8075911 0.8455664 0.8986248
00000000: e92c 4d3f 938c 2f3f 929f 463f a7fa 353f
00000010: eec4 5b3f 2872 463f ecf5 543f 866b 693f
00000020: 05b3 403f d05f 5d3f 2e39 353f c842 673f
00000030: 0d93 343f ad09 2a3f 22c0 3e3f 974b 633f
00000040: 8cc0 813f 84fa 4f3f 43e5 283f 7a3e 683f
00000050: 69cf 613f 2dd9 413f 0681 703f 6712 4a3f
00000060: 8b28 6f3f 25e2 5a3f 343a 413f c3fc 6b3f
00000070: 7be4 723f 4abe 4e3f 0a77 583f 460c 663f

network.10.bias f4 [32]
0.121214695 -0.020664215 -0.094687745 0.032185487 -0.1405142 0.0076662144 -0.08023129 -0.0055228896
0.13131282 -0.06356603 0.037148252 -0.020514417 0.33865988 0.16242541 -0.0013901477 0.14389363
0.12658228 -0.11379115 0.097275734 0.08941424 0.20798782 0.049198803 0.043213595 0.23508812
0.07421141 -0.06585507 0.12474542 -0.093695104 -0.17069735 0.0009035184 -0.11377472 0.09963121
00000000: 693f f83d 0048 a9bc a6eb c1bd eed4 033d
00000010: f4e2 0fbe de34 fb3b 4d50 a4bd 5bf9 b4bb
00000020: de76 063e e82e 82bd c428 183d da0d a8bc
00000030: d464 ad3e d952 263e 9e35 b6ba da58 133e
00000040: c99e 013e 560b e9bd 8038 c73d d01e b73d
00000050: c2fa 543e af84 493d bd00 313d f1ba 703e
00000060: 27fc 973d 06df 86bd 877a ff3d 38e3 bfbd
00000070: 49cb 2ebe 18da 6c3a b802 e9bd 730b cc3d

network.10.running_mean f4 [32]
0.09115007 0.06916971 0.07657983 0.07986606 0.07673064 0.10013685 0.071028724 0.05613595
0.08154969 0.07200527 0.0885938 0.0726466 0.05164001 0.06915859 0.119456664 0.074406974
0.07444669 0.088066936 0.09795842 0.08796023 0.08867021 0.06436175 0.07693585 0.049637213
0.0983106 0.06802957 0.112833075 0.08078071 0.08162785 0.08383444 0.12455532 0.10058397
00000000: e3ac ba3d d9a8 8d3d e3d5 9c3d d190 a33d
00000010: f424 9d3d 8c14 cd3d 8277 913d cfee 653d
00000020: 8603 a73d 8077 933d ab70 b53d bec7 943d
00000030: 7a84 533d 05a3 8d3d b2a5 f43d af62 983d
00000040: 8277 983d 705c b43d 6d9e c83d 7e24 b43d
00000050: ba98 b53d 18d0 833d 8b90 9d3d 6450 4b3d
00000060: 1157 c93d 1653 8b3d 0715 e73d 5b70 a53d
00000070: 812c a73d 64b1 ab3d dc16 ff3d f8fe cd3d

network.10.running_var f4 [32]
0.009133245 0.00653914 0.009185244 0.011046291 0.009694768 0.009390752 0.008619934 0.006522031
0.010788199 0.0074826577 0.009794866 0.008949399 0.0057518696 0.008900819 0.014485627 0.0068145758
0.008273049 0.012021942 0.011085175 0.009725564 0.009748979 0.007770767 0.007340966 0.0044056466
0.00850588 0.0067840926 0.013241943 0.008356106 0.009035532 0.007317983 0.018210663 0.010732168
00000000: 9ba3 153c 4846 d63b b57d 163c 81fb 343c
00000010: ced6 1e3c abdb 193c a03a 0d3c c3b6 d53b
00000020: fcc0 303c 1531 f53b a57a 203c 80a0 123c
00000030: 2e7a bc3b bed4 113c 2055 6d3c ce4c df3b
00000040: af8b 073c aef7 443c 989e 353c f957 1f3c
00000050: 2eba 1f3c eba1 fe3b 7c8c f03b 3e5d 903b
00000060: 3f5c 0b3c 184d de3b bcf4 583c 0ce8 083c
00000070: c509 143c b1cb ef3b 872e 953c fad5 2f3c
