models/mlp_multiclass_crossentropy20250904_210759.pth (torch, 81442 bytes, 21 tensors)

network.0.weight f4 [128, 48]
000000 3b 5f b0 bd 6d f1 88 bc 75 65 21 bc 43 48 b8 3b
       -0.08611914 -0.016716683 -0.009850849 0.0056238486
000010 13 9c 66 3c d5 45 af bd 31 1e 15 bd 08 2a 2b bd
       0.014075297 -0.08558241 -0.036405746 -0.04178813
000020 4c b9 c8 bc 0e 58 be 3b 1b 98 32 bc 81 da 3c bc
       -0.024502419 0.005808837 -0.010900523 -0.011526705
000030 ab c0 7e bd 03 74 03 bc f3 7f 96 bb 1e 6a a6 3c
       -0.06219546 -0.008023265 -0.0045928895 0.020314272
000040 4c 64 38 3d 3a 61 e1 3c 0d ef 43 bd 11 ef 5a 3c
       0.045017526 0.027512182 -0.0478354 0.013362662
000050 da df c7 bb 72 13 c4 bc be 18 14 3d 7e ea 0d 3c
       -0.006099683 -0.023935053 0.03615641 0.008661864
000060 29 75 87 3c fd 56 87 bc 5a 75 97 3d 2e 02 09 bc
       0.016535359 -0.016520971 0.0739543 -0.008362336
000070 a2 d2 06 3d cb 97 48 bc 6a d1 6a bd 9f db e4 3d
       0.03291572 -0.0122432215 -0.05732862 0.11174702
000080 9c 36 4d 3c 57 fd da bc 60 ff 0c bd 5e aa 48 3c
       0.012525227 -0.02673213 -0.034423232 0.01224765
000090 82 a2 1c 3b 6e 59 12 bd 81 1e 39 3e b9 c8 94 3c
       0.0023900573 -0.035729818 0.18078043 0.018162118
0000a0 07 4c 82 bd 5d 81 94 bb 46 fe 85 bc 3f ea 5c 3c
       -0.06362157 -0.004532023 -0.016356599 0.013483583
0000b0 4f 41 32 bd 4a 86 3b 3d 97 00 1f 3c 2a 59 ca bc
       -0.043519314 0.045782365 0.0097047305 -0.02470072
0000c0 9b 4f ca 3c cd 60 8e ba 7f c9 f2 bc 76 e4 91 3b
       0.024696162 -0.0010862589 -0.029637096 0.0044522835
0000d0 76 61 c2 bb 94 0b 95 bc 45 bb 90 3d 7e b4 57 3d
       -0.0059320284 -0.018193997 0.07066969 0.052662365
0000e0 55 dd 7d 3c ed 7e af bc c2 20 39 3c b3 78 60 3d
       0.015494664 -0.021422828 0.011299314 0.054802608
0000f0 57 02 bd bc 21 64 50 bd 56 8c a9 3b 3f 21 ba bc
       -0.023072405 -0.05087674 0.0051742 -0.022720931
000100 b9 61 ed bc 73 1c 63 3a d0 ad 15 3c c4 81 6d bd
       -0.028977262 0.0008663602 0.009135678 -0.057985082
000110 5a 70 85 3c 16 f9 ee 3c 7b fe ac 3c 0f d5 4e bd
       0.016288925 0.029171508 0.02111744 -0.050496157
000120 41 8f 65 3c 52 15 a4 bc 81 c2 a1 3d 61 2a 91 bc
       0.014011205 -0.020029698 0.07898427 -0.017720403
000130 eb 45 e7 3d da b1 26 3c b1 79 07 bd ef 89 be 3d
       0.11292633 0.010174239 -0.03307504 0.093036525
000140 30 c5 92 3d 37 86 57 bd ce b2 38 3c 3a 87 4e 3c
       0.07166517 -0.05261823 0.011273099 0.012605483
000150 ed 11 83 bc fb 67 94 3c 64 8a 8d bc 4b 6b 9c 3d
       -0.015999759 0.018115988 -0.017277904 0.07637652
000160 9c ba 5b 3d 80 32 93 bc 53 38 60 3d 42 6e 1e ba
       0.05364476 -0.017968416 0.054741215 -0.00060436514
000170 3c 0e 15 bc 9f 85 73 3c 0c 64 04 bd b6 7c cb 3c
       -0.009097632 0.014863401 -0.032321975 0.02483974
000180 db 5a 19 bc c8 f9 4f 3d a3 50 f1 bb 30 81 7b 3c
       -0.009360041 0.05077532 -0.007364349 0.015350625
000190 69 e3 2b 3c d7 44 80 bb 72 3e 85 3c b1 91 c1 3c
       0.0104912305 -0.0039144563 0.016265128 0.023629041
0001a0 c1 ed 36 3d 78 c3 78 ba 85 62 ae 3d 4a 57 3e bd
       0.044660334 -0.00094895763 0.08514885 -0.046469964
0001b0 49 23 50 3c 29 61 29 bc dd 33 e3 3c 33 50 c1 3c
       0.012703725 -0.010338106 0.027734691 0.023597812
0001c0 cf b5 0b 3c 30 87 b4 3c ec 0d 85 bc 3c c0 21 bc
       0.008527233 0.022037119 -0.01624199 -0.009872492
0001d0 49 35 70 bc db 75 43 3d 28 18 96 3c d9 5a 55 bd
       -0.014661142 0.047719818 0.018322065 -0.052088592
0001e0 4b bc cd ba 21 31 50 3d 0d 4d 70 3d 37 dc 6c bd
       -0.0015696374 0.050828103 0.05866723 -0.0578272
0001f0 6b 2d 48 bc a8 1a 2b 3d d1 5a 50 3d 6f 74 d0 bd
       -0.01221786 0.04177347 0.05086786 -0.10178458
000200 ab 3d 1f bc 8d 49 0e bd f4 06 3a 3c cd 6e 9e 3c
       -0.009719293 -0.034738112 0.011354197 0.019339943
000210 34 39 d7 3c 8b 55 a3 3c d7 38 13 be c8 df 7d 3d
       0.026272394 0.019938251 -0.14377151 0.061980993
000220 27 41 12 bc 58 7d c5 bd e2 be 8e bd 44 9f 3a bd
       -0.008926666 -0.09643048 -0.06970002 -0.045562044
000230 c2 e8 4c 3b a0 35 80 3c d9 38 02 3c 85 9b 8f 3c
       0.0031266664 0.01565057 0.007948124 0.017530212
000240 47 ae 5b 3c be 49 3a bc cd 8f 8f 3c a8 a2 82 3b
       0.01340825 -0.011370121 0.017524624 0.0039866753
000250 00 88 e9 ba c5 96 f4 bb fa 78 dd 3b 4c af 90 bb
       -0.001781702 -0.007464262 0.0067588063 -0.0044154283
000260 2d 8c 98 bc ab b3 18 3e 00 6c 1e bd e1 e0 2c bb
       -0.018621529 0.14912288 -0.038677216 -0.0026379155
000270 08 c8 b3 bc 73 41 22 bd 65 06 fc b9 a4 ce 78 bc
       -0.021945968 -0.0396132 -0.0004806995 -0.015185986
000280 09 fd 1e bd 74 1f e9 bc de e9 19 3c 59 07 dc bd
       -0.038815532 -0.02845738 0.009394137 -0.10743589
000290 3e 93 3a 3c 07 77 fb bc 46 c9 c2 bc df ea af 3c
       0.011387644 -0.030696405 -0.023777615 0.0214743
0002a0 f1 a7 e3 bb 87 b6 13 bd 3c a8 e9 bd 09 c4 03 bd
       -0.0069475104 -0.036062744 -0.11409041 -0.032169376
0002b0 c8 d9 6b 3d 03 2e f1 3b 5b a8 d3 3c 5b a3 ba bd
       0.05758074 0.0073602214 0.025837114 -0.09113189
0002c0 9d 0e bb bc 01 3f f9 3c 97 6b b8 bc 6f 27 92 bc
       -0.022834117 0.03042555 -0.02251224 -0.017841069
0002d0 ce 8e bb 3a e8 d9 af 39 c2 86 0e bb 30 eb f5 bc
       0.0014309527 0.00033540954 -0.0021747802 -0.030019373
0002e0 0a 95 59 3b 83 2b fa 3c 0b 20 6a bd 4a 48 85 3c
       0.0033200406 0.030538326 -0.057159465 0.016269822
0002f0 a0 c4 e5 bc 70 d7 15 3d 24 16 f3 bb ce 2d c6 bc
       -0.02804786 0.03658241 -0.007418411 -0.024191763
000300 50 2b 77 bb d8 96 f3 3c 6d 66 1d bc 5b 30 e5 3a
       -0.0037715025 0.029735014 -0.00960694 0.0017485725
000310 f8 ba f6 ba d0 80 0e be 8e f4 8b bc b2 73 9a bc
       -0.0018824032 -0.13916326 -0.017084386 -0.018853996
000320 af df 0f 3d 75 4d 8d 3c 54 d3 91 bc 21 48 19 bd
       0.03512543 0.017248848 -0.017800964 -0.037422303
000330 47 b3 d3 bc eb 87 42 3d 7b 84 55 bc 73 6e b6 bc
       -0.025842322 0.047492903 -0.013032074 -0.022269463
000340 e7 84 f6 3c 6e 87 9b bb 94 13 49 3c 51 40 0e 3d
       0.03009267 -0.004746369 0.012272734 0.034729306
000350 71 26 99 3b 10 34 d9 bc 14 83 17 bc bf a6 b1 ba
       0.004673772 -0.026514083 -0.00924756 -0.0013553723
000360 79 0b 95 39 fd f1 df 3b 9e c4 cc bb d5 8a fe 3b
       0.00028428042 0.006834267 -0.0062490245 0.007768015
000370 3a 38 b9 bd a0 57 08 3d d9 09 9f 3c 28 4e 9a bc
       -0.090439275 0.03328669 0.019413875 -0.018836096
000380 a0 ee d1 3b 72 76 25 be 47 7a 2b 3b 5f f8 59 b7
       0.00640662 -0.16158465 0.0026165412 -1.2992036e-05
000390 d5 63 04 bc 0e dc 0a 3d 27 83 d5 3d 1b 1b 1c bc
       -0.008080442 0.033901267 0.10425406 -0.009527947
0003a0 c3 67 03 be 29 63 b0 bd 8d f5 a4 bd 02 ed 8b bd
       -0.1283255 -0.08612663 -0.080546476 -0.06832315
0003b0 b7 83 49 3d d4 4b 3d bc 44 e1 43 3d c2 1e a0 bc
       0.04919788 -0.011553723 0.047822252 -0.019545916
0003c0 41 cd 49 3d 4c e7 09 bc 2f ea 0b bd 15 9b 52 bb
       0.04926801 -0.008416962 -0.03415888 -0.0032135893
0003d0 78 fc 84 bb 04 bb 3a bd 6a ad 0c bd 27 ef 54 bd
       -0.004058417 -0.04558851 -0.034345068 -0.051985886
0003e0 c0 e5 b4 bc d6 77 b8 3d 69 d6 a5 3d e3 28 03 3d
       -0.02208221 0.09007232 0.08097536 0.032021414
0003f0 3e a5 f6 3a c2 00 36 3c e4 25 6b 3b 6b dc 68 3b
       0.0018817557 0.011108579 0.003588074 0.003553177

network.0.bias f4 [128]
000000 28 b8 d5 bd 49 f0 fc bd 4d 84 8d 3b 9b fb ad be
       -0.10435516 -0.12350518 0.00431875 -0.33981022
000010 ef 97 16 be 54 b4 3e bc 5f b5 16 be 92 ca 36 be
       -0.14706396 -0.011639673 -0.14717625 -0.17850712
000020 87 e7 04 be ae 95 06 be 76 06 cd bd 83 35 70 bd
       -0.12978946 -0.13143036 -0.10010998 -0.058644783
000030 8b 6b da bd f1 d1 07 be 15 87 3a bd ec e5 26 be
       -0.106650434 -0.1326368 -0.04553898 -0.16298646
000040 95 6e ce bd bd 17 f6 bd 7b b7 5e be a4 94 c7 bd
       -0.100796856 -0.120162465 -0.2174968 -0.09745148
000050 9c b1 ab be 4f ec 70 be c9 21 dc bd 54 9e f2 bd
       -0.33533943 -0.23527645 -0.107486315 -0.11846605
000060 4c 01 72 be 86 d2 27 be a1 8a 00 bc 1b 72 25 be
       -0.23633307 -0.16388902 -0.007845552 -0.16156809
000070 48 dc 97 bd 02 03 3a be 5c 79 a6 bd ca 48 08 be
       -0.07415062 -0.1816521 -0.08128616 -0.13309017
000080 ac ad f3 bd bd 97 60 be f8 1e c3 bd d4 dc 81 bc
       -0.1189836 -0.21932884 -0.09527391 -0.01585237
000090 f6 d0 30 be da f9 d4 bc 0f 88 e8 bd 77 d1 89 be
       -0.17267212 -0.025998045 -0.11354076 -0.26917621
0000a0 c4 dd 13 be ba b8 a7 be d2 d6 cf bd 8c 2b b5 bd
       -0.14440066 -0.32758123 -0.101483956 -0.088461965
0000b0 aa 5e 01 be 80 a3 fb bd 15 39 a7 be 32 1e 01 be
       -0.12633768 -0.122870445 -0.32660738 -0.12609175
0000c0 6d 50 2c be c0 d4 37 be 9e e5 8e bd b5 be a3 bd
       -0.16827555 -0.17952251 -0.0697739 -0.07995359
0000d0 a7 c0 9c 3c a5 1e 81 bd d6 5a b7 bd 6a 18 83 bd
       0.019134833 -0.06304673 -0.089528725 -0.06401141
0000e0 81 58 ec bd e4 28 04 be ff 57 5d be 65 3b 77 be
       -0.11540318 -0.12906224 -0.21615599 -0.24143751
0000f0 5b e7 27 be 0a 07 db bd 1c ef ad 3b 1b 6d 47 be
       -0.16396849 -0.10694702 0.005308045 -0.19475214
000100 0c fc 9d bd ec 37 b9 bd 3a 79 5d bc 57 b8 80 be
       -0.0771409 -0.090438694 -0.013517672 -0.2514064
000110 a9 c2 d2 bd ab 57 52 bd 6e a1 e7 bd 3c 76 4d be
       -0.10291035 -0.051353138 -0.11310087 -0.20064634
000120 3e 66 a7 be c4 e3 91 bd 0d cb 62 be cc 10 e2 bd
       -0.32695192 -0.07123521 -0.2214777 -0.1103836
000130 56 46 9b bd 5e f8 2a be c3 76 c3 bd 2c 25 db bd
       -0.07581775 -0.16696307 -0.095441364 -0.10700449
000140 0b 6d f4 bd 73 d5 bc bc 76 71 1c be 8c f5 82 bd
       -0.11934861 -0.023051 -0.15277657 -0.063944906
000150 ae 10 5b be 53 b4 4b be a0 c9 10 be cf 3b c4 bd
       -0.21393082 -0.19893007 -0.14139414 -0.0958172
000160 72 68 df bd 3d 49 16 be 44 ba 1d bd 50 57 79 be
       -0.10908593 -0.14676376 -0.038507715 -0.24349713
000170 5f 19 be bd 12 fa 0d be a5 10 ba bd 74 6c 10 be
       -0.09282183 -0.13864926 -0.09085206 -0.14103872
000180 dc 13 6c be ce f8 6d be 4a b9 b6 bd bb 48 18 be
       -0.23054451 -0.23239443 -0.0892206 -0.14871494
000190 06 0c 54 be c4 3a d9 bd 73 0f f2 bd 27 b3 23 be
       -0.20707712 -0.10606912 -0.11819353 -0.1598631
0001a0 29 9e 55 be aa f5 9c bd e3 9d 34 3d d1 6a 35 bd
       -0.20861115 -0.07664044 0.044095885 -0.04429132
0001b0 6c 6d 81 be 82 7c e9 bd 4c a0 0b bd db d6 bc bd
       -0.25278795 -0.11400701 -0.034088418 -0.09220668
0001c0 72 46 2d be ea 28 12 bd 51 97 8c be b9 48 e9 bd
       -0.16921404 -0.03568355 -0.27459195 -0.11390824
0001d0 b5 cb cb bd 17 b9 28 be b4 fb b4 bd de 37 4b be
       -0.099509634 -0.16476856 -0.08837071 -0.1984553
0001e0 3a e5 25 bd 34 19 37 be ad c1 9c bd 25 ee a1 bb
       -0.04050181 -0.17880708 -0.07654128 -0.004941719
0001f0 74 02 06 be 55 dc f8 bd 00 fe 92 bd 15 32 0a be
       -0.13086873 -0.121514 -0.07177353 -0.13495667

network.2.weight f4 [128]
000000 b7 c9 7b 3e 83 64 48 3e 77 70 31 3e 5b a6 94 3e
       0.24588667 0.19569592 0.17328058 0.2903317
000010 90 71 93 3e 5b c2 55 3e 7e a7 83 3e 6f 31 87 3e
       0.2879758 0.20874922 0.25713724 0.26404902
000020 9b d2 79 3e 2f 82 86 3e 9f 98 3d 3e 46 05 64 3e
       0.24396746 0.26271197 0.18515252 0.22267637
000030 1f 59 82 3e 33 1c 81 3e 92 f2 70 3e 16 5d 96 3e
       0.2545862 0.25216827 0.23530033 0.29367894
000040 77 ca 81 3e e5 cf 43 3e 2a a4 83 3e 36 74 5c 3e
       0.2534978 0.19122274 0.25711185 0.21528706
000050 81 2c b5 3e 7a 89 7d 3e 00 a6 64 3e c8 f8 6d 3e
       0.35385516 0.24759474 0.22328949 0.23239434
000060 2c 58 8a 3e 00 68 99 3e 8a 11 40 3e 24 d7 86 3e
       0.27020395 0.29962158 0.1875669 0.26336014
000070 8b 9f 89 3e 3c ac 9b 3e 77 ba 4d 3e b4 ad 89 3e
       0.26879534 0.30404842 0.20090662 0.26890337
000080 06 4a 8e 3e 42 56 9a 3e 10 4f 8a 3e 71 eb 80 3e
       0.2779085 0.30143934 0.27013445 0.25179628
000090 e5 95 8a 3e 30 5a 42 3e 42 d5 90 3e a5 bd a4 3e
       0.27067485 0.18979716 0.28287703 0.32175937
0000a0 25 02 4c 3e 42 10 ad 3e c0 53 77 3e ee e7 62 3e
       0.19922693 0.33801466 0.24153042 0.22158787
0000b0 8e ca 86 3e 3c 36 82 3e 95 7a cd 3e b4 7e 96 3e
       0.26326412 0.25432003 0.40132585 0.29393542
0000c0 01 60 6c 3e ed 9a 7b 3e 53 d1 8e 3e fe 51 81 3e
       0.23083498 0.24570818 0.27894077 0.25257868
0000d0 f1 97 5c 3e 40 20 56 3e 78 18 87 3e e3 aa 4e 3e
       0.21542336 0.2091074 0.26385856 0.20182376
0000e0 9d 54 b9 3e 95 cc 5b 3e 51 d2 92 3e 9c 40 a3 3e
       0.36197367 0.2146476 0.28676084 0.3188523
0000f0 70 a0 94 3e 96 8b 8e 3e 0b 31 85 3e 0d dd 90 3e
       0.29028654 0.2784087 0.2601398 0.28293648
000100 50 12 70 3e 05 a5 66 3e e1 1f 81 3e c8 d3 8c 3e
       0.23444486 0.22523887 0.25219634 0.27505326
000110 ee ba 81 3e 8a 3d 77 3e 7d 9e 89 3e 0b 6c a2 3e
       0.2533793 0.24144569 0.2687873 0.31723055
000120 9c a7 9d 3e e1 36 81 3e 4e 45 90 3e e1 47 50 3e
       0.30791938 0.25237182 0.28177875 0.2033992
000130 94 08 a4 3e 39 16 80 3e a9 b2 87 3e 1b f9 b2 3e
       0.32037795 0.25016955 0.26503494 0.34955677
000140 b7 32 86 3e e6 c2 35 3e 49 ec 79 3e ab 73 7a 3e
       0.26210567 0.17750129 0.24406542 0.24458186
000150 c9 74 74 3e 0d 89 8e 3e 5a 69 8d 3e 8e 7e 53 3e
       0.23872675 0.27838936 0.2761944 0.20653746
000160 0a 20 55 3e 32 a8 53 3e 0b f5 1f 3e fd d5 99 3e
       0.20813003 0.2066963 0.1562082 0.30046073
000170 2a 1d 85 3e ba 44 82 3e ea 56 4d 3e 8d 99 8c 3e
       0.25998813 0.2544306 0.20052686 0.274609
000180 d8 e5 9e 3e 98 ab a0 3e 82 91 88 3e 32 c5 61 3e
       0.31034732 0.31380916 0.26673514 0.2204788
000190 86 8f b0 3e 42 2e 41 3e af f5 6a 3e 66 5c 98 3e
       0.344845 0.18865302 0.22945283 0.29757994
0001a0 cd 40 89 3e c5 7e 61 3e 46 32 70 3e 1a 9d 5a 3e
       0.26807252 0.22021015 0.23456678 0.21348992
0001b0 40 5d aa 3e d0 b7 7c 3e b7 da 74 3e cb a2 7c 3e
       0.3327427 0.24679494 0.23911558 0.24671476
0001c0 e7 ae 6d 3e 03 b5 3f 3e 74 d5 92 3e 89 0c 7e 3e
       0.23211251 0.18721394 0.28678477 0.2480947
0001d0 97 54 80 3e c2 77 63 3e 60 9c 99 3e 7b 58 a3 3e
       0.25064537 0.22213653 0.30002117 0.31903443
0001e0 8f 7c 8d 3e 26 e9 8d 3e 7d 6d 63 3e 2f 12 6e 3e
       0.27634093 0.2771694 0.22209735 0.23249124
0001f0 ec 7c 81 3e 40 08 9c 3e 05 a8 76 3e 5a 3c 97 3e
       0.2529062 0.30475044 0.24087532 0.29538232

network.2.bias f4 [128]
000000 77 cc 17 3d e3 6b 80 bc 79 d7 b8 3c 5b c0 d7 3b
       0.037060227 -0.015676444 0.022563683 0.00658421
000010 59 09 80 3b 8f 5f 79 3c 3f dc 08 3b 46 7a 01 3d
       0.0039073643 0.015220537 0.002088323 0.03161075
000020 20 ec 10 3d be fd 19 3d b6 14 b8 3c aa 2f fd 3c
       0.035381436 0.037595503 0.022470813 0.030906517
000030 45 57 42 3d 60 b9 32 3d 94 4d 5d 3b 07 42 08 3d
       0.047446508 0.04363382 0.0033768164 0.033266094
000040 ed 81 86 3d 37 fd b7 3c ab e4 d4 3c d9 b5 2a 3d
       0.0656775 0.02245961 0.025987944 0.04167733
000050 f4 32 37 bc 2d 93 04 3d 3c 69 41 3c 27 70 6a 3a
       -0.011181582 0.03236692 0.011804875 0.00089431036
000060 7a bd ea 3c e4 dd 8a 3d 04 93 a7 3c 29 05 ba 3c
       0.028654803 0.067806035 0.020455845 0.022707539
000070 d2 92 87 3c 66 98 b2 3d 8d 68 82 3c c1 f2 61 3d
       0.016549502 0.08720474 0.015918994 0.05516315
000080 75 3f 39 3d 22 8d 29 3d 34 f3 96 3d ac d6 c5 bb
       0.045226533 0.04139436 0.07370606 -0.006037554
000090 40 48 b9 3c cf 16 ee 3c bd 30 83 3d 4d 15 54 3d
       0.02261746 0.02906361 0.064057805 0.051778127
0000a0 75 5b 92 bb 0d ed f3 3b 30 a4 19 3d e8 68 49 3d
       -0.004466469 0.00744403 0.037510097 0.049172312
0000b0 8c 21 66 3d f7 1a 28 3d eb 97 84 3d 4e c1 aa 3c
       0.056184337 0.04104134 0.064742886 0.020844128
0000c0 9c be d5 3a 7f e4 14 3d 3f 09 32 3d d1 45 f7 3c
       0.0016307416 0.036350723 0.04346585 0.030184658
0000d0 8b ee 35 3c 5b 8d 16 3d e4 0e ac 3c 7a c0 bb 3c
       0.011104236 0.0367559 0.021003194 0.022918928
0000e0 eb 5a d4 3d 86 b0 10 3d 1a 9e 33 3d da dd a1 3c
       0.10368904 0.035324596 0.04385195 0.019759107
0000f0 01 b1 3f 3d 29 46 17 3d 0c c2 86 3b 3e 63 43 3d
       0.046799663 0.036932144 0.0041124877 0.047702067
000100 e6 29 10 3d f8 a8 0c 3d c6 a5 4b 3d dd b3 08 bc
       0.035196207 0.03434083 0.04971864 -0.008343664
000110 7c c9 16 3d b7 2d 24 3d 68 5d 52 3d 28 25 1c 3d
       0.036813244 0.04008266 0.05135861 0.038121372
000120 41 4c 92 bb ae f4 d5 3c 45 ec ae 3a 4f b4 1f 3c
       -0.0044646566 0.026117649 0.001334556 0.009747579
000130 f5 71 a3 3d b9 f3 2c 3b 21 fa 42 3d 0d 2c 0c 3e
       0.0798072 0.0026390387 0.047601823 0.13688679
000140 49 b4 4e 3d dd 33 cb 3c 95 ab 12 bc c2 6c c6 3c
       0.050464902 0.024805004 -0.008952041 0.024221782
000150 8e e3 f1 3c 95 0f 9a 3d ea d0 50 3d 64 9b 60 3d
       0.029527452 0.07522503 0.050980486 0.054835692
000160 cc eb f9 3c c6 b2 b0 3c b9 34 cd 3c 9e 39 76 3d
       0.030507945 0.02156962 0.025049554 0.06011354
000170 52 81 4f 3d 4c 38 d7 3c b8 e1 ea 3c 86 81 85 3d
       0.05066044 0.026271962 0.028672084 0.06518845
000180 77 25 54 3d 9d 4f 83 3d db a3 77 3d ff f3 d7 3c
       0.05179354 0.064116694 0.060459 0.026361464
000190 ed 36 ee 3d 9b 53 09 3d 01 70 e9 3c 06 ec 57 3d
       0.1163157 0.033526998 0.02849579 0.052715324
0001a0 98 2e e2 3c 88 17 00 3d 7a 7e 60 3d 12 39 18 3c
       0.027610108 0.03127244 0.054808117 0.00929095
0001b0 80 16 70 3d 61 3b 25 3c 6c 96 18 3d c5 d2 26 3d
       0.058615208 0.010084958 0.03725283 0.04072835
0001c0 c8 17 0f 3d 4c f6 06 3d 0c ee 0b 3d f3 8d da 3c
       0.03493479 0.03294973 0.034162566 0.026679015
0001d0 96 58 50 3d 42 31 8c bb bd cc 37 3d 0b 58 60 3d
       0.050865732 -0.004278333 0.044872988 0.054771464
0001e0 45 2c 76 3c 4a 9f 58 3d a4 17 a8 bb e2 4d b6 bb
       0.015025203 0.052886285 -0.0051297713 -0.0055634836
0001f0 53 71 81 3d 3f 38 83 3c 9e 24 5b 3d 82 c3 b2 3d
       0.06320443 0.016018031 0.053501718 0.087286964

network.2.running_mean f4 [128]
000000 5f 67 af 3d 6e 5b 2a 3d 8a a4 d5 3d 16 d3 33 3c
       0.08564638 0.0415911 0.10431774 0.01097562
000010 f6 53 a8 3d b6 60 b7 3d c4 ff 48 3d 5c 19 fb 3c
       0.08219139 0.08953993 0.049072042 0.03065174
000020 64 48 2a 3d 85 29 46 3d 44 fd 4a 3d 2a 59 9c 3d
       0.041572943 0.04837944 0.04955794 0.07634194
000030 a4 10 7b 3d ed e9 3a 3d aa 0e 51 3d 29 d8 c7 3d
       0.061295167 0.045633245 0.051039375 0.09758026
000040 2e 4a db 3d 3d 5e 40 3d a3 ed e6 3c 68 aa 5f 3d
       0.10707508 0.046964873 0.028189486 0.05460587
000050 b0 88 b2 3c b7 59 0a 3d 9f 52 57 3d d1 8b 80 3d
       0.021793693 0.033776965 0.052569028 0.06276668
000060 c6 c4 28 3c 2c 1f 6e 3d bf c4 c0 3d 1a d9 78 3d
       0.010300821 0.058135197 0.09412526 0.06075392
000070 f4 bd 51 3d e5 47 81 3d d2 2b a8 3d 08 73 8a 3d
       0.051206544 0.06312541 0.08211483 0.06760222
000080 2c b5 80 3d 12 1a 0d 3d 69 2e 9a 3d f9 ae f4 3d
       0.06284556 0.03444869 0.07528383 0.11947436
000090 5d a8 12 3d 9d f1 ad 3d 90 bc 61 3d 29 3b e6 3c
       0.035805095 0.0849335 0.055111468 0.028104382
0000a0 34 ac 63 3d 11 95 49 3c ad 9d 4d 3d ba ef d0 3d
       0.055584148 0.012303607 0.0501992 0.10201974
0000b0 a0 95 2c 3d b5 fa 97 3d c4 a1 f0 3c 0c fa 80 3d
       0.04213488 0.074208654 0.02937401 0.06297693
0000c0 13 af 2b 3d fe e7 3d 3d c8 05 88 3d bb 92 94 3d
       0.04191501 0.046363823 0.06641728 0.07254549
0000d0 34 fd e3 3d 8f 1b 8c 3d e4 2c bc 3d 0b ce 9f 3d
       0.11132279 0.06841194 0.0918825 0.078029715
0000e0 79 60 80 3d 23 49 93 3d 3a 58 fe 3c b7 41 2f 3d
       0.06268401 0.07191684 0.03104793 0.04278728
0000f0 3d 5f 2f 3d c8 52 d2 3d 5e a0 db 3d 46 d1 34 3d
       0.042815436 0.102696955 0.10723947 0.04414489
000100 b8 f6 76 3d 81 a0 4e 3d e5 50 da 3d 3f 45 9a 3c
       0.060293883 0.050446037 0.10659961 0.018831847
000110 fd c4 b5 3d f2 96 98 3d fa 72 e4 3d 24 38 8a 3c
       0.08875463 0.074506655 0.111547425 0.016872473
000120 ac f3 a1 3c 3f f3 99 3d c1 6f 4c 3d 64 a9 0d 3d
       0.019769512 0.07517099 0.049911264 0.03458537
000130 b3 2c b9 3d 04 fd bb 3c f1 84 9b 3d fd f6 6b 3d
       0.09041729 0.022947796 0.07593716 0.057608593
000140 b8 58 9a 3d 49 86 d1 3d 55 54 e1 3c f4 31 06 3e
       0.07536453 0.10230691 0.027506033 0.13104993
000150 32 90 20 3d 87 01 3f 3d 1e fb 88 3d 5f 49 73 3d
       0.039200015 0.046632316 0.06688522 0.059396144
000160 38 f5 80 3d 54 04 3f 3d 6b 4d 59 3d 30 f6 16 3d
       0.06296772 0.046634987 0.053052347 0.036855876
000170 71 b4 5d 3d 4d 48 a3 3d 3e e4 46 3d 66 2d 67 3d
       0.05412716 0.07972775 0.048557512 0.05643978
000180 87 26 e2 3c 85 3b 4d 3d ad a5 a4 3d 0c 11 09 3d
       0.027606262 0.05010559 0.08039413 0.033463523
000190 5b 1b 7e 3d cd e9 1b 3d 8d 21 3f 3d d8 52 a5 3d
       0.062037807 0.038064767 0.046662856 0.08072442
0001a0 49 c9 6d 3d c8 36 75 3d 03 44 24 3e 8e 81 c8 3d
       0.05805329 0.059866697 0.1604157 0.097903356
0001b0 60 b1 83 3d e2 0a 6f 3d 7f 5d 93 3d 33 81 88 3d
       0.06430316 0.058359988 0.07195567 0.06665268
0001c0 ad 7b 2a 3d fb c7 91 3d 65 a3 ba 3c 7f 5b a5 3d
       0.041621853 0.07118221 0.02278299 0.08074092
0001d0 76 8c a1 3d 05 7c 38 3d a0 d4 88 3d c7 70 a0 3d
       0.07888119 0.04504015 0.0668118 0.078340106
0001e0 1f a5 b5 3d 3a 5d 5b 3d bc a0 a5 3d 4a 49 e8 3d
       0.08869385 0.053555705 0.08087298 0.11342104
0001f0 a1 f1 0e 3d 54 57 6b 3d 28 be 81 3d 94 cb 97 3d
       0.034898404 0.05745633 0.063350976 0.07411876

network.2.running_var f4 [128]
000000 a9 7a ce 3c 67 96 5a 3c 3e a3 11 3d 0b 50 e2 3a
       0.025204973 0.013341523 0.03555607 0.0017266286
000010 aa c4 8c 3c cb 3c 58 3c 9c 4b 05 3c b2 fb 11 3c
       0.01718362 0.013198088 0.008135702 0.0089101065
000020 df 41 99 3d 9d 1d 55 3c 0f 77 a3 3c 83 02 18 3d
       0.07483267 0.013007549 0.019954232 0.03711177
000030 10 fd 9d 3c 4f 00 26 3c be f8 02 3c 96 bb e2 3c
       0.019285709 0.0101319095 0.007993875 0.027677339
000040 6f f2 75 3c ff 6b 9b 3c 75 84 f3 3b e6 f5 91 3c
       0.015011414 0.018972395 0.0074315616 0.017817449
000050 da 6b 02 3b a5 b9 e1 3c ab 67 52 3c 3e 9e 34 3c
       0.001990071 0.027554343 0.012842099 0.011024056
000060 2c 8d 84 3a 31 53 e6 3b 6b 53 77 3c d1 5b b9 3c
       0.0010112873 0.00702896 0.015095572 0.02262679
000070 0f 59 89 3c 3f fa 3d 3c 47 bc c5 3c 28 4a 37 3c
       0.0167661 0.011595308 0.02413763 0.011187114
000080 62 ce 27 3c 72 60 cd 3b 5d 76 a0 3c 9e fb dd 3c
       0.010242077 0.0062676007 0.01958769 0.02709752
000090 43 94 6b 3b 53 83 b1 3c fd dd 17 3d fd 18 3a 3b
       0.0035946525 0.021669066 0.03707694 0.0028396242
0000a0 20 ec 39 3c bf f7 96 3a 13 8d 4d 3c 9e b2 ca 3c
       0.0113478005 0.0011517926 0.012545842 0.024743374
0000b0 7e c4 bf 3b 24 09 5a 3c d5 fb 45 3b e7 cf 17 3c
       0.005852281 0.013307843 0.0030209918 0.009265876
0000c0 d0 06 6c 3c d3 c6 4f 3c 23 9e 8f 3c 1b 24 db 3b
       0.014405921 0.012681681 0.01753146 0.0066876537
0000d0 b1 94 91 3c d4 03 8d 3c d7 fd cd 3c 47 4d f4 3c
       0.017771097 0.01721374 0.025145454 0.029822005
0000e0 a5 4f 48 3c 5c 76 90 3c d4 e8 a1 3b b0 79 9a 3b
       0.01222602 0.017634563 0.0049410854 0.0047142133
0000f0 49 0c 08 3c 96 ca f4 3c 4a 97 b5 3c 05 5d fe 3b
       0.00830371 0.029881757 0.022166867 0.0077625536
000100 3d 86 1e 3d 0c 66 16 3c d5 18 a5 3c 29 32 84 3b
       0.03870224 0.009179603 0.020153442 0.0040343
000110 f4 ab 52 3c 9a af 18 3c 00 87 9b 3c 02 33 ed 3a
       0.01285838 0.00931921 0.018985271 0.0018096867
000120 d5 a7 cf 3b 8d e4 c9 3c 07 bc cd 3b e8 5c 36 3c
       0.006337146 0.024645114 0.006278518 0.011130549
000130 d2 02 07 3d 5f 33 99 3b ab da a6 3c d7 5b 06 3c
       0.032961674 0.0046753134 0.02036794 0.008200607
000140 a3 20 35 3d fb a2 ae 3c 2b db 05 3c 77 fd 22 3d
       0.044220578 0.02131795 0.0081699295 0.039792504
000150 f8 68 21 3c 81 e3 10 3c 21 0f 5a 3c 89 03 ad 3c
       0.009851687 0.008843304 0.013309271 0.02111985
000160 04 8a 0a 3d 4d dc 8e 3c ca 29 97 3c 27 1d a0 3b
       0.03382303 0.017439032 0.018452544 0.0048862877
000170 19 c7 93 3c b6 7d 77 3c b9 b7 23 3d 3d 52 49 3c
       0.018039273 0.015105655 0.039970133 0.012287674
000180 f5 43 79 3b 94 40 be 3b 43 74 10 3c c7 70 16 3d
       0.003803489 0.005806038 0.008816781 0.036728647
000190 70 54 39 3c 99 b6 46 3d 8f 61 90 3c f1 d9 55 3c
       0.011311635 0.048513982 0.017624645 0.01305245
0001a0 92 f2 6c 3c 59 d3 a2 3c 72 14 df 3c 9b 72 20 3d
       0.01446213 0.019876169 0.027231429 0.039171796
0001b0 42 f7 06 3c 11 df 07 3c 14 a0 4c 3c 3c f9 d8 3b
       0.008237662 0.008292929 0.0124893375 0.006621508
0001c0 5d 72 04 3c 8c 86 cb 3c 8b 34 ae 3b 8a e8 de 3c
       0.008083907 0.02484443 0.005316322 0.027210493
0001d0 13 6a 3e 3c a3 90 f3 3b 4a 8b fc 3b 35 98 4e 3c
       0.01162197 0.0074330135 0.0077070342 0.012609531
0001e0 a0 dd 91 3c 1e f6 21 3c eb dd 3d 3c 45 cb 0b 3c
       0.017805874 0.009885339 0.011588554 0.00853235
0001f0 72 a8 53 3c f5 8b 24 3c 35 cb 7c 3c df c5 1a 3c
       0.012918578 0.010043134 0.015429308 0.00944659

network.4.weight f4 [64, 128]
000000 80 28 3a bc a6 93 2c 3a 99 72 ea bb 5b 0f 18 3d
       -0.011362195 0.00065832806 -0.0071547744 0.03712402
000010 d4 15 c4 3b 37 5f b6 bc 6c 63 8d 3d 42 23 71 bd
       0.0059840474 -0.022262199 0.06903729 -0.058871515
000020 02 21 ab 38 ac 82 85 3c 22 69 77 bc 22 2e 35 bd
       8.1600636e-05 0.01629766 -0.015100749 -0.04423345
000030 fb c4 22 3c b5 51 56 bd 30 e3 f4 bc 48 53 e8 3b
       0.009934659 -0.052324016 -0.029893488 0.007090006
000040 b7 01 a1 bd 4d ea fc 3c fd c8 32 3c f6 c0 ee 3b
       -0.07861655 0.030873442 0.010912177 0.0072861863
000050 95 a8 83 3c b2 61 65 bd fa b8 cb bc 83 5a 02 3c
       0.016071597 -0.056001373 -0.024868477 0.00795615
000060 36 90 16 bd d0 2c 04 bb 69 52 d1 bb 1d 0b 24 bd
       -0.036758624 -0.0020168312 -0.006387998 -0.04004966
000070 55 be c9 3b 36 d7 05 3d ea d2 74 bb 5e 21 1d bd
       0.0061567225 0.032675944 -0.003735716 -0.0383619
000080 30 bb 0e 3c 8c e1 25 bc bb b3 06 be 55 0a 7a bc
       0.008711621 -0.010124575 -0.13154499 -0.015261252
000090 f4 d7 17 bd 61 5c 39 3d ed b6 c4 bb 7e 78 f4 3c
       -0.037071183 0.045254115 -0.0060032518 0.029842611
0000a0 65 1a bf 3c 3d 0b 73 bd 01 b4 93 bd 12 3c ee 3c
       0.023328016 -0.05933689 -0.072120674 0.029081378
0000b0 d9 7e 9d bd 72 b8 fc 3c a8 17 d7 bc cc b8 be 3a
       -0.0769021 0.03084967 -0.026256397 0.0014550923
0000c0 f6 4b 33 bd f3 51 14 bd bc 91 bd bd 96 19 30 3c
       -0.043773614 -0.036210965 -0.09256312 0.010748288
0000d0 52 e1 ee bb 4d a0 f5 bc 2e 49 10 bd ba 84 e1 bc
       -0.007290044 -0.029983664 -0.03522604 -0.02752911
0000e0 e5 c7 ed 3c 7e 04 53 bc 1b 84 8e 3b 19 c5 48 bc
       0.029025981 -0.012879489 0.0043492443 -0.012254023
0000f0 0d 63 1d bd 3b d3 e3 ba 43 e8 67 bd 32 64 fd bc
       -0.03842454 -0.0017381677 -0.056617986 -0.030931566
000100 88 85 0b 3c fb 0a aa bd 5f d9 65 3c 83 9a 2b 3c
       0.008515723 -0.083028756 0.014028876 0.01047385
000110 2e a5 73 bd 1d 5c 42 3d 4c 0e 5e 3c b0 91 8b 3c
       -0.0594837 0.047451127 0.013553213 0.017037243
000120 d9 fc 3a 3d 66 43 8b bd dc 69 2d 39 25 c6 16 bd
       0.04565129 -0.067999646 0.00016538001 -0.03681006
000130 bf d1 31 be 65 71 4d 3d 08 3f 82 bc ae 1a f6 3b
       -0.17365168 0.05015697 -0.015899196 0.0075105047
000140 f9 fc 82 bc 47 4d d8 3c 95 b9 9c bd a2 a4 a5 bb
       -0.015989767 0.026404036 -0.076525845 -0.005055026
000150 e8 55 6d 3d e1 bc 89 bc 44 eb b8 bb 63 05 64 bb
       0.057943255 -0.016813697 -0.00564328 -0.003479325
000160 13 47 92 bc 05 aa af 3b 51 06 18 bb 81 a4 1f 3c
       -0.017856156 0.005360844 -0.0023197124 0.009743811
000170 53 62 51 3c 87 b2 e3 bb 9f 69 cf bc 5d 39 f3 3b
       0.01277979 -0.0069487724 -0.025318919 0.0074226097
000180 63 49 ca bd 46 9e b1 bb df b8 73 3b 5e 8b 17 bc
       -0.09877279 -0.005420479 0.003718905 -0.009249536
000190 34 ea f2 bd 85 ed 23 3d e8 96 95 3c 6e 90 a2 3b
       -0.11861077 0.04002144 0.018260434 0.004961065
0001a0 d8 21 65 3c ec 6a 89 3d 18 d7 55 3c 0f 9c 20 bb
       0.01398512 0.06709847 0.013051771 -0.002450708
0001b0 5e cd 0a bd 70 4b a6 bb a3 e8 03 bd 57 b2 0a 3c
       -0.03388726 -0.005074911 -0.03220428 0.008465371
0001c0 35 90 65 bd 2b 42 4c 3d 1a 99 53 bd 2b 20 9f bc
       -0.05604573 0.04986779 -0.05165968 -0.019424519
0001d0 e7 77 4d bc df cd b1 bc 60 20 8b 3c 62 3c 98 bc
       -0.012540794 -0.021704612 0.016983211 -0.01858348
0001e0 8e 13 01 3d a6 58 eb bd 35 8c 82 bd 95 f4 fd 3c
       0.03151279 -0.11491518 -0.063743986 0.031000415
0001f0 09 3b a8 bc c4 06 2e 3d a2 6a 83 bd 64 4a d5 bc
       -0.020535963 0.04248692 -0.06416823 -0.026036449
000200 1d 3b 0b 3d 9a 3a e0 ba 7c 95 90 bc e9 30 6b 3c
       0.03399192 -0.0017107308 -0.017649405 0.014354923
000210 b4 f8 25 bc 3d 7d 08 3d f8 39 1f 3d e6 e5 80 3d
       -0.010130096 0.03332256 0.038873643 0.0629385
000220 e9 18 b6 3c 8e 87 d5 3c f7 d7 8e 3d b3 00 f9 3b
       0.022228675 0.026065614 0.06974786 0.0075989603
000230 26 72 73 3d 0d 01 a4 3c 61 2f aa 3c 17 6a c9 3c
       0.059435032 0.020020032 0.020774545 0.02458672
000240 64 7a 8d bd 46 9f ee 3c ea 2e 07 3c 4e 52 6e 3c
       -0.0690811 0.029128682 0.008250931 0.01454599
000250 65 7b 4d 3d a2 31 11 3d 5e e9 58 3d 13 0f 18 3d
       0.050166506 0.035447724 0.05295693 0.03712375
000260 8b 0a 6a 3c e9 9e 08 bd 3d 76 0b bc 89 ce 47 bd
       0.01428474 -0.033354674 -0.008512077 -0.04878095
000270 c1 fa 1e bd 63 b4 54 3c 14 c1 87 3b b6 d4 68 3b
       -0.038813356 0.012982461 0.0041428898 0.0035527176
000280 2d 8f c0 bc 90 37 07 3d f6 04 47 3d 06 73 63 bd
       -0.023505772 0.033011973 0.048588715 -0.055529617
000290 3a 79 1c bd 6a 5a ee bb 35 31 46 bc 81 32 15 bd
       -0.03820155 -0.007273962 -0.012096693 -0.036425117
0002a0 55 be 1c bd c9 36 1b 3c f1 39 d1 3c 74 35 db 3c
       -0.038267452 0.009473511 0.025540324 0.026758887
0002b0 46 42 a0 38 67 15 91 bc 0b fb ca 3c f4 7c db 3c
       7.641739e-05 -0.0177104 0.02477791 0.02679298
0002c0 23 7f 04 bd ea 33 45 3c a9 97 d1 3c 9e 58 5c 3d
       -0.03234781 0.012036303 0.025585013 0.05379545
0002d0 a6 37 cc 3c 44 a7 7c 3b f5 8e 72 bc af 20 e3 bb
       0.024928879 0.0038551847 -0.014804591 -0.0069313864
0002e0 79 66 bb bc 43 78 12 bd aa f7 c1 3d 4d cd d0 bd
       -0.022876011 -0.03575922 0.09471066 -0.10195408
0002f0 a8 4d c3 3d 24 6e 85 bd 06 9d c4 3c af c9 01 3c
       0.09536296 -0.06515148 0.024000656 0.00792162
000300 99 72 ce bc 6e 28 4f ba 08 ca e8 3c 1c 87 84 3d
       -0.025201129 -0.0007902448 0.028416649 0.064710826
000310 0d 98 92 bd 3d 7c de 3a b0 a5 a0 bb 08 3e dc 3c
       -0.07157908 0.0016974282 -0.004902564 0.026885048
000320 cb e6 92 bc bc 1b 82 bc 69 e7 37 3c de 16 8e 3d
       -0.017932316 -0.015882365 0.011224606 0.06937955
000330 7a 74 bb 3c 64 7f 04 3d ed d4 da 3c e5 58 29 3d
       0.022882689 0.03234805 0.026712859 0.041344542
000340 a1 b8 11 3d 45 ba d5 bc e8 6c 74 bc 85 7d 64 bd
       0.035576466 -0.026089797 -0.014918543 -0.055783767
000350 87 05 50 3d 7f 38 c6 ba 98 8e 38 3d 9b db 74 3d
       0.05078652 -0.0015123038 0.045057863 0.059779745
000360 e6 3e 67 bd 52 a7 88 bc d9 8a 70 ba 53 93 7b 3c
       -0.05645647 -0.016681347 -0.00091759634 0.015354949
000370 5d dc c0 bd fa ed 15 3d cc 30 68 3d b9 48 8f 3c
       -0.09417031 0.036603905 0.05668716 0.017490732
000380 24 3b 9f 3b 83 eb 56 bc 38 41 91 bb c5 01 71 bd
       0.004859345 -0.013117674 -0.0044328235 -0.05883958
000390 51 b8 a8 bb 8b ab 18 3d ed 4e 6f 3d d9 4c 08 3d
       -0.0051489254 0.03727297 0.05842488 0.033276413
0003a0 9c a8 da 3c 70 c6 42 3d 17 5a d3 ba 21 2c a9 bd
       0.026691727 0.047552526 -0.0016124871 -0.0826037
0003b0 e0 a8 29 3d 7e f6 c5 3c 42 70 b9 3c 98 2f 89 bc
       0.041420817 0.024165388 0.022636537 -0.016746327
0003c0 71 3e a3 3c 42 e5 05 3c 9b e1 ef bb 8a 4a 75 bd
       0.019927235 0.008172335 -0.0073205954 -0.05988554
0003d0 9f c7 e9 3c a0 09 dc ba 70 f4 9d ba 9b 54 c8 bc
       0.02853757 -0.0016787536 -0.0012050997 -0.024454406
0003e0 bd e3 1f 3d 19 dc 17 3d 81 dd e2 3b 5a d1 c9 bc
       0.039035548 0.037075136 0.006923378 -0.02463596
0003f0 29 ec 0b 3d 63 73 b0 bc ab 46 f6 3c 8e 1a 51 3d
       0.034160767 -0.021539396 0.030062994 0.051050715

network.4.bias f4 [64]
000000 68 e2 33 3d ce 5a d4 bc 7f d9 8f bc a9 c8 51 bc
       0.04391709 -0.025922205 -0.017559765 -0.012804189
000010 43 03 0f bd 27 bd a4 bd e3 98 15 bd 74 db 0c bd
       -0.03491522 -0.080438904 -0.036522757 -0.034388974
000020 23 bc 44 bd fe 59 fa bd 21 db 92 bd 2d 25 87 3c
       -0.048030984 -0.12224196 -0.07170702 0.016497219
000030 b5 7e 48 bd 12 0d 57 bd 0f 6d ad bd 50 75 49 bd
       -0.048948962 -0.0525027 -0.08468067 -0.049184144
000040 38 fe af 3c 52 71 9b bd 59 ab 04 bd 07 78 96 bc
       0.021483526 -0.075899735 -0.032389972 -0.01836778
000050 29 c9 a3 bc 0b 19 8b bd 9c 07 22 bd 72 d8 47 bd
       -0.019993382 -0.06791886 -0.039558038 -0.048790403
000060 af 2e 5b bd 98 7f 6d bd 0c 24 3a be 50 ae c4 bc
       -0.053511318 -0.05798301 -0.18177813 -0.0240089
000070 c2 9b 78 bd d7 77 91 bd db b6 24 bc 30 1d 09 be
       -0.060695417 -0.07102936 -0.010053362 -0.1339004
000080 c6 53 4e bd 36 f1 25 bd 32 a3 ac bd db 65 7c bd
       -0.05037286 -0.04051324 -0.084295645 -0.061620574
000090 53 1a 1a bd 59 ab 0b bd 7a e0 b0 bd b2 61 90 bd
       -0.03762276 -0.034098957 -0.086365655 -0.07049884
0000a0 9b dd 0b be 6f 41 2f be fd 3a 8c bd 57 b1 a8 bd
       -0.13658755 -0.17114805 -0.068471886 -0.0823695
0000b0 6f 41 bd 3c 0e 46 ea 3b 46 26 e1 3b 66 c5 ce 3c
       0.02310249 0.0071494645 0.0068710176 0.025240611
0000c0 2a 24 c6 3b 50 ad 88 bd 92 31 7d bd 49 ee 70 bd
       0.0060467916 -0.06673682 -0.061814852 -0.058820996
0000d0 46 ff b0 bc 0d 32 d6 bc c6 9a 3d bd 4b 8f aa bd
       -0.021606099 -0.026146913 -0.04629018 -0.08328112
0000e0 56 bf 47 bd 56 6e 82 bd 23 9c 2a be 38 48 35 bd
       -0.048766457 -0.06368701 -0.16661124 -0.044258326
0000f0 db da 25 ba 1c ee 9b bb 21 09 4f bd fb 91 b8 bd
       -0.00063268625 -0.0047586095 -0.050545815 -0.090122186

network.6.weight f4 [64]
000000 a4 d3 a4 3e 87 bf 96 3e 77 e4 ae 3e a5 89 9f 3e
       0.3219272 0.29443 0.3415868 0.31159702
000010 a2 20 b4 3e 00 81 96 3e 90 09 80 3e e6 5a 97 3e
       0.35181147 0.29395294 0.25007296 0.29561538
000020 09 ea af 3e db ef ae 3e a1 09 97 3e 7a c3 9c 3e
       0.34358242 0.3416737 0.29499534 0.30617887
000030 47 d5 96 3e 8d 8b 9c 3e d2 5a 9d 3e 63 02 aa 3e
       0.29459593 0.3057522 0.30733353 0.33204946
000040 e4 70 99 3e 71 8b 9c 3e a9 0a a7 3e 64 4e a6 3e
       0.2996894 0.30575135 0.3262532 0.32481682
000050 43 a7 c0 3e a4 d2 a3 3e 18 b2 99 3e 1e fb b2 3e
       0.3762761 0.31996644 0.30018687 0.34957212
000060 59 71 93 3e 9c 55 b1 3e 2e ff a5 3e 02 2a ad 3e
       0.28797415 0.34635627 0.3242125 0.33821112
000070 d7 c5 9f 3e e1 00 a5 3e 32 70 88 3e 17 f6 a7 3e
       0.31205627 0.32227233 0.26648098 0.3280494
000080 d7 a8 a7 3e dc e1 99 3e ea 96 98 3e cf e5 9c 3e
       0.32746002 0.3005513 0.29802638 0.3064408
000090 cd d8 9c 3e d8 fe 94 3e 49 ca 8e 3e ff 7a a3 3e
       0.30634156 0.2910068 0.27888706 0.31929776
0000a0 0c 6d 94 3e 40 26 c2 3e 33 99 b8 3e b3 53 a4 3e
       0.28989446 0.37919807 0.36054382 0.32095107
0000b0 cb c8 92 3e 82 37 94 3e 01 c7 7e 3e 55 f2 95 3e
       0.28668818 0.289486 0.24880601 0.29286447
0000c0 7a e2 9b 3e 56 eb 9c 3e 56 e0 b0 3e 26 a9 96 3e
       0.30446225 0.30648297 0.34546155 0.29425925
0000d0 5d 56 b1 3e e6 ee 85 3e b0 4e a9 3e 75 19 b3 3e
       0.34636202 0.26158828 0.33067846 0.3498036
0000e0 2f 35 97 3e 56 cf 94 3e 84 f0 94 3e 77 6b 9a 3e
       0.29532763 0.29064435 0.2908975 0.30160114
0000f0 4b cf 7e 3e bb ee 9c 3e fe 24 d1 3e 83 55 a1 3e
       0.24883763 0.30650887 0.40848535 0.31510553

network.6.bias f4 [64]
000000 03 2e 8c 3c 1a e2 3a 3c 77 58 86 3d 6a 1f 9f 3d
       0.017111784 0.011406446 0.06559842 0.07769664
000010 2d 8a 80 3d 8c dd 80 3b 23 1f a6 3b ff 29 08 3d
       0.06276355 0.0039326604 0.0050696298 0.033243176
000020 3c ae 16 3d 36 12 5a 3d 2d 7d 00 3d bb a1 3d 3d
       0.036787257 0.053240024 0.031369377 0.046296816
000030 c1 f4 2c 3d 16 b1 44 3d 32 4b 76 3d 7a 9f 00 3d
       0.042225603 0.048020445 0.060130306 0.03140209
000040 b1 eb ad 3c c2 55 90 3c 76 29 0f 3d 58 50 dd bc
       0.02123055 0.017619018 0.03495165 -0.02701585
000050 f1 ae a2 3d 6f 47 ec 3c 54 26 34 3d a1 0e 76 3d
       0.07943524 0.028842656 0.043981865 0.060072545
000060 29 1c 13 3d a9 09 4c 3d 12 60 4e ba 07 f1 17 3d
       0.035915527 0.0498139 -0.0007872592 0.037095096
000070 3a fd 86 3b 8c 59 06 3d f2 93 19 3d 56 09 59 3c
       0.0041195424 0.032800242 0.037494607 0.013246855
000080 35 4f c4 3b 20 93 c0 3c 4b 23 c0 3c 49 61 f3 3c
       0.0059908875 0.023507655 0.023454329 0.029709475
000090 d9 a9 fc 3b 0d 1e 36 3b f3 f1 06 3c 81 76 8f 3d
       0.007710677 0.0027788908 0.008236396 0.07005025
0000a0 ad 6a 32 bd 31 80 99 3c 9f 7e 43 3d 67 6d 23 3d
       -0.043558765 0.018737884 0.047728177 0.039899256
0000b0 2f c7 81 3d 64 8c 8f 3c e5 30 6c bc ec 13 02 3d
       0.063368194 0.017522998 -0.014415954 0.03175728
0000c0 b2 70 d9 bc 6d 5a 61 3d 94 04 00 3c 63 44 96 3c
       -0.026542995 0.055017877 0.0078135915 0.018343156
0000d0 0f 59 94 3a d4 ce bf 3c 1f 70 52 3d 1b 04 5a 3d
       0.0011318045 0.023414053 0.05137646 0.05322657
0000e0 26 b2 2d 3d 08 e1 02 3a ac 0d fa 3c f6 69 21 3d
       0.042406224 0.0004992639 0.030524097 0.039407693
0000f0 65 95 94 3c 48 45 7c 3c 56 00 46 3d 40 56 17 3c
       0.018137643 0.015397377 0.048340164 0.009236872

network.6.running_mean f4 [64]
000000 a0 f9 8f 3d 8d 1e b4 3d 5f d2 40 3d f1 d6 9a 3d
       0.07030034 0.087948896 0.047075626 0.07560528
000010 d1 2f 36 3d 8c 3e 18 3d 7f ed 6f 3d cf d1 2c 3d
       0.044479195 0.037169024 0.058576103 0.042192277
000020 4f 90 37 3d 34 e9 9c 3c 1c 63 a5 3c 90 eb b1 3d
       0.044815358 0.019154169 0.02018886 0.08687508
000030 02 28 5e 3d 41 1c 51 3d 47 fa 14 3d c6 b0 57 3d
       0.054237373 0.051052336 0.036371496 0.05265882
000040 d4 e6 8a 3d 1a 2b 0f 3d cc 97 a1 3d ec 15 7c 3d
       0.06782308 0.034953214 0.07890281 0.061544344
000050 b1 08 8c 3d eb 02 59 3d 1b 3c 58 3d eb 05 0b 3d
       0.06837595 0.0529813 0.052791696 0.03394119
000060 dc e8 8d 3d 86 b0 11 3d ff 62 a4 3c a4 22 87 3d
       0.0692918 0.035568736 0.020066736 0.06598404
000070 b0 98 b2 3c b3 dc 55 3d 4c 7f f3 3c 75 ff de 3c
       0.021801323 0.05221243 0.029723786 0.02722142
000080 a5 36 9e 3d 92 d1 14 3d 9c cf 13 3d bb a3 32 3d
       0.07725266 0.036332674 0.036086664 0.043613177
000090 cd 00 52 3d 15 d5 19 3d cd a9 b3 3c a4 8a 4d 3d
       0.051270295 0.037556726 0.021931553 0.050181046
0000a0 ab 86 18 3d 70 cb 3c 3c 7b 40 39 3d f8 1f c4 3c
       0.037237804 0.011523113 0.04522751 0.023941025
0000b0 db 6f 66 3d 31 cc c9 3d bc 8d 72 3d ef 60 de 3d
       0.056259017 0.098533995 0.0592172 0.10858332
0000c0 82 69 8c 3d 7c 38 ca 3c 26 2e fc 3c 08 a0 65 3d
       0.068560615 0.024685137 0.030783724 0.05606082
0000d0 f3 84 67 3d d1 af 4a 3d 66 a5 3e 3d 38 fc d3 3c
       0.056523275 0.049484078 0.046544455 0.025877103
0000e0 75 80 de 3c ea 06 1a 3d bd 16 e3 3c e3 f2 f9 3c
       0.027160862 0.03760425 0.027720803 0.030511325
0000f0 92 c2 88 3d 57 d2 5b 3d 9d a2 50 3d 67 f9 f6 3c
       0.06677736 0.053667393 0.05093633 0.030148221

network.6.running_var f4 [64]
000000 02 1a 24 3c a7 ab a1 3c ac 9c d7 3b e8 ae 38 3c
       0.010015966 0.01973517 0.006579956 0.01127217
000010 8e 81 13 3c b2 a1 de 3b 67 43 17 3c 06 46 e1 3b
       0.009003056 0.006794178 0.009232379 0.0068748025
000020 d7 e2 02 3c 1d b0 38 3b 5a c2 31 3b 14 77 6e 3c
       0.007988653 0.0028181144 0.00271239 0.014554758
000030 57 cb 46 3c 5e 58 0a 3c 0c 11 ad 3b 77 5f 1c 3c
       0.012133441 0.00844392 0.005281573 0.009544245
000040 7c 86 15 3c 5f eb a6 3b db 89 5e 3c 42 3d 04 3c
       0.009126302 0.0050939764 0.013582672 0.008071246
000050 87 7c 39 3c 51 f5 08 3c 2c 19 11 3c 7c 55 8a 3b
       0.011321194 0.008359269 0.008856099 0.0042216163
000060 03 5f 2c 3c 2d ac 9b 3b d4 fe 62 3b 63 21 17 3c
       0.010520699 0.0047507496 0.0034636753 0.009224269
000070 87 12 29 3b 65 c8 20 3c 73 98 56 3b 5c d9 85 3b
       0.0025798397 0.009813403 0.0032744675 0.004084749
000080 ca 96 73 3c b5 c8 97 3b 24 a4 b5 3b 1a c0 dd 3b
       0.014867494 0.0046320804 0.0055432487 0.006767285
000090 2b bb ee 3b 7b ec bd 3b a1 ac 46 3b a7 45 20 3c
       0.0072854958 0.005796013 0.0030315297 0.009782231
0000a0 e5 08 12 3c 88 d5 af 3a 2b 7e d4 3b 5f 50 51 3b
       0.008913253 0.0013415078 0.006484767 0.0031938774
0000b0 c1 a6 f9 3b 0b 66 6f 3c cf 27 cf 3b 86 cc 90 3c
       0.0076187556 0.014611731 0.006321884 0.01767565
0000c0 e2 3b 56 3c 81 ec 58 3b dd e1 89 3b 88 f4 1d 3c
       0.013075801 0.0033099952 0.004207833 0.00964082
0000d0 b5 03 2e 3c 41 53 cf 3b 22 76 eb 3b d6 47 65 3b
       0.010621001 0.0063270633 0.0071857134 0.0034985445
0000e0 bd 8a 40 3b 90 7a c6 3b 13 f8 90 3b c3 ea 84 3b
       0.002937957 0.006057091 0.004424104 0.004056306
0000f0 40 af 26 3c 1a 1f 08 3c b9 1e e5 3b 02 eb af 3b
       0.010173619 0.008308196 0.006992188 0.0053685913

network.8.weight f4 [32, 64]
000000 33 1e 82 3d 75 42 c6 3c 54 9a a9 3c d2 e9 1a 3d
       0.06353416 0.024201611 0.020703472 0.037820645
000010 1b ce 91 bd ce e0 ac bd 01 c7 c8 bd c8 2a 56 bd
       -0.071193896 -0.084413156 -0.09803582 -0.052286893
000020 a1 f1 18 3d 89 fa 96 3d d3 5a 91 bd 91 cd e2 3c
       0.03733981 0.073720045 -0.070974015 0.027685912
000030 b5 e4 3b bb 8a 13 c2 3c 47 0e 34 3d 6f f7 cc 3c
       -0.0028670256 0.023690958 0.04395893 0.02502033
000040 06 da 3f bd bf f9 ab 3d 51 0f 9d bd 32 8e 47 3a
       -0.046838783 0.08397245 -0.07668937 0.00076124363
000050 35 80 5d bd e3 16 e5 bd 40 cc dc bd b9 02 e6 bb
       -0.054077346 -0.11186006 -0.10781145 -0.0070193675
000060 d0 a0 82 bb 8e 2d bd bd c3 64 4e 3c d3 83 41 3a
       -0.0039864555 -0.092372045 0.012597266 0.0007382009
000070 84 d1 4c ba 09 3b e3 bd 7a fb 37 bd 22 4d d4 3c
       -0.00078132027 -0.110952444 -0.04491756 0.025915686
000080 dd 47 45 3c c5 cf 80 3c 77 2a ff 3c 5c e4 e8 3c
       0.012041059 0.015724072 0.031148179 0.028429203
000090 ba 2f 9b 3c 1e d7 92 3b 4e 8f 0c bd 92 5b c3 bb
       0.018943656 0.0044812104 -0.034316353 -0.0059618438
0000a0 bb ca 0a bb e3 04 80 bb 87 7a b7 3c 24 69 61 3d
       -0.0021177966 -0.0039068325 0.022397293 0.05503191
0000b0 b6 15 a1 3c 6d 32 28 bd 35 3c 8f bc 3b dc 0e be
       0.019663673 -0.041063715 -0.017484764 -0.13951199
0000c0 ce 36 3a 3d cf 81 28 3d cf 3c 18 3d 02 7f 9d bc
       0.045462422 0.04113942 0.037167367 -0.019225601
0000d0 e6 88 c3 3c 2e d4 80 bc 2c d8 4f 3d 90 d8 c7 3b
       0.02386899 -0.015726175 0.050743267 0.0060988143
0000e0 67 46 e1 3c 09 71 8d bc 4c 8f 42 3d 3c 02 54 3d
       0.02749939 -0.017265813 0.04749994 0.051759943
0000f0 4f 06 6d 3b d8 6f 66 bd 40 e8 64 3d c2 8e 63 3d
       0.003616709 -0.056259006 0.055885553 0.055556066
000100 f0 cd 98 bd c4 d1 95 bb d4 d0 4e bd e9 cd 28 3c
       -0.074611545 -0.004572125 -0.050492123 0.010302999
000110 d7 e6 a8 bc 58 48 00 3d af 1f a3 3d 17 25 29 3d
       -0.020617886 0.031318992 0.079650275 0.041295137
000120 bc 23 08 3e 6e 3d c9 bc 24 09 84 bd 28 61 09 bd
       0.13294882 -0.024565425 -0.06447056 -0.03353992
000130 fc 9b 04 bd 96 17 97 bd 0c 9f 51 bd 4f de 77 3c
       -0.03237532 -0.073775455 -0.05117707 0.015128686
000140 95 67 12 bd 2f 5d 2b 3d ec e9 b6 3d 44 12 8f 3d
       -0.035743315 0.041836914 0.08931336 0.06985906
000150 95 1c de bd 2b 00 9a 3d e0 82 bc 3d c0 bc 6b b8
       -0.10845295 0.07519563 0.0920465 -5.6204153e-05
000160 80 fe 83 3d 57 ab 3b bd 8e c1 94 3c 79 7b 75 bd
       0.064450264 -0.0458177 0.0181587 -0.059932206
000170 3b f2 a0 3a f1 56 9f bb c2 66 c7 3d cc 2f d5 3d
       0.0012279222 -0.004862659 0.09736396 0.10409507
000180 79 f5 54 3c f6 ea 1e bd a3 4a 9d 3d 7b 8c 8c 3d
       0.012997978 -0.038798295 0.076802514 0.06862732
000190 80 db 93 bd 28 ea d3 3d 61 af 25 3d 6d 8d b9 bd
       -0.07219601 0.10347396 0.040450457 -0.09060178
0001a0 01 89 9e 3c 54 4a 2b 3b 05 66 fa 3d af e9 35 3c
       0.019352438 0.0026136832 0.1222649 0.011103078
0001b0 08 c6 a4 bc 5c 34 14 3b 58 3f f5 3a ab d9 10 3d
       -0.02011396 0.0022614216 0.0018710895 0.035363834
0001c0 7a ec b4 bd c8 cc 6f bc 75 85 22 bd 84 c4 39 3d
       -0.08834167 -0.014636226 -0.039678056 0.045353428
0001d0 8d e0 eb bc 0c c9 09 3d 6c 07 94 3c 8c 17 a2 3d
       -0.028793598 0.033639 0.018069945 0.079146475
0001e0 0f 93 ab 3c 4a 4e 1b 3d cb 22 df b9 6d a2 a4 bd
       0.020944146 0.03791646 -0.00042559797 -0.08038793
0001f0 ee 6f fe 3c 70 fe 3e 3d 46 ed ef bd 7c 2c 32 3d
       0.031059232 0.04662937 -0.11715178 0.043499455
000200 eb 2b 85 3c b8 b3 6f b9 b3 42 81 b9 5f ff 90 bd
       0.016256293 -0.00022859767 -0.00024654492 -0.07079958
000210 3f cb b9 bd 8d c5 2e bc 2e 37 86 3c 2e 9a c0 bd
       -0.09071969 -0.010667217 0.016383734 -0.094044074
000220 52 40 fc bb e3 27 ce 3c 21 5a 43 bc c4 f5 63 3d
       -0.0076980973 0.025165504 -0.011923344 0.055654302
000230 02 9e b4 bb 24 61 31 3d 5c cd e2 3c 69 b2 c2 3c
       -0.005512 0.04330553 0.027685814 0.023766713
000240 26 62 73 3c f2 b4 07 bd 48 13 a4 bd 20 ff 08 3d
       0.014854943 -0.033131547 -0.0801149 0.03344643
000250 39 81 7f bd f3 55 d0 bc 26 87 ae bd 20 50 81 bd
       -0.062379096 -0.025431609 -0.08521871 -0.06314111
000260 8d c4 06 3d bd 84 0d 3d 28 cf f5 bb a7 9f 81 bd
       0.03290229 0.034550417 -0.0075015016 -0.063292794
000270 2a 71 bb 3c c6 83 bf 3c a4 9d 0d ba 29 76 3b 3c
       0.02288111 0.023378264 -0.00054022134 0.011441746
000280 57 a6 51 bd f6 41 41 bc b5 19 d5 bc 62 a1 e1 bb
       -0.051184025 -0.0117955115 -0.026013235 -0.0068856934
000290 73 0c c5 3c 57 de 47 bc 5e ae c8 bc 85 e9 b4 3c
       0.024053788 -0.012199006 -0.024497207 0.022084007
0002a0 45 67 e0 3c 62 98 0d 3b 60 9b 23 be 8a 93 9c 3c
       0.027392993 0.002160572 -0.1597724 0.01911332
0002b0 8f 8d f9 bb 97 04 75 3d 93 cd 0f bd 11 39 43 bd
       -0.007615752 0.05981883 -0.03510816 -0.047661845
0002c0 f8 8d e0 3c 3d b3 28 3d 53 3b 56 bd dd b7 6f bc
       0.027411446 0.04118656 -0.05230267 -0.014631239
0002d0 17 6d 36 3d 8f e6 a9 bb 5a e8 c9 bd ce 4a f7 bb
       0.04453763 -0.0051849554 -0.09858771 -0.007546759
0002e0 a8 43 97 bc 6f 8b 25 3b a2 69 e2 bd 15 9e 51 bd
       -0.018464878 0.002526011 -0.11055304 -0.05117615
0002f0 30 ba 82 bc 34 cb 93 bd 2f 16 f9 bd 76 e6 50 3d
       -0.015957922 -0.07216492 -0.12162434 0.051001035
000300 de 0f 6a bc bb f7 dc bd 39 40 87 3c ac 23 ae bd
       -0.01428601 -0.10789438 0.016510116 -0.085028976
000310 66 5e 58 3d 55 29 b2 3d 15 77 84 3b 58 f6 4f bd
       0.0528244 0.0869929 0.004042516 -0.05077204
000320 12 0f 04 3e f7 ae e8 bd d0 00 50 bd 16 ff 2f bd
       0.12896374 -0.11361497 -0.050782025 -0.04296788
000330 dc d1 df 3c f8 94 c3 bc 09 5f 86 3c 77 17 bd bd
       0.027321748 -0.023874745 0.016402738 -0.09232991
000340 3c de 36 bd 2d be c4 bc 2d 23 67 3c 14 d0 85 bd
       -0.044645533 -0.024016464 0.014107508 -0.065338284
000350 3f 62 d3 3c ef b1 37 bd 90 93 4e 3d 28 56 42 be
       0.025803683 -0.044847425 0.050433695 -0.18978179
000360 81 34 d0 bd 29 fa 58 bc 3e 73 01 be b7 d3 ba 3b
       -0.10166264 -0.013243237 -0.12641618 0.005701508
000370 9c f4 09 bd ab 87 16 bc eb 1e 93 3d 6a 34 f2 bc
       -0.033680543 -0.009187619 0.071836315 -0.029566009
000380 bd cf 1b 3d d8 65 8c bd aa f1 79 bd d9 2f 0f 3d
       0.03803991 -0.06855363 -0.061021484 0.03495774
000390 d9 e2 1b bd 78 0d 4d 3d c4 e4 a6 3d ba 50 78 ba
       -0.038058136 0.050061673 0.08149102 -0.00094724784
0003a0 00 23 60 bd 8f 4d ef bd de 68 10 bc 61 7a d7 bd
       -0.05472088 -0.11684715 -0.008814065 -0.10521389
0003b0 f2 9f 7b bc 5f 48 97 3c 10 35 a9 bb 2e e8 20 3d
       -0.015357958 0.018467126 -0.0051637962 0.039283924
0003c0 f8 b4 27 3d c5 98 44 3c a2 1d 82 bd bc 7f 1c 3e
       0.04094407 0.011999314 -0.06353308 0.15283102
0003d0 d1 b4 87 bd 8a d1 b2 3d 0f 36 c3 ba 99 2f 16 be
       -0.06626285 0.08731373 -0.001489343 -0.14666595
0003e0 52 93 79 3d 3b 2c c8 bc 28 28 9a 3d dd cb 98 bd
       0.06093151 -0.024435153 0.075271904 -0.07460759
0003f0 3c 81 0c bc 25 ae 8d 3d c9 4b 00 3d cb 1a c1 3c
       -0.008575734 0.06917981 0.031322274 0.023572346

network.8.bias f4 [32]
000000 46 22 4d 3d a9 89 90 3d 16 3f ed bc b6 71 4f 3d
       0.050081514 0.070575066 -0.028960746 0.050645553
000010 bf fc bb bc d6 33 af bc 7c 48 28 bd 07 ed c9 3d
       -0.022947667 -0.021387022 -0.04108475 0.098596625
000020 41 64 d5 ba 35 ed 45 be 89 b9 85 3d 43 79 81 3c
       -0.0016280488 -0.19328769 0.06529529 0.015804892
000030 2f 61 35 3d 96 30 d0 3c a2 8b 0c 3d d6 ce 9b 3d
       0.044282135 0.025413793 0.03431285 0.0760781
000040 6b 11 0a 3d a6 f9 9e bc 0b 46 84 3d c0 18 db 3d
       0.033708017 -0.019406151 0.06458672 0.1069808
000050 38 69 2b bd c8 cf b5 3d 5b 55 83 3c 4f ee 27 3e
       -0.04184839 0.08877522 0.016031912 0.16399501
000060 b5 4a aa 3c 9f 23 b2 bd ea 8f ad bc 55 52 58 bc
       0.020787576 -0.086982004 -0.021186788 -0.013203223
000070 a4 e2 65 3b 4d 11 3a 3d 38 5c 9f 3c ba bf ae 3d
       0.0035077715 0.045426656 0.019453153 0.08532663

network.10.weight f4 [32]
000000 e6 d3 2d 3f 9c 9a 3e 3f e1 a9 30 3f 2b b9 1c 3f
       0.67901456 0.74454665 0.69009215 0.61220044
000010 cf 43 3c 3f 7f ac 49 3f 50 ff 38 3f 96 58 1f 3f
       0.7354097 0.78778833 0.72264576 0.62244546
000020 ca d6 1c 3f 18 be 4b 3f 77 0f 10 3f d4 ad 2e 3f
       0.6126524 0.79586935 0.562736 0.6823399
000030 f5 a9 35 3f 94 b3 1b 3f 0b dd 23 3f ca cf 2a 3f
       0.7096246 0.6082089 0.6400916 0.6672331
000040 1b e0 29 3f d1 9d 69 3f b2 b9 26 3f 71 43 20 3f
       0.6635758 0.91256434 0.651271 0.6260291
000050 a2 bb 2b 3f 24 a4 2c 3f 17 29 5b 3f f6 38 25 3f
       0.6708318 0.6743796 0.85609573 0.6454004
000060 38 79 20 3f 5d fb 0e 3f 81 00 1f 3f 6e aa 28 3f
       0.62684965 0.558523 0.62110144 0.65885055
000070 48 da 2b 3f cf 3f 1b 3f 21 f6 2f 3f 81 17 27 3f
       0.67129946 0.6064424 0.6873494 0.6527024

network.10.bias f4 [32]
000000 0c 60 34 bb 68 af 9f 3e 6c 8a 06 be f5 e4 9d 3d
       -0.0027523069 0.31188512 -0.13138741 0.07709686
000010 a3 35 8a 3e bd d3 09 be a0 6e 54 be a5 4e c3 3d
       0.26994047 -0.13459678 -0.20745325 0.09536485
000020 92 8c 00 3e 38 4b 3a 3e 5e f2 e7 3c 10 d0 2d bd
       0.12553623 0.18192756 0.028313812 -0.042434752
000030 55 f9 99 3e 38 ce 2f 3d a0 b0 d0 3d 13 88 52 bd
       0.30073038 0.042921275 0.101899385 -0.0513993
000040 bf c0 24 3e d2 cd d1 be 3c fd d2 3c 52 84 8d 3d
       0.16089152 -0.4097734 0.025755517 0.06910004
000050 3e a5 b6 3d 4e 31 50 3c 22 28 c8 be 61 a7 16 3e
       0.08918236 0.012707068 -0.3909312 0.14712287
000060 94 22 f3 3d aa 14 d7 3d 9a 34 27 3e b8 aa 00 3e
       0.1187183 0.10501988 0.1632866 0.12565124
000070 18 c2 65 3e 4e 63 36 3d bb 6f 0d 3e 5f b6 ab 3d
       0.22437322 0.044528298 0.13812153 0.08384394
