models/mlp_multiclass_crossentropy20250904_205459.pth (torch, 82274 bytes, 21 tensors)

network.0.weight f4 [128, 48]
00000000: 3fea f9bb 5cda 4cbc f24a 313c 551a 54bc
00000010: f75b 743c 9528 00bc 8715 a7bc aa8d 663c
00000020: 23c8 603b 05eb 5f3c a47c febc 20a7 a5bc
00000030: 7794 71bb 4097 8dbc 272f 59bb 53d3 903c
00000040: efc0 afbc c35d 963a fcb1 243c eb13 cf3a
00000050: fc4d c13b e7f6 49bc f50c d1bc 304a 3f3b
00000060: 7d5a 87bb b5a1 f93a b908 11bc 64b6 dd3b
00000070: 2ecf a13b a67c c7bc 939a 633b 8eb7 38bc
00000080: 441a 1bbb ab89 eebb 27b8 87bc c01c e23a
00000090: ad15 8e3c 9073 fb3b 1868 84b9 247c cbbb
000000a0: 554a a4bd af17 4c3b 3029 cbbb fa12 19bc
000000b0: 19cb bcba cc58 ceba 528e 63bb 3b22 2dbb
000000c0: 881f 633d 106b acbb 057d 89bc 048d 54b9
000000d0: c712 1abb 58cd 26bc eeac 0a3b 3d74 983c
000000e0: 8973 8c3a 2c3a 913b 8a27 88bc 69e5 99bc
000000f0: bd87 23bc c2d0 d2bb a33f f43c 6967 493c
00000100: fcb2 59bc a526 3e3b aaf8 04bc ec16 a13c
00000110: 884e 043c c2b9 06bb 240e 92bc b023 7cba
00000120: 5b49 72bc 78a0 f3ba e25e 7c3c e8c5 cb3c
00000130: 7e8b 1fbd 9e0a 3e3b de58 8ebc 481c 6a3c
00000140: 9743 7b3a 24f3 6cbc 8bba 923c 22f2 973c
00000150: a1b3 b3bb 356c fd39 6cbb bfbc 088c 3e3b
00000160: f37a 40bd 6324 babc ffc7 2fbc 8da4 153d
00000170: f306 57bb 2cf5 2438 53d7 843b 7c60 48bc
00000180: 9170 903c ab9d e2bb e5d1 45bc 6d6b 663a
00000190: 19b9 c63a c791 203b 110c 2abc 1855 c7ba
000001a0: df9a 98bb c849 f43b 80b6 cc3c 907d 2cbd
000001b0: 5443 dfba eec6 663c 350f 82bc 82d5 193d
000001c0: 4e7c 993c 71f0 35bc 2740 77bc 6ed5 1ebd
000001d0: 570d aabc 67b9 01bc 033d 90ba a1c1 603c
000001e0: 6142 893c c0a8 ea3b 9f17 a83c 4f7c d9ba
000001f0: 5dfe 043a 2ca6 09bc 27bb 96bc ccb3 e23c
00000200: c6cd 3bbd bd46 0e3c 23cb 2ebc 20c7 b9bc
00000210: 13ac 11bd 8de9 753b 9a75 82bd e1a7 453c
00000220: 349b 33bd 789f 5fbd 46f8 83bc 2048 8a3c
00000230: e4a0 1e3b 1b29 fa3a 2a6a 41bc a48d 233c
00000240: 2aac 6d3d 1401 4c3c 217d b73c 5b1f ad3b
00000250: 17e8 9b3b 819f 923c f62f 643c 3a61 3fbb
00000260: 9e13 15bc e52e 5a3a 8325 c0bc 3107 6bbb
00000270: 61e1 2c3c dd5c 62bc ddff f1bc 5324 a339
00000280: 20a6 a1bc 0a7c 9d3b 6359 1c3c 5317 49bd
00000290: 2d8c cbbb 5d59 173c f00d 423b 889f 84ba
000002a0: 24dc d43c 4425 97bb ef08 4dbc acb2 683d
000002b0: c743 23bc a368 9bbc 5592 963c 3f5d 05bc
000002c0: fa3a 2d3d ed6c 753c 5ac7 8bbc 648f 133c
000002d0: 31aa 16ba e8f6 703c 4fbe 84bc bef5 d0ba
000002e0: e7da 863c c5fe afbd bc45 f9bc 3a95 a13b
000002f0: 2d10 8ebc 78b6 2fbc ad7b abbc c72e ab3c
00000300: c2bf 0fbb cdf0 2c3c c35a 2dbc 2aac e7bb
00000310: d742 fe3a 0aec 2cbc 9afa 4c3c 52f1 c2bb
00000320: 345f da3b 2436 3c3b 76d1 a93c 0b6d a73c
00000330: 1fc1 41bb 297c 8e3c c163 2c3c bd3a e03a
00000340: e156 ad3c b561 8d3a 82dd 6fbc 89e5 8b3c
00000350: ce7b f63b 5f77 093c 283a 81bc aee4 41bc
00000360: 08c7 903b 470c ee3b 33a4 02bc 6bc7 cd3a
00000370: 4dc7 1fbc 61c5 c2bb c048 dbba 55dd 45bc
00000380: 7eb1 233d 0563 1ebc b6fc 09bc a6e4 a2bb
00000390: deb7 63bb fc29 4f3b a418 fc3c 2d04 173d
000003a0: d41b 953d c033 863b 0fd7 c83c 0f67 9338
000003b0: 3e9f 823b 9e97 a83b 4564 99bc ad7f 6e3c
000003c0: a238 58bc a8bc d0ba 68c5 32bc 3dde 5cba
000003d0: a3be 28bb 4c1f 97bb 3518 833c d310 0dbc
000003e0: 1432 cbbb 7e54 793b 065c 4a3c 1743 4d3c
000003f0: 19d6 64bc 2210 bf3b 2572 7ebc f2aa f6bb
-0.0076268013 -0.012503233 0.010821091 -0.012945731 0.014914504 -0.0078221755 -0.020396007 0.014071861
0.0034298978 0.013666873 -0.031065293 -0.020221293 -0.0036862174 -0.017284036 -0.0033139677 0.017678892
-0.021454303 0.0011472035 0.0100522 0.0015798783 0.005899189 -0.0123269325 -0.025518874 0.0029188506
-0.00413066 0.0019045385 -0.008852177 0.0067661274 0.004938028 -0.02435143 0.0034729585 -0.011274232
-0.0023666779 -0.007279595 -0.016567303 0.0017251 0.01734432 0.0076736882 -0.00025254558 -0.006209867
-0.0802199 0.0031142046 -0.0061999783 -0.009342903 -0.001440379 -0.0015743016 -0.003472228 -0.0026418108
0.055449992 -0.0052617863 -0.016783247 -0.00020270428 -0.0023509727 -0.010180794 0.0021160203 0.018610114
0.0010715585 0.0044319835 -0.016620416 -0.01878615 -0.009981093 -0.0064335773 0.0298155 0.012292721
-0.013287302 0.0029014733 -0.008115927 0.01966425 0.008075364 -0.0020557498 -0.017829008 -0.0009618355
-0.014787997 -0.0018587252 0.015403481 0.024874642 -0.03895139 0.0028998028 -0.01737636 0.014288969
0.0009584962 -0.014462266 0.017911216 0.018548075 -0.00548406 0.0004833654 -0.0234048 0.0029075164
-0.046992254 -0.022722429 -0.010728835 0.03653388 -0.0032810539 3.932898e-05 0.004053989 -0.012230035
0.0176318 -0.006915768 -0.012073969 0.00087898114 0.0015161365 0.0024500953 -0.010378853 -0.0015207855
-0.004657134 0.0074550845 0.024989367 -0.042111933 -0.0017033615 0.0140855145 -0.015876392 0.037557133
0.01873603 -0.011104689 -0.015090979 -0.03877776 -0.020758314 -0.0079177385 -0.0011004511 0.01371804
0.016755285 0.00716123 0.020519076 -0.0016592833 0.00050733035 -0.008401435 -0.018399788 0.027673624
-0.045850538 0.0086838575 -0.010668549 -0.022677958 -0.035564493 0.003752324 -0.06370087 0.012063951
-0.043849185 -0.05459544 -0.016109597 0.016880095 0.0024204785 0.0019085737 -0.011805097 0.0099825
0.058025517 0.012451429 0.022398533 0.005283279 0.004757892 0.017898323 0.01392745 -0.0029202239
-0.009098915 0.0008323028 -0.023455387 -0.003586244 0.010551781 -0.013816086 -0.02954095 0.00031116846
-0.019732535 0.0048060464 0.009542796 -0.04909451 -0.0062117786 0.009237614 0.0029610358 -0.0010118345
0.025983877 -0.0046125967 -0.012514337 0.05681102 -0.00996489 -0.018970793 0.018380323 -0.008139907
0.042292573 0.014979583 -0.017062832 0.009006355 -0.00057474064 0.014707305 -0.016204027 -0.0015942378
0.016461803 -0.08593515 -0.03042876 0.0049311193 -0.017341698 -0.010724656 -0.020932997 0.020896329
-0.0021934365 0.010555458 -0.010580721 -0.007070084 0.0019398582 -0.010554323 0.01251092 -0.005949178
0.006664181 0.0028718794 0.020729762 0.020437738 -0.0029564572 0.017393189 0.01052183 0.0017107349
0.021159591 0.0010786565 -0.014640214 0.017077224 0.007522083 0.008390277 -0.015774801 -0.011834307
0.0044182576 0.007264647 -0.007973718 0.001569969 -0.009752107 -0.0059439396 -0.0016730055 -0.012076695
0.03996419 -0.009667163 -0.008422067 -0.0049711047 -0.0034747045 0.0031610718 0.030773468 0.036869217
0.072806984 0.0040955245 0.02451661 7.0287024e-05 0.0039862683 0.0051450273 -0.01872457 0.0145568075
-0.013197096 -0.0015925365 -0.010911323 -0.000842545 -0.0025748394 -0.004611885 0.016002754 -0.008609968
-0.006201038 0.0038044746 0.012351042 0.0125282025 -0.0139670605 0.0058307806 -0.015530144 -0.0075277025

network.0.bias f4 [128]
00000000: 2046 ad3c c47d 963b 8b95 10be 071e 52bd
00000010: f285 14bb 878b 123b 55e7 75bd ec94 1bbd
00000020: 704a 27bd ff3f d1bc e510 353b 63ef 72bc
00000030: 7907 9739 88be a6bd 5607 aabd 6dc3 06be
00000040: e93e ac3c 6900 bdbd 4226 ebba cafc 9db9
00000050: db08 84bd 5c67 21be 1036 c8bd 369d a7bc
00000060: baa4 00be 7bf9 09bd 0d92 53bd 05e7 dcbd
00000070: 27b0 053c 96a1 95ba c5e0 c0bd 2e1f d1bd
00000080: d799 36bc 4e4c 69bd 8ab0 00be dda2 bbba
00000090: 0296 06be 1b69 80bd e873 ab39 06b1 5bbd
000000a0: c9b9 81bd 9c39 10ba ada1 0dbe 55ae 1bbd
000000b0: ee04 97bd 37ae 823c 4c42 c7bd dfb0 8cbd
000000c0: 809d b8bd abea 87bc 5517 a8bc f6b5 bdbb
000000d0: d31a acbd 8135 6ebd c592 10ba 2f55 2db9
000000e0: 7e8f 80bd b37d 8bbd 40ee adbc 34eb e3bd
000000f0: dc5d 63bd fcc9 a4bd c205 d8bd 0ef1 46b9
00000100: 4e48 abbd e59e babc 03f2 2cbd d5c7 693c
00000110: 98cd e9bd 52d4 9cbd 4587 bebd bdcb 14be
00000120: 8b7c 40bd 43db 6cba aad2 4fbd 04dd 92bd
00000130: 9094 2639 4046 eabd 297b f6bd 4637 133a
00000140: 951f 34b9 b69f 22bd 38cd cd39 f904 033a
00000150: 321b acbc d32e 9ebd ee39 8bbd ee05 803c
00000160: af4b 51bc 2164 403c fead 20bb b132 573c
00000170: a86d 69bd c6ac 01bd 38a7 e4bb bb77 4d3c
00000180: 665d c1bd a484 1f3b 57c4 2bbd 31d4 973b
00000190: b154 35bc b631 98bd 513d c9bd aea5 20bd
000001a0: 8212 0abd d76e cf39 b28c ab3a 423a 2cba
000001b0: 4452 b8bd 15c7 6abd 3252 19bd c172 bfbd
000001c0: 350a c1b9 b7a9 bcbc 02b2 10ba 5ed0 87bd
000001d0: 2897 c4bd 844c 1f3b 3e4f 4bbd 9e4b 1dbe
000001e0: ce24 99b7 a4d8 45bd 4907 99b8 9cf4 98bd
000001f0: 26f9 b5bd 8712 5fbd 48ad e9bd b04c 8bb8
0.021151602 0.004592629 -0.14119546 -0.051298168 -0.0022662845 0.0022360997 -0.06003507 -0.03798382
-0.040842474 -0.025543211 0.0027628478 -0.014827582 0.00028806532 -0.0814181 -0.083021805 -0.13160487
0.021026092 -0.09228594 -0.0017940479 -0.00030133716 -0.064470015 -0.15762085 -0.097759366 -0.020460706
-0.12562838 -0.03368519 -0.051652957 -0.10786251 0.008159674 -0.0011415954 -0.094178714 -0.10211025
-0.011145077 -0.056957535 -0.12567344 -0.0014315505 -0.13143161 -0.06270047 0.00032702019 -0.05363562
-0.06334264 -0.00055017485 -0.13831206 -0.038008053 -0.07373987 0.015952213 -0.09729442 -0.06869673
-0.09014416 -0.01659139 -0.020518938 -0.0057895137 -0.08403554 -0.058156494 -0.00055150344 -0.00016530299
-0.06277369 -0.068110846 -0.02123177 -0.11128846 -0.055509433 -0.08046338 -0.10547973 -0.00018972551
-0.083634004 -0.022780845 -0.042222988 0.014268835 -0.11416167 -0.076576844 -0.09303144 -0.14530845
-0.046993773 -0.0009035358 -0.050738014 -0.07171062 0.00015886337 -0.114391804 -0.1203521 0.00056158414
-0.00017177903 -0.039703093 0.00039253547 0.00049979944 -0.021009061 -0.07723775 -0.067981586 0.015627827
-0.012774392 0.011742623 -0.002451777 0.013134644 -0.056989342 -0.03165891 -0.006977942 0.012540753
-0.094416425 0.0024340535 -0.04193529 0.0046334495 -0.011067555 -0.074313566 -0.09826148 -0.039220504
-0.033709057 0.000395647 0.0013088195 -0.00065699604 -0.09000066 -0.057318766 -0.037431903 -0.093480594
-0.00036819433 -0.023030145 -0.00055196893 -0.0663154 -0.09599143 0.0024307081 -0.049636118 -0.15360877
-1.825616e-05 -0.048302308 -7.2969655e-05 -0.074685305 -0.08885412 -0.05446103 -0.11410004 -6.642321e-05

network.2.weight f4 [128]
00000000: 4c6e 8c3d 1db4 843d 0399 9e3d c200 953d
00000010: a13a 793d e0b0 943d eaa7 973d 017e a03d
00000020: 8d5a 8f3d a063 393d 0b55 973d 3872 843d
00000030: db59 dd3a c51a 833d 64f7 b83d 946f ca3d
00000040: aab0 763d e84c dd3d 272c 46b7 9be4 b439
00000050: 2158 923d a067 b23d 67b8 963d ea73 9a3d
00000060: ac41 c53d 2027 943d e1c7 ad3d f281 553d
00000070: c9ce 5e3d 087a e939 521b a63d 9db3 9e3d
00000080: de99 993d 2fc1 a43d 23b8 b53d 3b7b a5b8
00000090: 8a62 923d 6b0d 793d 88a5 2db8 ad33 8a3d
000000a0: 5167 593d db16 8dba 8b14 ca3d 4ebc 623d
000000b0: 5d9d 9d3d fcf2 793d 6aef 663d 64cc 9c3d
000000c0: 5b9c b53d c235 913d 02fc bf3d 1df7 853d
000000d0: 3877 513d 9400 a13d d0d9 38ba ea0c f339
000000e0: fa01 a23d e1da 993d 726d c23d ece3 d83d
000000f0: 82f5 a13d 08cd ac3d 601c ae3d 4a25 e139
00000100: d7ce 8a3d d0ca 723d 390f a53d 74f3 903d
00000110: 0568 bc3d a4b0 903d 7f49 a83d 5d97 b63d
00000120: e889 903d b1f7 3f3a d314 883d 7d50 803d
00000130: 45be 80b9 2e20 a33d dc32 a93d 6a19 f73a
00000140: 37d5 e7b8 8f42 8a3d 76e8 3abb af0e ecba
00000150: 4ea1 a23d 47dd 883d 5e84 993d 51db 8e3d
00000160: 3498 6f3d ea4f 903d 6149 f3ba b655 b43d
00000170: 66a5 933d b1c8 a13d 807f a03d 6c2b 5e3d
00000180: c84b 973d 5d17 4d3d 224b cf3d 3c4f 953d
00000190: 299a 8a3d 79c2 503d 9308 8c3d 7060 823d
000001a0: 3077 7c3d 3f94 f93a 5c92 153a ba30 f9b8
000001b0: 1b7d 9d3d b136 be3d a690 6d3d 523e 6d3d
000001c0: a5a8 a3b8 eab8 7b3d c44e c939 e342 8f3d
000001d0: 906e 993d 77d3 54bb bf0e 973d 9d91 a43d
000001e0: 6a3b 65b9 cd11 b33d 0945 513a 9ba7 8e3d
000001f0: 6c10 dd3d 3a90 aa3d e1ca b43d d5a3 b0b9
0.06856975 0.064796664 0.077440284 0.07275535 0.06084693 0.07260299 0.07405074 0.07836533
0.06999693 0.045261025 0.073892675 0.06467098 0.0016887741 0.0640159 0.09031561 0.09884563
0.060227074 0.10805684 -1.1812e-05 0.000345026 0.071457155 0.08711171 0.07359391 0.0754164
0.096316665 0.07234025 0.084853895 0.05212588 0.054396424 0.00044532144 0.0811068 0.07749102
0.07500051 0.08044659 0.08873012 -7.8907666e-05 0.07147701 0.060803812 -4.1400577e-05 0.067481376
0.053077046 -0.0010764258 0.098671995 0.055355363 0.0769603 0.061022744 0.056380667 0.07656172
0.08867713 0.070903316 0.093742386 0.06541274 0.051139086 0.078614384 -0.00070514996 0.00046358194
0.07910533 0.07512451 0.09493531 0.10590348 0.07908155 0.08437544 0.08501506 0.00042943127
0.06777733 0.05927545 0.08059544 0.07077685 0.09199528 0.070649415 0.08217143 0.08915589
0.070575535 0.00073229807 0.06644597 0.06265352 -0.00024555824 0.07965122 0.08261654 0.0018852178
-0.00011054653 0.06750976 -0.0028519905 -0.0018009747 0.07940923 0.0668283 0.0749595 0.06975425
0.05849476 0.070464924 -0.0018561297 0.088054106 0.072092816 0.07899607 0.07836819 0.05424063
0.07387501 0.05007111 0.10121752 0.072905034 0.06767685 0.050966714 0.06837573 0.0636605
0.061637104 0.0019041373 0.0005705708 -0.00011882321 0.076898776 0.09287775 0.057999276 0.05792076
-7.803858e-05 0.061455645 0.00038396392 0.069951795 0.07491791 -0.0032474676 0.073758595 0.08035586
-0.00021861275 0.087436296 0.00079830043 0.06965562 0.10794148 0.0832829 0.088277586 -0.000336914

network.2.bias f4 [128]
00000000: 534f 953c e156 4eba dc43 afbc b9fe b43c
00000010: 2a86 e53b a3c3 143c 490e 5e3c f367 b03b
00000020: c531 0dba 129a baba 1252 c23b 9094 143c
00000030: 467d 16ba a3c1 393c b1ca 4c3c 6a04 c63c
00000040: 91f3 e83c 4a69 de3c f4fc 12b9 406f fb3a
00000050: 2dad 093c f9d2 bebc 3588 5e3b e6d2 bf3c
00000060: 94b2 963c 9613 573c 63a8 46bc e607 cebb
00000070: 5c0d 833c 7428 b7b9 93f3 d93b eb29 ec3a
00000080: 389a 723c 9235 633c 128e 0a3c c28a 3fb9
00000090: a60d d13b 4ed8 b5ba 0675 14b9 a14d a9bb
000000a0: 909f fbba adf6 1eba cf02 bf3c 0702 523c
000000b0: 957f 303c 611e 2c3c 19eb 53bc 56fc 7b3c
000000c0: 1933 b83b 2561 6a3c 8740 f63b 49ee c9bb
000000d0: d0fd 17bb 7a7f 873c 50db 0eba c663 87b9
000000e0: 551e 993c 4e1a 4c3c 868f d43c 27da 163c
000000f0: fa79 f63b b716 623c ea94 303c 2472 3d3a
00000100: b5dc 2bbc 7b37 baba 16be 393c b982 283c
00000110: 705d b93b 4614 883c bdcd 563c 71e7 68bc
00000120: 2fef 293c bfa9 de39 ca5e 0c3c e2fb 39b8
00000130: 5a7a df39 91dc 813a 01b2 2e3c 5760 b93a
00000140: e36c 1f39 8acc 293c 3528 55ba 9c5f 7db8
00000150: 34b3 253c d9b9 833a 4d75 623c d080 853b
00000160: 567c 8b3b 405f 0b3d 0964 323b 2ff2 633c
00000170: 9afe 873c 1a99 083d f64c 8b3c 4813 c539
00000180: 3fe9 9b3b 87b2 0c3b e5e4 c73c 05a1 ae3c
00000190: 31dc 013c f946 3fbb fb57 a8bc ee98 553c
000001a0: 5f17 933c c506 efb9 2237 5f3a 8db3 3eba
000001b0: 7f31 993b 5e43 bd3c d2dc db3b 551c 3a3a
000001c0: ba53 acb9 32aa 4e3c c26e e23a 3041 393c
000001d0: f1c4 96bb 6faf 6e3b 942f b53c 3c49 853c
000001e0: aef7 56b9 a58e f43c c2d7 fd38 a87f a63c
000001f0: 845c 973c 9779 683c 0e99 5a3c bb39 193a
0.018226301 -0.00078712223 -0.021394663 0.022094117 0.007004519 0.009079847 0.0135532105 0.0053834855
-0.00053861394 -0.001423659 0.0059301937 0.009068623 -0.0005740713 0.0113376705 0.012499497 0.024172027
0.028436454 0.027149815 -0.00014017877 0.0019182935 0.008403105 -0.023293959 0.0033955697 0.023415994
0.0183957 0.013127228 -0.012125107 -0.0062875627 0.015997581 -0.0003493462 0.0066513508 0.0018017864
0.014807276 0.013867753 0.008456724 -0.00018266871 0.006379801 -0.0013873668 -0.00014157975 -0.005166725
-0.0019197334 -0.0006063979 0.023316769 0.012817866 0.010772605 0.01050529 -0.01293447 0.015379986
0.0056213257 0.014305388 0.0075150165 -0.006162439 -0.0023192056 0.016540278 -0.000544955 -0.00025823544
0.018691221 0.012457443 0.025947344 0.009207285 0.007521865 0.013799361 0.010777691 0.0007226786
-0.010489632 -0.0014207208 0.011336824 0.010285073 0.0056568906 0.01661123 0.013110575 -0.014215336
0.010371967 0.0004246961 0.008567521 -4.434202e-05 0.00042625034 0.0009907653 0.010662557 0.0014143091
0.00015203985 0.010363707 -0.00081312965 -6.0408944e-05 0.010113526 0.0010049894 0.013821912 0.0040741935
0.0042567654 0.034026384 0.002722027 0.013912722 0.016600896 0.033349134 0.017004471 0.00037589134
0.0047580297 0.0021468715 0.024401138 0.021317014 0.007926033 -0.002918659 -0.020549765 0.01303695
0.01795548 -0.00045590676 0.00085149903 -0.000727468 0.00467509 0.023103412 0.0067096734 0.0007099559
-0.00032868778 0.01261382 0.001727544 0.011307046 -0.004601114 0.0036420485 0.022117414 0.016270272
-0.00020500898 0.029853174 0.00012104168 0.020324543 0.018476732 0.0141891455 0.013342155 0.00058450893

network.2.running_mean f4 [128]
00000000: e330 873d f0c9 733d c2e8 803b 82ce 283d
00000010: f617 443d 013f 593d cdc6 f23c 2c00 ee3c
00000020: 29f7 2c3d 80f8 283d 9799 953d 9a3d 173d
00000030: eff4 ba3b 9498 943c 3989 b13c 38c4 273d
00000040: 9412 913d f369 243d 4498 1b3a 4b95 763b
00000050: 8056 bd3c 81e8 423a 14ce c43c 9c7a 8b3d
00000060: f329 923c 8ac9 483d 1d9c 703d 5a8a f33b
00000070: 292f 8c3d c37b 273c 37a8 c43c 5e61 643c
00000080: fe06 223d 4d2e ba3c be3d 783c 1ed0 493b
00000090: 4d7f 193c 8e02 fc3c 8a3d f03b 580e c13c
000000a0: 8f8d 113d 7b03 e03b ab78 213d a6e2 4d3d
000000b0: fb23 db3c 2f6e 8b3d 58ed 9c3c 4bf3 253d
000000c0: c91b 1d3d 8f43 3c3d 11ee 523d 5485 823d
000000d0: 5ea7 aa3c f449 c03c dafb 783b 63df 513b
000000e0: f138 623d f158 f73c 2324 273d 1728 cd3c
000000f0: f8fc 113d a35b 0a3d 6a36 d63c dafe a83b
00000100: dd18 933c 5aab 603d d96a 203d 9677 8f3d
00000110: 46e9 673c 667c cb3c 1da4 023d 5f7b 9a3c
00000120: f209 133d 837d 823b 16fe 0b3d 07eb a13b
00000130: bbb9 043b 5b2f b03c 78ca 143d 51e9 053c
00000140: d81d d83b ea91 523d de20 043c adcd cc3b
00000150: eb57 403d 6b2d 403d 10b7 2d3c 71dc 6a3d
00000160: 22d5 333d 9736 ae3d f54b 363c a4f6 933d
00000170: 3f91 d33c d2d0 893d 8926 483d 3b38 233d
00000180: e221 7b3c d729 373d 02c3 3c3d 182a 703d
00000190: 3446 4d3d a305 733c e9a6 f33c 12b9 b33c
000001a0: 0303 893c 9483 3a3c 8985 ef3b 40d4 b23b
000001b0: 512b c03c 066a db3c 6606 2d3d 429b 003c
000001c0: f151 a43a d06f 0c3d 20ed ea3b 8fa4 123d
000001d0: e1fb 8b3c b63d 433c a77d 433d 640c b33c
000001e0: 827a 863b f64b 2d3d 75b3 003c c6af 3e3d
000001f0: bcb9 003c 5540 f43c b1a3 6d3c 1bb4 d03b
0.06601121 0.059518754 0.003933997 0.041212566 0.047874413 0.0530386 0.029635811 0.029052816
0.042227898 0.041252613 0.073046856 0.036923982 0.005705468 0.018139161 0.021671878 0.040958613
0.070836216 0.040140104 0.000593547 0.0037625607 0.023112535 0.00074351585 0.024024047 0.06810495
0.017842269 0.049020328 0.05874263 0.0074322643 0.068449326 0.010222378 0.024005992 0.01393923
0.03955745 0.022727156 0.015151439 0.0030794214 0.00936873 0.030762937 0.007331555 0.02356641
0.03553539 0.0068363524 0.03942172 0.050264977 0.026750555 0.06808125 0.019156143 0.040515225
0.038356576 0.045962866 0.05149657 0.063730866 0.02083176 0.023472764 0.0037991912 0.0032024018
0.055230085 0.030193778 0.040805947 0.02504353 0.03564164 0.033778798 0.026148994 0.005157334
0.017956192 0.054850914 0.039164398 0.07005231 0.014154738 0.024839591 0.031894792 0.018857656
0.035898156 0.0039822473 0.034177862 0.0049413475 0.0020252306 0.021506956 0.0363259 0.008173303
0.0065953545 0.051408686 0.008064477 0.0062501044 0.046958845 0.046918314 0.0106027275 0.057339136
0.04390443 0.08506506 0.011126508 0.07224777 0.025826095 0.067292824 0.048864875 0.039848547
0.0153279025 0.044717636 0.04608441 0.058633894 0.05011578 0.014832887 0.029742675 0.021938834
0.016725069 0.01138391 0.00730962 0.005457431 0.023458155 0.026783954 0.04224243 0.007849516
0.0012536627 0.03428632 0.007169381 0.035801467 0.017087879 0.0119165685 0.047727253 0.021856494
0.0041039595 0.04230877 0.007855286 0.04655435 0.0078567825 0.029815832 0.014504359 0.0063691265

network.2.running_var f4 [128]
00000000: d189 473b 10d2 883b a6e5 b53a 4806 263b
00000010: 6b14 273c badf b23b 7da3 303b 7a0a 683b
00000020: b9cb 003c 4701 8b3b c917 983c 334b 8e3b
00000030: 9b35 9a38 5db6 0b3b 625e aa3a 8a98 573b
00000040: 1f30 833b 36bd a23b dac1 7f35 fff7 e338
00000050: 2b4b 003b 3a4a 4938 3d94 193b da21 7e3b
00000060: 3ca6 fb3a 734b 603b c7d0 3a3c 916c be3a
00000070: 42c7 ff3b 969c 6039 bb6d d83a 73f2 903a
00000080: 163b 093b 6f78 053b 2299 c03a 586b 4f38
00000090: f8ce df3a f11c 823b ebdf 5639 5cda 2e3b
000000a0: e8aa 803b 85ed 8239 4268 773b daae 003c
000000b0: 1ffc 063b e876 2b3b 5536 063b ff1c 763b
000000c0: 2265 943b 30e9 8a3b 0311 c63b ef8c b43b
000000d0: 0aee 043b 2e92 cb3a 0a4e 9838 a3b5 3637
000000e0: 9523 e43b f108 cf3a 7b94 513b 6e3d 243b
000000f0: b674 863b 8be2 2b3b fb0f d33a 0d9c 4f39
00000100: 6838 033b 945e cf3b 474f 963b 3213 a63b
00000110: 9247 923a 1262 4c3b dfc4 a33b 74e2 153b
00000120: b9c6 443b 7b04 dc38 823e 873b 0bda 5639
00000130: 3ff2 7f37 8113 fa3a b621 663b b050 5739
00000140: 94a8 9639 2e69 f33b d4b1 5839 9fc1 1a39
00000150: 0bba 5c3b cf96 ea3b b7b7 dd39 00be 603b
00000160: 7b2d 073c fae0 c23b 3960 4f3a 8e57 263c
00000170: 9f00 133b 35e9 f53b 8993 b43b 6675 c13b
00000180: 2535 ac3a 677c fe3b 9aad c53b b802 373b
00000190: b374 4f3b be15 1c3b 0c3c 273b f792 383b
000001a0: 330e 393a d2ef 273a 6a4c a238 3f9f 9f39
000001b0: bdd9 e23a 3601 bb3a b327 b13b cb9e e839
000001c0: 2b1d 1a37 f7e3 e43a 19db c539 0867 743b
000001d0: b7c8 e23a ef53 b539 bcbb bf3b 0bd0 583b
000001e0: dbad 2038 dbae c53b 7be6 6739 4549 ce3b
000001f0: 6c05 a839 a04b 023b 96fe 463a c261 9038
0.0030447135 0.004175432 0.0013877645 0.0025333334 0.010197739 0.005458799 0.0026952915 0.0035406635
0.007861071 0.0042420956 0.01856603 0.0043424605 7.353277e-05 0.0021318414 0.0012998099 0.0032897317
0.004003539 0.0049664034 9.5276994e-07 0.00010870396 0.0019576054 4.7991263e-05 0.0023434304 0.0038777501
0.0019199322 0.0034224659 0.011402315 0.0014528205 0.007805736 0.00021420637 0.0016512194 0.0011058584
0.002093976 0.0020365973 0.0014694075 4.9452618e-05 0.0017075231 0.0039707352 0.00020492046 0.0026680445
0.0039266236 0.00024972498 0.0037751351 0.007854188 0.0020597053 0.0026163403 0.0020479162 0.0037553904
0.0045286575 0.004239224 0.0060445084 0.0055099647 0.0020283484 0.0015531236 7.262461e-05 1.0890336e-05
0.0069622495 0.0015795511 0.003197937 0.002506103 0.0041032685 0.002622756 0.0016102785 0.00019799192
0.0020022634 0.0063284133 0.0045870873 0.005068206 0.0011160246 0.0031186384 0.004997834 0.0022870572
0.0030025674 0.00010491252 0.0041273246 0.00020489858 1.5255587e-05 0.0019079299 0.0035115308 0.00020534056
0.0002873583 0.00742831 0.00020665611 0.00014758714 0.0033680226 0.007159091 0.00042289283 0.0034292936
0.0082505895 0.0059472295 0.00079107616 0.010152711 0.002243079 0.007504607 0.0055107516 0.0059038876
0.0013138397 0.0077662948 0.006032658 0.0027925204 0.0031655252 0.002381667 0.0025517968 0.002816377
0.0007059306 0.00064062804 7.738995e-05 0.0003044549 0.0017307323 0.0014267329 0.005406344 0.00044368798
9.1859065e-06 0.0017462958 0.00037738009 0.0037292857 0.0017302249 0.00034585546 0.005851237 0.0033082988
3.8308888e-05 0.0060328073 0.00022115737 0.0062953555 0.00032047497 0.0019881502 0.0007591037 6.884664e-05

network.4.weight f4 [64, 128]
00000000: c0a6 8d3c 7920 d939 2222 70ba e50e 70bb
00000010: b01f c5bc 8c17 4ebc 788c e2bc 5e3f fb3b
00000020: 4275 5f3b 0370 593b 31bc aa3b 5002 5eba
00000030: ec53 5a3b 8791 1ebc ddfb 1cba 11ce 1b3c
00000040: a44a 4a3c 9656 0bbc 03c0 dcb7 89d7 a63a
00000050: 6470 c9bb 8c20 61bc c19c c4bb 9e7a 1dbb
00000060: 1919 bf3b e3d7 b4bc be74 b83a 6679 87bb
00000070: 0975 96bb 3c31 6839 4e43 d2bc 114b b93b
00000080: 177e c6bc 5d67 62bc 3b23 98bc 878f 4439
00000090: cb7f e7bb c865 b43b 88b7 3a39 051b 52bb
000000a0: 5aaa 92bc 2cd6 a9ba 3c0b 10bc e480 7dbc
000000b0: 02d7 473b 9cd6 913b 1280 d13b 7afa d1bc
000000c0: 9c40 b6bb 7cbb bc3b 219c 64ba e8b8 923b
000000d0: 61b0 013c f803 52ba 45fa a339 bd7a 203a
000000e0: 341d 80bc ad60 b6bb 1656 acbc 4e82 c4b9
000000f0: 922c 86bc e038 3fbb 2d9a 17ba a747 2eba
00000100: d091 bdbb 1b16 13bc a55a 2e3c 8b0e 533c
00000110: 44a3 40bc 63fc 70bc d4a8 10bc e598 333b
00000120: f5f6 3fba 0148 25ba 997f 85bb a53c 79bc
00000130: 7007 dab9 dcac 003c b29b e93b ae47 4b3a
00000140: 274e aeba a3b5 82bc 83b6 a339 6ad5 bc3a
00000150: 7c34 44bc 2035 b8bc e705 a1bb 3560 f73b
00000160: 0c14 e0bc d3ab b73b e00f ad3a 881d 4bbb
00000170: 335f b7bb 6b04 0cbc b4cd 83bb e7c6 60bc
00000180: f259 f23a 43f9 99bc dfe7 ccbb e4c8 bf3b
00000190: a8fb 8cbc 37c2 a7bb 6bd7 1f3c 0c67 453a
000001a0: 9701 9dba bd39 17bb 1ddd 273b 67c3 3e3a
000001b0: 04c4 2ebc b693 bdbc e872 11bc dd87 c0b8
000001c0: 22ed 7039 5c29 25bc fe75 27bb e0cf bd3b
000001d0: 6c7a 30bc 8851 11bb f2fb 54bb ac4d 2539
000001e0: 0d1c 4cba b67e 8ebc c500 afb9 ee35 fc39
000001f0: 2dde 66bc 5287 44bc 2917 09bc d142 a53a
00000200: 35ee 003c 56ca b93b 2735 debb baa2 6abb
00000210: dfd5 99bc 4b03 663b 912e 443c 3433 b8bc
00000220: 867b 483c e8b1 00bc 9e99 aa3b c7d9 7b3c
00000230: e303 3f3b 6dff c9bc c7d4 223c 2e6b 8ebc
00000240: 2fb3 8dba 8772 16bd 5ba9 05b9 3ff1 86b9
00000250: cd6e 013c 553d c23b fcea aabc 7b64 393c
00000260: 7bd8 0dbd 40c5 273c 654b 1d3a 37ce 1f39
00000270: bd50 6f3a a346 053b 194e 3bbc 884f 8a3c
00000280: 843e 07bb f1d1 01bc 50bf ffbc 762b 8b3a
00000290: 4853 88bc 7133 b93c 4835 173a ae7b 1ebc
000002a0: bfb5 a239 77ec 533b 7940 d73c 6a67 c83a
000002b0: 001a ecbc c4e0 d8bc a7a2 933c 7bc1 f53b
000002c0: f491 c43c f6ef 25bc d187 1f3a 511c 003d
000002d0: f2fe 79bc 8770 403a f40e 97b9 e75a 8339
000002e0: 0e8d d03b 118e dc3b 3148 cc3b 0283 c53b
000002f0: 4708 eabc 1f9b f93c e9bd ab3c efc1 19bb
00000300: 878f d1bc f341 993c 1854 933c 42ef 543c
00000310: 656b fe3c 22bf 63bc f684 c7bb ce38 73bc
00000320: 7cf2 d7bb f9bb f039 fb4b 663c 7dab 74bb
00000330: ab7a 933a ba22 973b ea4a f4bb 9c9f a6bb
00000340: be01 9b3a 963e 98bc 3994 8e3a 5896 96b9
00000350: 9916 e8bc 5dce 35bd 8be1 283c 6fb2 b8bc
00000360: 7068 913c 5bcf 123c 32df caba 6b59 e93c
00000370: 2284 5d3c 802b d93c 1452 0a3c fa36 913b
00000380: a91b 5b3c e588 3b3c 05c6 193d 3b15 b8bb
00000390: 1a54 1a3c 1b95 843c fb9f 3a3c dc66 a6bb
000003a0: 1ab9 0e3c b312 0fbb f465 8eba 67e5 4e3b
000003b0: 933f 84ba 6e65 b3bc 6914 b7bb 82ee 30bc
000003c0: c9f8 4c39 fb86 ab3c 4473 87bb 76fa e739
000003d0: cff5 71bc 99ee c9ba 2bb7 ac3b 6a0c 5ebc
000003e0: ba7a d23a bccd 233c d03e 00ba 8f6f 133a
000003f0: 4e37 c2bc 819d 1c3c 6f70 153c 7b9f c43a
0.017291427 0.0004141366 -0.00091603596 -0.0036629972 -0.024062961 -0.012578856 -0.027654871 0.007667466
0.003409699 0.0033178336 0.0052104224 -0.00084689725 0.0033314181 -0.009678251 -0.0005988458 0.009509579
0.012346897 -0.00850453 -2.6315456e-05 0.0012729029 -0.006147431 -0.01374067 -0.006000132 -0.0024029384
0.0058318493 -0.022075599 0.0014072878 -0.004134345 -0.0045915884 0.00022143585 -0.025666859 0.0056547006
-0.024230046 -0.013818589 -0.018571487 0.00018745485 -0.0070647947 0.0055052973 0.00017806713 -0.0032059562
-0.017903496 -0.0012957505 -0.008791741 -0.015472624 0.0030493145 0.0044506323 0.006393441 -0.025632132
-0.0055619013 0.0057596546 -0.0008720775 0.004477609 0.007915587 -0.00080114556 0.00031276248 0.0006121805
-0.015638925 -0.005565724 -0.021037143 -0.00037481118 -0.016378675 -0.0029178187 -0.0005783167 -0.000664825
-0.0057852045 -0.008977438 0.0106417285 0.012881885 -0.011757676 -0.014708611 -0.008829314 0.0027404365
-0.0007322871 -0.000630498 -0.0040740487 -0.015212213 -0.00041585742 0.007853713 0.007129156 0.00077545166
-0.0013298438 -0.015955752 0.00031225765 0.0014406864 -0.011975404 -0.02248627 -0.0049140337 0.0075493106
-0.02735331 0.0056052 0.0013203584 -0.0030992944 -0.0055960654 -0.008545975 -0.0040223245 -0.013719297
0.001848994 -0.018795615 -0.006253227 0.0058528055 -0.017209843 -0.0051195878 0.0097559495 0.0007530309
-0.0011978623 -0.0023075186 0.0025613972 0.0007277042 -0.010666851 -0.023141723 -0.008877493 -9.18058e-05
0.00022976522 -0.010080662 -0.0025552507 0.005792603 -0.010771375 -0.002217384 -0.0032498804 0.00015764561
-0.00077861623 -0.017394405 -0.00033379174 0.00048105366 -0.014091057 -0.0119951535 -0.008367338 0.0012608414
0.007869293 0.0056698723 -0.0067812386 -0.003580256 -0.01877874 0.0035097178 0.011973993 -0.022485353
0.0122364815 -0.007854916 0.005206301 0.015371746 0.0029146604 -0.02465793 0.009938425 -0.017385092
-0.0010810847 -0.036730316 -0.00012746958 -0.00025738214 0.007899952 0.0059277215 -0.020864002 0.01131546
-0.03463028 0.010239899 0.00060003094 0.00015240243 0.00091291574 0.0020336292 -0.011432194 0.016883627
-0.0020636627 -0.007923589 -0.031219155 0.0010617811 -0.016641274 0.022607537 0.00057681324 -0.009673042
0.0003103446 0.003233699 0.02627586 0.0015289609 -0.028820992 -0.026474364 0.018021895 0.0074998713
0.023995377 -0.010128012 0.0006085607 0.031277005 -0.015258538 0.00073409866 -0.00028812105 0.00025053995
0.0063644713 0.006730803 0.006234192 0.0060275802 -0.0285684 0.030469475 0.02096458 -0.002346154
-0.025581134 0.018708205 0.017984435 0.012996497 0.03105707 -0.01390055 -0.006088848 -0.014845086
-0.0065901857 0.00045916418 0.014056201 -0.003733366 0.0011251768 0.004612294 -0.0074552195 -0.005084945
0.0011826081 -0.01858453 0.0010877914 -0.00028722244 -0.028331088 -0.044386256 0.01030768 -0.022546021
0.017749995 0.00896057 -0.0015477894 0.02848502 0.013520272 0.02651 0.0084424205 0.0044316025
0.013373294 0.011446212 0.03754236 -0.0056177652 0.009419465 0.01618438 0.011390681 -0.0050781798
0.008711124 -0.0021831214 -0.0010864125 0.003156984 -0.0010089747 -0.021898951 -0.00558715 -0.010799052
0.00019547636 0.020938387 -0.004133614 0.0004424636 -0.014768078 -0.0015406191 0.0052708588 -0.013552764
0.0016058304 0.009997781 -0.00048921723 0.00056242285 -0.023708012 0.009559036 0.009121045 0.0015001142

network.4.bias f4 [64]
00000000: 9b0b 0bbc dfa5 4abb b953 8bbb 7b17 b2bc
00000010: ba27 0cbc 295a 40bc 20ae 34bc e84e 71ba
00000020: 399b 45bc 47b8 f5bb ef4b 3dbc a67e 02bb
00000030: d7b3 d1ba 7731 36bc 60ad e9b8 d3c6 443b
00000040: b28f b639 7fc1 2bbc 5002 2abc 51e7 1dbc
00000050: d6a5 54ba e93c bd3a 1774 fcbc 1800 57ba
00000060: c776 33bc a853 a3bb 54e2 31bc 79a5 e5ba
00000070: 1204 c6bb 398e 89bb bf09 3cbc a98a 67bc
00000080: 90ed 3d3c 387e 5b3c 1954 8dbb 730b 70bc
00000090: 936b aebc bb33 11bc 2bcf 6dbb 7814 a6bc
000000a0: 6b76 19bb b67f 8cbb 24b2 1fbb 7842 17bc
000000b0: 0b02 21bc 76d1 cabb 6061 cc3a 1114 94bb
000000c0: 07bc aabc 42b9 11bc 4089 06bc 8637 e0bb
000000d0: 3852 1b3a acdc ecbb 1a37 a6bb c26d e3bb
000000e0: 2935 9b3a 7ff2 02bb 6a05 1dbb bad4 29bc
000000f0: be64 efbb b092 24bb 7589 36bd fcaf 6cbc
-0.008486654 -0.003092162 -0.004251924 -0.021739712 -0.008554393 -0.011740246 -0.011027843 -0.00092051784
-0.012060934 -0.007498774 -0.0115537485 -0.0019911914 -0.0015999031 -0.011120192 -0.000111425994 0.0030025735
0.00034820806 -0.010483145 -0.010376528 -0.00963767 -0.00081118697 0.0014437708 -0.030817075 -0.0008201613
-0.010953612 -0.004984338 -0.0108571835 -0.0017520628 -0.0060429657 -0.0041978625 -0.011476933 -0.01413218
0.011592284 0.013396792 -0.0043130037 -0.014651167 -0.02129153 -0.008862431 -0.0036286812 -0.020273432
-0.002341653 -0.0042876853 -0.0024367655 -0.009232156 -0.009827147 -0.0061895205 0.0015592985 -0.0045189937
-0.020841612 -0.008894267 -0.008211434 -0.0068425564 0.00059250323 -0.0072284546 -0.0050724866 -0.0069405744
0.0011841404 -0.0019980965 -0.0023959526 -0.010365659 -0.0073057106 -0.0025111847 -0.044564683 -0.014446255

network.6.weight f4 [64]
00000000: a5e2 ef3d faf0 de3d 2996 f23d 85d7 ec3d
00000010: a8f5 033e 69b0 d43d 5761 023e a060 ac3d
00000020: 0e64 ff3d e15a 0b3e 54de fd3d ea07 e83d
00000030: 6175 c83d 2512 ce3d 2bfc bc3d 0bce c13d
00000040: ea84 fd3d 8464 083e 6f5c e43d 94e8 023e
00000050: a1fc e43d 2d2c df3d 28b9 d43d 7c77 cf3d
00000060: 4bf3 dd3d 1b84 e73d 3ac0 053e 22f2 f53d
00000070: e60f fc3d 4c5f ed3d 38ef 053e 1b89 c93d
00000080: 1602 c73d 22b1 b23d 1f1a 023e 383b 053e
00000090: 061a c13d c1a6 083e 8ff1 f63d 027c f83d
000000a0: 7ed5 e63d bebe f63d dbda fa3d 0d24 d33d
000000b0: 5288 d63d 4f30 bc3d 7602 bd3d 735b 003e
000000c0: b5d2 c63d 30e7 003e 71a7 e43d 5ae0 ee3d
000000d0: 3224 e83d 81f9 be3d ebea 013e 8929 ca3d
000000e0: 9ca9 d43d 50eb d73d 36c9 d33d 6e02 113e
000000f0: 30e3 cc3d 26c0 ff3d 4eac aa3d 3cdd cd3d
0.11713151 0.108858064 0.11845047 0.115645446 0.12886679 0.1038521 0.12732445 0.08416867
0.12470256 0.13608886 0.12395921 0.113296345 0.09788013 0.100620545 0.09227785 0.09463128
0.12378867 0.13319594 0.11150443 0.12784034 0.11180998 0.10897098 0.10386878 0.10130212
0.1083742 0.11304494 0.1306161 0.12009074 0.1230772 0.11590442 0.13079536 0.09840604
0.09717195 0.08725192 0.12705277 0.13010871 0.09428792 0.13344862 0.120577924 0.121330276
0.11271189 0.120481 0.122487746 0.103096105 0.1047522 0.09188902 0.09228985 0.12534885
0.09708158 0.12588191 0.111647494 0.116638854 0.11335029 0.09324933 0.1268727 0.098712035
0.10383913 0.10542929 0.10341112 0.14161083 0.1000427 0.12487821 0.08333646 0.10051963

network.6.bias f4 [64]
00000000: 5bb9 093d 6b5f 293d 92ee 7f3d db1d 893c
00000010: 3b36 463d a17d f43c 01a4 573d 5e11 f53c
00000020: 6e48 173d c038 883d 152c 143d 1b76 2f3d
00000030: d5db 3a3d 60f1 d43c a164 ed3c 17a8 623c
00000040: d9ba 473d 7967 303d d380 ec3c 47e5 573d
00000050: 980e 413d 8087 453d 73b0 01bc 128c 2f3d
00000060: 38af 2a3c 906c 0a3d 54e2 493d b8fe 533d
00000070: 619a 413d 8cbd 133d 7ead 143d 3500 033d
00000080: edc6 0d3c 8d43 083c 39c3 873d d51a 413d
00000090: 0017 783b 3208 573d 4f89 3f3d 2240 cb3c
000000a0: 9e3f 683d e288 863d d0f0 4e3d 9877 063d
000000b0: b268 083d 644b e53c 1d8c 2c3d de43 3a3d
000000c0: f0c5 0b3c 9af9 333d 704d 213d bd2f 103d
000000d0: 7f76 693d 8371 4a3c 4f7d 4c3d c080 d43c
000000e0: 61ae 223d 45dd e23c 5caf 1a3d 8f33 343d
000000f0: b813 c33c 77e1 803d 1ace 65bb ed91 8e3c
0.033624034 0.041350763 0.062483378 0.016737869 0.048391562 0.02984506 0.05264664 0.029915508
0.03693431 0.06651449 0.036174852 0.042837244 0.045619804 0.025994003 0.028978648 0.013834021
0.048762176 0.04306743 0.028870022 0.05270889 0.04713306 0.048224926 -0.007915604 0.04285819
0.010417752 0.03379494 0.04928811 0.05175659 0.047266368 0.036069438 0.036298268 0.03198262
0.008653385 0.008316887 0.06629033 0.04714473 0.0037855506 0.05249805 0.046761807 0.024810854
0.056701295 0.06569077 0.050522625 0.032828897 0.03330297 0.02799005 0.04212581 0.04547488
0.008531079 0.04393921 0.03938049 0.035201777 0.056997772 0.012356165 0.04992419 0.025940299
0.039717082 0.0276934 0.037764892 0.043994483 0.023813114 0.06293004 -0.0035065473 0.017403567

network.6.running_mean f4 [64]
00000000: 3b53 453b d2ae 303c 4ff6 c93b 6b01 6b3b
00000010: 784d d23b 6788 243c 3cb3 003c e435 403c
00000020: ff40 4f3b d611 d53b 1d02 563b 3d67 b93b
00000030: 99e5 d83b 4692 983b f3d4 0a3c b8f0 3f3c
00000040: b8cc 7d3c 9ef5 703b 3cc9 963b e1d9 cf3b
00000050: 5b31 e53b 6d57 003c b74b 703a 65c6 c43b
00000060: c86b db3b 6d2e c13b a761 9c3b caeb 2f3c
00000070: 7f5b f63b 9350 2a3c c34a 913b 947a 6b3b
00000080: 792d 723c 637c a03c 50f4 b83b c27c 8a3b
00000090: 833a 973a 4c6e 283c 3497 013c 4b53 2c3b
000000a0: 38a4 d63b 80c9 fb3b 54bb e23b 3eb0 043c
000000b0: 14a2 a93b c263 543c 95d5 da3b 701d a73b
000000c0: 278e a63b 9f54 5f3b 79db 233c c2a0 d83b
000000d0: 35d5 123c 558c a43b 69e8 023c 4ad3 d43b
000000e0: f387 033c 054c f83b ad4e c73b 7127 853b
000000f0: d62e 013c 20fb 013c 5098 0a3a 5ca0 913b
0.0030109424 0.010783868 0.0061633955 0.0035859 0.0064179264 0.0100422865 0.007855233 0.0117315985
0.0031624434 0.0065023704 0.0032655068 0.005658059 0.006619167 0.004656109 0.008473623 0.011715107
0.015490703 0.0036767493 0.0046016257 0.006343112 0.006994409 0.007833344 0.0009166556 0.006005096
0.006696198 0.005895427 0.0047723833 0.010737369 0.0075182314 0.010395187 0.004433961 0.0035931217
0.014781349 0.019590562 0.0056443587 0.004226298 0.0011537824 0.010280203 0.007909585 0.0026294764
0.006550338 0.007683933 0.006919304 0.00809866 0.005176792 0.012963237 0.006678293 0.005099945
0.005082864 0.0034077538 0.010001057 0.0066109607 0.008961965 0.0050216117 0.007989981 0.006494914
0.008028018 0.0075774216 0.006082377 0.0040635397 0.007884702 0.007933408 0.00052869786 0.004444165

network.6.running_var f4 [64]
00000000: a150 5638 440e af39 04cb aa38 ba95 d238
00000010: b768 3639 8914 f039 fcc5 8b39 8c1e d639
00000020: f223 6538 2315 1739 1ea9 5a38 e824 d338
00000030: c73f d138 139b e638 c57f 7839 0ac7 9639
00000040: c7c8 0f3a 3576 9a38 7dcf c538 fc83 0339
00000050: bbdf 4639 4492 6139 6602 f937 b132 9c38
00000060: dac3 7139 e288 fb38 7b6f a038 5a57 a039
00000070: 28b1 6339 9618 b139 8b6a ac38 caca 9938
00000080: 8c6d c439 3896 be39 3ea9 a438 f1d4 d138
00000090: 61c7 0238 c9e8 a339 d63c 8639 14e3 7b38
000000a0: c235 cc38 a042 f838 f3e8 0439 d3e8 8c39
000000b0: 21bd 2639 a951 f639 3249 c738 01b2 af38
000000c0: 8fb0 5339 1330 3238 01c7 9e39 2c66 0c39
000000d0: 7dff 2339 5d15 fb38 aa8e 3039 9bcd 3039
000000e0: 1b9b 4d39 9bda 5b39 1258 1739 eebe a238
000000f0: 091a 8639 2193 1d39 6a3b b037 ad88 0539
5.1096667e-05 0.0003338923 8.144046e-05 0.00010041469 0.00017395882 0.00045791667 0.00026659656 0.0004084002
5.463133e-05 0.00014408356 5.2132753e-05 0.00010068138 9.977776e-05 0.000109961395 0.00023698721 0.00028758525
0.0005484935 7.36531e-05 9.43234e-05 0.00012542302 0.00018966098 0.0002151216 2.968423e-05 7.448102e-05
0.00023056511 0.00011994109 7.6501594e-05 0.0003058266 0.00021714403 0.0003377839 8.221444e-05 7.333381e-05
0.00037465652 0.00036351546 7.851653e-05 0.0001000556 3.11801e-05 0.0003126322 0.00025603798 6.0054546e-05
9.737491e-05 0.000118379714 0.00012675281 0.00026876348 0.0001590145 0.00046981618 9.502693e-05 8.377806e-05
0.00020188301 4.248328e-05 0.00030284378 0.00013389502 0.00015640068 0.00011972592 0.00016837814 0.00016861262
0.00019608105 0.00020966904 0.00014433291 7.7603254e-05 0.0002557787 0.00015027497 2.1008502e-05 0.00012734784

network.8.weight f4 [32, 64]
00000000: c49f 2ab9 5af9 06ba b89a 3f3c 5b8a 71bd
00000010: 81b9 54bd 8193 393d 71c9 60bd 20fd 0c3d
00000020: ed78 f5bc 4061 2e3c 785c 19bd 2c59 c3bc
00000030: dd5b 32bd 2376 1a3c 9f31 003c b648 14bc
00000040: 88b2 0dbd ce22 f5bc 43c9 41bd fcb7 203d
00000050: 0ee2 6839 11ed 3fbc 2bf7 36bd 666b 0dbd
00000060: b0a2 0a3d 5cf7 49bd 94a8 193c f69d 35bb
00000070: 3382 45bd 61bf a6bc e734 6e3c 93ea dabc
00000080: 49a9 13bc 71f2 ff3c fe32 f63b 0920 6b3a
00000090: b932 58bd 8f35 4ebd aa18 79bb 4ca6 17bd
000000a0: 0604 473c 3ed8 05bb 3ce0 83bb e4f2 82bc
000000b0: ae55 863b 076f fc3c 8131 08bd fcdd 28bd
000000c0: ec62 5d3d fbf1 16bd 792c dabc 8a4f ff3b
000000d0: b4e5 0dbc 1569 b4bc 2ae7 173d d343 453c
000000e0: 9e7f c33b 1782 ed3c 636c 87bc 36c8 60bd
000000f0: b013 00ba 89e8 b53b 6c73 0a3b 509f e93c
00000100: 22f9 9dbc fb93 09bc 5d53 e7bb 4a82 b13c
00000110: f4e2 a6bc 9756 25bd 67ba cfbc 8ad9 64bc
00000120: 2904 01bd 2e75 12bd 51af 02bd 0dd7 2c3b
00000130: 88fa 92bc e005 2dbd 4889 8d3c 90b6 013d
00000140: 16d9 87bc 741d f43b 7bc3 bbb9 786a 163c
00000150: b86f ddb8 9fcc 11b9 6b4f c33c 0d49 d5bb
00000160: 7182 91bc 3e5b 593d 6d22 1abd 710d fcbb
00000170: bc39 cdbc 5f42 1bbb 009b 2f3c ea75 2fbc
00000180: 1794 9dbd 0987 e5bc 7202 65bc 9229 29bd
00000190: 8da4 7cbb 067f 57bd 3b3e 19bd 6a07 8cbb
000001a0: 1128 4cbd d3cf ecbb d80f 1a3d 7c2a 3a3d
000001b0: 4056 69bc 74ee 0f3c 6482 44bd 520d c63c
000001c0: dba5 00bc 75ff ba3a dfd1 373d efd2 9b3b
000001d0: af2a b93c d86c f13c 7837 873c 983c 45bd
000001e0: a8ff 743b 93f3 f53c f8e7 613b a73d 933b
000001f0: d158 32bd 5440 47bd d818 8aba c846 f5bc
00000200: 3a7d b1bc 076d 0cbd bf36 dfbb 024c a23c
00000210: d751 c0bc 244e c9bb 584e dbbc 9b55 51bd
00000220: 9bd0 a53c 1805 f23c a2a3 b83c c3c4 aa3c
00000230: 3027 bd3c 17c0 2cbd 44a0 743c 6fd7 253d
00000240: bc27 733c 974d 6d3c 3836 bfbc a107 f2bb
00000250: 1c4f e0bc bab9 a83b 85a0 d53b 5067 07bd
00000260: 2f7c 1cbd a1b6 343d 4a21 babb bd08 343d
00000270: e725 693c 3dd9 c93c de6b a4bc c39e 733c
00000280: cb48 65bd 106f 1bbd 975d 62bc 2a83 58bc
00000290: d07f d73c 6676 38bd 2cea 94ba 8f0c c1bb
000002a0: 8d97 8cbb 8e4c 12bc e15b 5d3c be49 f73c
000002b0: eb0a 44ba 83ad ac3c ae58 413c 3659 e5bc
000002c0: 39e8 5dbd 7c69 1ebd bc6b 733d c2a9 183c
000002d0: 4da4 993b 422c ed3c ec44 dbbb 6a8f 80bd
000002e0: c41b fbb9 9afc 113d 1d19 e0bb 3af1 a9bc
000002f0: 2397 51bd 0337 e13c 6873 88bc e629 51bd
00000300: 46d9 3dbc f0e1 95bc a3db f23b 3651 71bc
00000310: ddd8 78bc 273d aa3c 1513 09bd dd50 fd3c
00000320: c2e3 7b3c ca85 ccbb 10aa 48bc 7e20 0dbb
00000330: 34f4 b8bc e7c4 13bd 632f 0a3d cdc7 eebc
00000340: b025 9cbd ec2d 613c 8f6f cfbb 0b0f dcbc
00000350: 1e1b 89ba 6561 363c 295a 36bd 16df b83c
00000360: 35a9 9c3d bf61 bcbc fcbf a0bc eb08 35bd
00000370: 5393 a0bc 2847 89bc 0fc9 9bbc c5bb 8cbc
00000380: 8f32 c239 957c 953d a97a 053d 2090 e33b
00000390: 5b92 78bd 1070 efbc 47af 70bb 6609 9bbc
000003a0: bf0e 96bc 0260 a2bb 8dbc abbb 0f79 9ebc
000003b0: 3104 c3bb dfa6 503d da42 333b 6855 103c
000003c0: 90c0 2f3d 4c38 0d3d e438 dfbc 34d3 c8bc
000003d0: d02e ed3c 349b 33bd 01ab 8cbc 5f1d 013d
000003e0: 57f1 8bbb e6c4 3e3d 667d 293c 2ceb 223d
000003f0: 1205 713c 9d36 84bc 02cc 8dba 8cc9 3f3d
-0.0001627198 -0.00051488506 0.011694603 -0.058969837 -0.051934723 0.045306686 -0.05487961 0.034421086
-0.029964888 0.010643303 -0.0374417 -0.023846231 -0.04354464 0.00942758 0.007824331 -0.009050539
-0.03459409 -0.029923823 -0.04731108 0.03923796 0.00022209456 -0.011714236 -0.04466931 -0.03452625
0.033846557 -0.049308166 0.009378571 -0.002771256 -0.04821987 -0.020354928 0.01453898 -0.026723182
-0.009012529 0.031243535 0.007513403 0.0008969312 -0.052782748 -0.050344046 -0.0038009086 -0.037023827
0.012146955 -0.002042308 -0.0040245336 -0.01598496 0.0040995693 0.03081466 -0.033250336 -0.041227326
0.054049417 -0.036851864 -0.026632534 0.007791464 -0.0086607225 -0.022022763 0.03708569 0.012040096
0.005966141 0.028992696 -0.016531175 -0.054878436 -0.0004885746 0.005551402 0.0021125926 0.028518349
-0.019283835 -0.008397098 -0.007059498 0.021668572 -0.020371892 -0.04036578 -0.025357438 -0.013967881
-0.031498108 -0.035756283 -0.031905476 0.0026373297 -0.017941728 -0.04224193 0.017277375 0.031668246
-0.016583007 0.0074498 -0.00035813064 0.009180658 -0.000105589104 -0.00013904505 0.02384158 -0.0065089525
-0.017762395 0.05306553 -0.037630487 -0.007692032 -0.025051944 -0.0023690683 0.010718107 -0.010709265
-0.076942615 -0.028018491 -0.013977634 -0.04129941 -0.0038550228 -0.052611373 -0.037412863 -0.0042733448
-0.049842898 -0.007226923 0.037612766 0.045450673 -0.014241755 0.008784879 -0.047975913 0.024176273
-0.007852043 0.0014266806 0.044877883 0.00475537 0.022603361 0.029470846 0.016505942 -0.04815349
0.0037383828 0.030023372 0.003447054 0.0044934335 -0.043541733 -0.048645332 -0.0010535968 -0.029940978
-0.021666158 -0.034283664 -0.006811946 0.019811634 -0.023476524 -0.0061433483 -0.026770756 -0.05110703
0.020241072 0.029543445 0.022538964 0.020845776 0.023089975 -0.04217538 0.014930788 0.040488657
0.014841016 0.014483831 -0.023341283 -0.0073861633 -0.027381472 0.0051490935 0.0065193796 -0.03305751
-0.03820437 0.04411948 -0.005680238 0.043953646 0.014230228 0.02463972 -0.020070966 0.014869395
-0.055977624 -0.037947714 -0.013816259 -0.013214866 0.026306063 -0.04503479 -0.0011361293 -0.0058913897
-0.004290527 -0.008929385 0.013510675 0.03018653 -0.00074784335 0.02107883 0.011800928 -0.02799664
-0.054176543 -0.038674816 0.059428915 0.009317817 0.0046887756 0.028951768 -0.0066915657 -0.06277354
-0.00047895138 0.03564129 -0.0068389312 -0.020744909 -0.051169526 0.027492052 -0.016656592 -0.051065348
-0.011587447 -0.018296212 0.0074114366 -0.014728835 -0.015188423 0.020781113 -0.033465464 0.030922348
0.015374126 -0.006241535 -0.012247577 -0.002153426 -0.022577383 -0.036076453 0.033736598 -0.029148007
-0.07624376 0.013743859 -0.0063304375 -0.026862642 -0.0010460352 0.011131619 -0.044519577 0.022567313
0.07649461 -0.022995828 -0.019622795 -0.044197958 -0.0196015 -0.016757563 -0.01901677 -0.01717938
0.00037040233 0.07299153 0.03258768 0.0069446713 -0.06068645 -0.02922824 -0.0036725567 -0.01892538
-0.018317578 -0.0049552927 -0.005240983 -0.019344835 -0.0059514274 0.05094039 0.002735308 0.008809425
0.04290825 0.034477517 -0.027248807 -0.024514772 0.028952986 -0.043849185 -0.017171385 0.03152215
-0.0042707133 0.046574496 0.010344839 0.03977506 0.0147106815 -0.016139323 -0.0010818245 0.04682307

network.8.bias f4 [32]
00000000: a40b da3c 2535 1a3c 452d 2f3c 15b6 713c
00000010: ed8a b93c 4f9f 843b 63c5 e53c d732 933c
00000020: 938e 9b3c 0a40 bd3c c00a d63c 68ea d63c
00000030: d5d6 833c 21d9 b23c 00bf bc3c e930 c63c
00000040: 2599 183d 9b58 b43c f3d5 d03c 3d47 d13c
00000050: 0d9b 0a3d f554 073d b3f1 e43c 0e6e f73c
00000060: 788d 163d b467 d53c c8b8 083c c9da 093b
00000070: 6649 db3c 3c32 b53c 94c1 d33c c9cf d03c
0.026616879 0.009412085 0.010691945 0.014752884 0.022649253 0.0040473114 0.028048223 0.017968578
0.018988883 0.023101825 0.026128173 0.02623482 0.01609365 0.02183205 0.023040295 0.024193244
0.037255425 0.022014907 0.025492644 0.025546664 0.033839274 0.033040006 0.027947282 0.030203845
0.03675601 0.026050426 0.0083448365 0.0021034947 0.026768398 0.02211868 0.025849141 0.025489705

network.10.weight f4 [32]
00000000: 2374 2e3f 02c1 183f b589 0b3f 8279 183f
00000010: b34f 873f 4a96 113f a8d4 853f 1a21 323f
00000020: b643 883f 39b4 853f cf0a 893f ec8c 923f
00000030: ed26 6c3f b368 803f e427 8c3f b987 8b3f
00000040: aed9 8e3f 3a91 853f a41b 2c3f 324f 3b3f
00000050: afbb 8a3f 2617 8d3f f9bd 873f d217 313f
00000060: b9a2 893f c2e1 953f 2b58 173f a0a4 123f
00000070: 703d 923f 677c 873f ca34 913f 34c4 8b3f
0.6814596 0.59669507 0.54507 0.59560406 1.0571197 0.5686995 1.0455523 0.6958176
1.0645664 1.0445625 1.0706424 1.1449256 0.92246896 1.0031952 1.0949674 1.0900794
1.116018 1.0434945 0.67229676 0.7316772 1.0838526 1.1022689 1.060485 0.6917697
1.0752784 1.1709521 0.5911891 0.5728245 1.1424999 1.058484 1.1344235 1.0919251

network.10.bias f4 [32]
00000000: 3707 593e b063 303e 111c 643e af6c 3e3e
00000010: 5db4 b0bd 70c5 563e 1a68 1fbd 4b8a 3a3e
00000020: 5d9c 3abd e5f9 9bbd 9e86 99bd 832e 13bc
00000030: f855 d2bd 9b64 6cbd 2603 bdbd 4f87 83bd
00000040: 4f3d 683d 9057 98bd 49bf 0d3e 4ef8 123e
00000050: 9036 953b 7978 bbbc e2f7 5cbc 51ce 803e
00000060: 480c 223d 4978 babc cca7 1e3e a0bd 2c3e
00000070: 04ae 493c 0d74 90bd 358c 82bd 3028 9cbd
0.21194158 0.17225528 0.22276331 0.18596147 -0.086281516 0.20973754 -0.03891764 0.18216817
-0.045559276 -0.07616023 -0.07496379 -0.008983257 -0.102703035 -0.057713132 -0.09229116 -0.064222924
0.056699093 -0.07438576 0.13842501 0.14352533 0.0045536235 -0.022884594 -0.013486834 0.25157407
0.039562494 -0.022762435 0.15493697 0.16869211 0.012309555 -0.07053385 -0.063743986 -0.07624853

network.10.running_mean f4 [32]
00000000: 135c c73c a095 5a3c 72bf af3c 785c b93c
00000010: a3d8 783c 7250 833c 6288 643c ba2c a03c
00000020: fb01 513c d3ff 643c 1130 613c 2533 933c
00000030: e284 253c 9dfe 5b3c 8800 7a3c 2fa0 913c
00000040: c002 b93c 8cde 6e3c 3dfa b43c 0529 be3c
00000050: b496 b73c b872 9b3c 32c3 ae3c b1c7 d23c
00000060: 12a2 be3c 6c0e 9d3c c52d 6c3c 8311 703c
00000070: 7aef 923c 45ce 6d3c 0a05 8f3c 47f8 653c
0.024335897 0.013341337 0.021453593 0.0226271 0.015188369 0.01602957 0.013948532 0.019552577
0.01275682 0.013977009 0.01374437 0.017968724 0.0101024825 0.013427404 0.015258916 0.017776577
0.02258432 0.0145794265 0.02209198 0.023212919 0.022410728 0.0189756 0.02133331 0.025729986
0.02327064 0.019171916 0.014415209 0.014652613 0.017936457 0.0145145105 0.017458457 0.014036245

network.10.running_var f4 [32]
00000000: ee2e a13a cce6 2d3a ee9b 9f3a d467 c63a
00000010: 3c29 ba39 bbf9 793a fbb8 ba39 d62a 773a
00000020: 3f31 a539 bef6 a439 5074 a339 4866 d239
00000030: 6fc5 a039 2dba a839 9725 e439 22cc c939
00000040: 6312 e139 5278 b639 5c9a 823a 4620 8b3a
00000050: 488a e139 a248 d939 e99a d139 6409 963a
00000060: 42a9 f939 46e7 ee39 3a89 563a 4f63 803a
00000070: c6e6 d239 1f70 b139 3157 aa39 f0f0 b439
0.0012297311 0.00066338177 0.0012177208 0.0015137144 0.00035507407 0.0009535809 0.00035614506 0.00094286853
0.00031507944 0.00031464355 0.00031176442 0.00040130527 0.00030664678 0.0003218217 0.00043515555 0.00038489798
0.00042929043 0.0003480339 0.0009964216 0.0010614477 0.00043018372 0.0004144358 0.00039979003 0.001144689
0.00047619088 0.0004556721 0.00081839005 0.0009795221 0.0004022626 0.00033843608 0.0003248989 0.00034511788
