models/mlp_multiclass_crossentropy20250830_145439.pth (torch, 82274 bytes, 21 tensors)

network.0.weight f4 [128, 48]
00000000: 9219 8bbd be6b b1bd 6f97 463c bfac ae3c
00000010: 8ab5 c0bc c63a 9f3d f376 4a3c a2d5 5db9
00000020: b11c a7ba a990 4e3c dd32 13bd 69dd db3c
00000030: d52d 813c 6433 8bbc be08 0dba d16a 37bc
00000040: e040 ddbb c8e0 a43b f4a1 273d 90e2 813d
00000050: 3348 563c b080 2ebc 6c81 e2bc 5963 3c3c
00000060: bb28 8d3c 3963 8abc 7bee 0bbe 3a58 80bc
00000070: cf99 20bc c109 50ba 319f 143c 597e 01be
00000080: 3bf1 9e3d 706c b43d db52 7abb 478f 27bc
00000090: 662b 753d fd87 beb9 5980 76bc 7645 0a3d
000000a0: 6638 4cbd 8380 b2bb 17f9 54bc 69c5 363d
000000b0: ff87 013b 25ae 0b39 d8e6 9dbc e593 0f3c
000000c0: fde8 a839 b3de cf3b cd3f 603b 5fa6 89b9
000000d0: a477 7cba a77c ca37 0577 5b3b c372 2d3b
000000e0: de95 82b8 f5de 61ba c38d 9f3b 0b8a 033b
000000f0: 86d6 b13b 3026 ad3b 7a88 38bb 4fcd 793b
00000100: 44e0 a83b 36fc 2bba 6b84 86bb 6ead a6ba
00000110: 2353 99ba a8fe 693b fb4f 1e3b 3ec8 00ba
00000120: 93a6 24ba c91a 85b9 e272 c33a 6131 0eba
00000130: afe6 94ba 4c7b b83a 9d6b 4f3b a1e4 963a
00000140: b132 92bb bf48 3339 5e5c 04bb 9969 c23a
00000150: e6f9 f63a 7560 9f3b aae2 9639 97e8 03bb
00000160: 3ed0 3b3b afaa 5d3b 317e ab37 370a 183b
00000170: 7d7a 323b d25f 343b 2960 e9ba 5e3b 23bb
00000180: 5b95 14ba 61f9 ef39 c03c 163a 0e3f 3fba
00000190: ab4b 02b8 5f16 523a cd6b 2aba abfb dd38
000001a0: 68cb feb7 47f4 68b9 b0e8 b4ba 9073 57b8
000001b0: 0a36 073a 022c 13ba 29ce 19ba 9510 0fb9
000001c0: 5f4d fdb9 39c7 00ba 0949 dd39 e98e beb8
000001d0: d586 fc3a a1a7 9739 9c29 94ba f860 c3ba
000001e0: 63b6 df37 c6a1 37b9 a8cd cdb8 a26c fcba
000001f0: c5fa 88ba ea67 4db9 5d57 ee39 a2bb 1db9
00000200: c135 21ba 71b4 8c3a ea23 19ba 64fe df39
00000210: 049d 17ba 75ce 68ba 564a bdba 423d 4bb8
00000220: 45ef eeba 8010 32ba b63e beba 3159 9cba
00000230: b12e adb8 ccde 71b9 02bb f2ba 52f0 5438
00000240: 9baa 48bb 9952 99bc 23cb 61bc 2805 09bb
00000250: 816f 4abb 42de 293d 99b4 f9bc c4f0 62bd
00000260: bcaa 813c e8d1 a7bc 1469 533d 2b5f d6bc
00000270: 5b58 823c 852b 243d 92c9 8e3c 7b8b 9b3b
00000280: 8581 1f3d dd97 3dbc ed62 853d fb98 c0bc
00000290: da5c 77bb 39da 7cbc 0365 e73c 2194 f73b
000002a0: 3781 b7bc 1579 4d3c f1dd 143d 71d9 0f3d
000002b0: 0e2f f33b 7fca 5bbc 2467 113c d998 113d
000002c0: 3fc7 9e3c 97d3 2a3d 25d4 61bc 9672 973a
000002d0: 25a1 16bc 3e64 003b 8030 babd 8a7c b7bc
000002e0: 1981 95bd 95d3 6bbd 5cbb 69bc 21cc ec3c
000002f0: a5f2 323c f032 523c b89f 173a 0203 b7bb
00000300: 24a9 4dba 4170 fb3a 4b7e 97bb 153e 75ba
00000310: 3137 73bb ae7c fabb c4f5 423a dc11 9cbb
00000320: 0210 5cba 9aac 84bb 8cd5 e339 784f 563a
00000330: 2a94 89bb ced2 d6ba dd36 793b 5f58 f13a
00000340: 4666 13bb 5761 8fbb 5e6b f93b 2a0a dcbb
00000350: 74cb 94ba 4cf1 333b 27a9 18bb 496a 583a
00000360: 6039 993b 7f9c 9dba 2ff7 40bb d238 323b
00000370: b2c8 c1ba f477 deb8 58c1 b6bb 43c6 1fbb
00000380: 5c0d 7738 fb5d 01bc a316 7538 4214 5fbb
00000390: e4a1 f53a 534e 673c 19ea 553b 5e82 1a3c
000003a0: f45b af3b dfc8 68bb ccf4 37ba 82f5 743b
000003b0: dfc0 d53b 8596 e43b 1baa 9fbb 7bbd bf3b
000003c0: 8c68 8a3a cbeb c8ba ced8 8db8 3906 983b
000003d0: b6c2 813b 93cc c9ba 8693 36ba 219e 9739
000003e0: b0da 5a39 7477 8f3b ca6d ffba e2a8 b6ba
000003f0: e05e 19b5 ca84 beba b28a 9239 f3be 5e39
-0.067919865 -0.08663128 0.0121210655 0.021322606 -0.023524065 0.07774882 0.012357461 -0.00021155787
-0.001274964 0.012607732 -0.03593718 0.026838975 0.015768925 -0.016992278 -0.0005380026 -0.011194901
-0.0067521185 0.005031679 0.040925935 0.063420415 0.013078737 -0.010650799 -0.027649604 0.011498296
0.017231336 -0.016893016 -0.13665192 -0.01566707 -0.009802296 -0.0007936024 0.009071157 -0.12645854
0.07760855 0.08809745 -0.0038196358 -0.010227031 0.05985584 -0.00036340943 -0.015045249 0.03375765
-0.049858473 -0.0054474487 -0.012998841 0.04462186 0.0019764898 0.00013320947 -0.019275114 0.008763288
0.00032217047 0.0063436865 0.0034217716 -0.00026254632 -0.0009630865 2.4138322e-05 0.003348769 0.0026466108
-6.226798e-05 -0.0008616292 0.0048691942 0.0020071294 0.0054271845 0.0052840933 -0.0028157518 0.0038116758
0.0051536877 -0.00065607147 -0.004105141 -0.0012716481 -0.001169775 0.0035704765 0.0024156559 -0.0004912651
-0.0006280925 -0.00025387693 0.0014911557 -0.0005424228 -0.0011360253 0.0014074831 0.0031649836 0.0011512229
-0.0044616093 0.0001709787 -0.0020196657 0.0014832496 0.0018842786 0.0048637935 0.00028779107 -0.0020127648
0.0028658058 0.003382366 2.0443551e-05 0.0023199448 0.0027233653 0.0027522934 -0.0017805147 -0.0024907212
-0.00056680077 0.00045771434 0.00057310984 -0.00072954677 -3.1064887e-05 0.0008014198 -0.0006501049 0.00010584978
-3.0373878e-05 -0.00022216245 -0.0013802256 -5.136762e-05 0.0005157894 -0.00056141627 -0.0005867207 -0.0001364372
-0.00048313566 -0.0004912499 0.0004220682 -9.086525e-05 0.0019266257 0.00028925858 -0.0011303904 -0.0014906218
2.6668602e-05 -0.00017512505 -9.813468e-05 -0.0019258449 -0.0010450712 -0.00019589034 0.00045459988 -0.00015042585
-0.00061496726 0.0010734928 -0.00058418384 0.0004272341 -0.000578359 -0.0008880862 -0.001444171 -4.8456022e-05
-0.0018229267 -0.000679262 -0.0014514539 -0.0011928437 -8.25798e-05 -0.0002306655 -0.0018518867 5.0768555e-05
-0.0030619267 -0.018716143 -0.013781342 -0.0020907614 -0.0030889215 0.041471727 -0.030481623 -0.055405393
0.015828483 -0.020485833 0.051613882 -0.026168426 0.015911272 0.040080566 0.0174301 0.004746852
0.03894188 -0.011571852 0.06513009 -0.023510447 -0.0037744553 -0.015432888 0.028246408 0.0075555
-0.022400482 0.012541075 0.036344472 0.035119478 0.007421381 -0.013414978 0.008874688 0.035546158
0.019382117 0.041705694 -0.013783489 0.0011554535 -0.009193693 0.0019591 -0.09091282 -0.022398252
-0.07300014 -0.057574827 -0.014265861 0.02890593 0.010922109 0.012829527 0.0005783993 -0.0055850754
-0.00078453333 0.0019183235 -0.0046232096 -0.0009355259 -0.0037111754 -0.0076442575 0.00074371346 -0.004762871
-0.00083947193 -0.004048896 0.0004345592 0.0008175294 -0.0041985707 -0.0016389729 0.0038027086 0.0018413177
-0.002249138 -0.0043756175 0.007611676 -0.006715079 -0.0011352138 0.0027457057 -0.0023294182 0.0008255584
0.004676029 -0.0012024789 -0.0029444208 0.0027194512 -0.0014784543 -0.00010608128 -0.0055772476 -0.0024379648
5.890183e-05 -0.007895942 5.8433634e-05 -0.0034039174 0.0018740264 0.014117795 0.0032640754 0.009430496
0.005351538 -0.003552012 -0.00070173736 0.003737778 0.006523236 0.006975951 -0.004872573 0.0058514453
0.0010559722 -0.0015329061 -6.763787e-05 0.0046394137 0.003959979 -0.0015396051 -0.0006964732 0.0002891878
0.00020871568 0.0043782536 -0.0019487676 -0.0013935829 -5.7135003e-07 -0.0014535424 0.00027950626 0.00021242704

network.0.bias f4 [128]
00000000: 23e4 04be 1b50 e939 2cc4 84ba 5543 01bd
00000010: fe1e 493a 99b1 a43a 071f 0ebd 3261 1ebd
00000020: 9813 81bd 6fb3 8739 4067 8c3a bbb9 043b
00000030: 364b 45bd 2c47 10be 6411 43bd b8c9 9a3c
00000040: f778 04bd e64b b9b9 f594 66bd 4bd6 79bd
00000050: 5e9b b6bd 4ffd 37be c9c0 8fbd 80dd 06bc
00000060: d51c debd 6919 3d3b a00a 70bd f262 273b
00000070: a3c2 5ebc 95ba 02be 4d69 c63b b574 19be
00000080: db98 0bbd 0411 02ba 1499 1cb6 4ca1 2fbc
00000090: f217 a4bd 3ca6 7bb8 5048 fdbb c808 cabd
000000a0: ad93 4cbd 6970 3fbb df9d c2bd c8fe f3bd
000000b0: ea33 10bd 1a50 09be ce37 9ab9 419c 29bd
000000c0: 4c89 a2bd a6cf edba 72f1 64be 616f 113b
000000d0: 36fc 693b 4f3a b1ba f8f9 eebc 408a 5dbd
000000e0: 327c d5bd d863 2abd dc7d 38bd 20b9 693b
000000f0: 7173 9bbd 3f96 62bd b28a 9abd 29b4 b9bc
00000100: f7e0 8ebd e70b e4bd 29e0 033b 394c 56bb
00000110: 5802 c939 c39a dcbc 68b0 a1bd 8c54 44bd
00000120: 01e1 c53a c076 fd3c ff4c c4bd 58d0 21bd
00000130: 6ebe b3bc 679e df3a 67da fcbd 5692 8cbc
00000140: d247 25be 9f6a 8ebd c6a5 d13c 7d70 8139
00000150: 1677 84bd 3730 5239 3421 83bd 52fd c9bd
00000160: eed2 19be f637 8fbb ced7 13bb fc1f 1fbd
00000170: 566d 32bb 0e1e a9ba 9394 293b b804 a6bd
00000180: e358 2a3b d8b4 c3bd 1440 c5bd 2d34 21be
00000190: 9ced 9d3b 448f 27be 2d3c 27bd b89c d7bd
000001a0: ea36 b9bd f290 0fbe 8bf6 453a 2156 86bc
000001b0: 68e2 4cbd 0962 00be ba67 c53b b395 bfbc
000001c0: f2ba 5f3b 5cee d33a df53 82bd 09df ecbd
000001d0: fc84 88bd d27a 633d ddc2 fdbc bbe9 65bd
000001e0: 9198 6d3d 95ec 88bd 792d 0cbd faa5 2bbe
000001f0: 4688 a4bd fe85 633b 0fd8 99bb acab 1ebe
-0.12977652 0.00044500906 -0.0010129265 -0.031558353 0.00076721597 0.0012565135 -0.03469756 -0.03866691
-0.06302565 0.00025882895 0.0010711923 0.0020252306 -0.04816743 -0.1408965 -0.047624007 0.018895015
-0.032341924 -0.00035342498 -0.0562944 -0.06099538 -0.08916353 -0.17967723 -0.07019193 -0.008231521
-0.10845343 0.0028854257 -0.058603883 0.0025541154 -0.01359621 -0.12766488 0.0060550333 -0.14985926
-0.03408132 -0.0004961642 -2.3334915e-06 -0.0107196085 -0.0801238 -5.999788e-05 -0.0077295676 -0.09864956
-0.049945522 -0.0029211289 -0.09502768 -0.1191383 -0.03520576 -0.13409463 -0.00029414747 -0.04140878
-0.079363436 -0.0018143549 -0.22357729 0.002219163 0.0035703308 -0.0013521406 -0.029171929 -0.054086924
-0.10424079 -0.041599125 -0.045041904 0.0035663322 -0.07590378 -0.055319067 -0.07545985 -0.022668915
-0.069765024 -0.11135083 0.0020122624 -0.003269924 0.00038339454 -0.026929265 -0.07894975 -0.047932193
0.0015096964 0.030940413 -0.09584998 -0.039505333 -0.02194139 0.0017060757 -0.123463444 -0.017159622
-0.16140679 -0.0695393 0.025591742 0.00024688608 -0.06468026 0.00020045122 -0.06402817 -0.0986277
-0.1502187 -0.0043706847 -0.002255905 -0.038848862 -0.0027225814 -0.0012902634 0.002587591 -0.08106369
0.0025992922 -0.095559776 -0.096313626 -0.1574256 0.004819585 -0.16363245 -0.040828872 -0.105279386
-0.09043677 -0.14020136 0.00075516914 -0.016398491 -0.050020605 -0.12537397 0.006024328 -0.023386812
0.0034138528 0.0016169059 -0.063636534 -0.11565978 -0.0666599 0.055537052 -0.030976707 -0.056131106
0.058006827 -0.066857494 -0.034223054 -0.16762534 -0.080338046 0.0034717317 -0.0046949456 -0.15495175

network.2.weight f4 [128]
00000000: 9a7b eb3d 3afc 6c39 7d63 55b8 33ee e73d
00000010: 8cb5 39bb ce1a 8ab9 744f b03d 58fd be3d
00000020: 2c1e ba3d a61c a13d e5c1 b9bb 9f14 833a
00000030: ddba 9c3d 326e c23d 362b ad3d a423 d33d
00000040: 0bdc a83d 3a22 bc3a 73de e73d e01e ad3d
00000050: 02be 053e 8784 c03d 48ad b03d 81d8 ca3d
00000060: a274 c83d cb78 19bb 827e 663d 1dd3 f73a
00000070: fdc3 903d d6ed cc3d 3e7b 4fba bb42 ea3d
00000080: 37e8 9d3d 14e4 833a 8047 00bb f4c6 8d3d
00000090: 5374 a43d 8018 68ba b69c ba3d 07fa ca3d
000000a0: 8f90 c73d 7041 51ba c8b9 df3d e577 ae3d
000000b0: fee6 063e 8a96 b83d 9253 7c3c 9084 913d
000000c0: 2dec 9f3d f33d 6db9 2e13 cd3d edbb 43ba
000000d0: 9dac 43b9 36b7 28ba ac95 b83d 11c4 8a3d
000000e0: 6c5e d93d 3354 c73d bee8 583d 0ad1 c03b
000000f0: c16b d33d 7d25 8f3d ff4f 003e 2ec8 8a3d
00000100: 535c cf3d a707 e13d eb68 793d 203a bf3b
00000110: 8ca7 81b9 3890 a53d 3e33 9a3d 8ca2 953d
00000120: 78a8 a63a 9251 ae3d 6965 e23d 69f6 e03d
00000130: af86 9a3d 6efa 973d 0365 b83d f6db c73d
00000140: 38c4 b23d a2b0 e73d 0069 913d 9f0e 1b39
00000150: 547d b03d 565d 833a 6168 d03d bd19 a03d
00000160: fc5b e73d 1f4b 143a 8244 c9bb a6dc be3d
00000170: a576 963a f649 02bb c1d9 dfba cd26 bf3d
00000180: 6b94 053b 59bc d03d c555 bb3d 02d2 b83d
00000190: ec48 6bbb 5fd1 eb3d cf8f f33d 0aab bf3d
000001a0: a68b b33d f823 cd3d 9f56 1dbb 3b55 013e
000001b0: 38fd 953d d997 e93d 8732 943d 7d00 843d
000001c0: 448f a9b8 92cb 1aba 5f55 c73d 3c69 d03d
000001d0: 798b b93d 79d5 cd3d 283c c03d f1e7 523d
000001e0: 26d2 ad3d b03b a33d d681 bf3d 8b30 f43d
000001f0: b7a1 9c3d e605 80ba 059b c0bb 1f80 c93d
0.114981845 0.00022600676 -5.0875813e-05 0.1132473 -0.002833697 -0.00026341382 0.086089045 0.09325665
0.09087786 0.078667924 -0.005668866 0.0010000652 0.07652829 0.09493674 0.084555075 0.10309532
0.08245095 0.0014353462 0.11321726 0.084531546 0.13060763 0.094002776 0.08626801 0.09904576
0.09787871 -0.0023417945 0.05627299 0.0018907521 0.07068632 0.10006301 -0.0007914788 0.11438509
0.07710307 0.0010062479 -0.0019573867 0.06922713 0.080299996 -0.00088537484 0.091119215 0.0991097
0.09744369 -0.0007982468 0.10924107 0.08518962 0.13174054 0.09013088 0.015400784 0.071053624
0.07808719 -0.00022625159 0.10013424 -0.0007466663 -0.00018660953 -0.0006435992 0.09012923 0.06775678
0.10613713 0.097328566 0.052956335 0.0058842944 0.10323287 0.06989572 0.12530516 0.067764625
0.10125031 0.10987788 0.060891073 0.0058357865 -0.0002472963 0.08084148 0.07529305 0.07306394
0.0012715003 0.08511652 0.11054499 0.10984499 0.0754522 0.074208125 0.090036415 0.09758751
0.08728832 0.11312987 0.07100105 0.00014787399 0.086176544 0.0010022323 0.10176159 0.07817409
0.112968415 0.0005656946 -0.0061422 0.09319429 0.0011479451 -0.001988051 -0.0017078446 0.093335725
0.0020382653 0.101921745 0.091472186 0.09024431 -0.003590162 0.11514544 0.11892664 0.09358795
0.0876687 0.10016626 -0.002400793 0.12630169 0.07323688 0.11405916 0.072362 0.06445406
-8.085233e-05 -0.0005904968 0.0973308 0.10176322 0.090598054 0.10050482 0.09386474 0.051490728
0.08487348 0.07970369 0.09350936 0.11923321 0.07648032 -0.0009767383 -0.005877855 0.0983889

network.2.bias f4 [128]
00000000: c808 9d3c a8df 423b 73c7 273a b3ee 073d
00000010: 5fac 8ebb 737d 343a ca11 593b b89f bc3c
00000020: 6718 a33a 6857 b73b 05de 65bb 99c4 72bb
00000030: df79 a73c a661 923c fdea 80bb 9a8a f83c
00000040: 98c4 633c cb17 28b9 ac9a d03c 7334 ffbc
00000050: 3db8 8439 b20a c3bc 38f2 bf3c 7be7 ea3b
00000060: 6fbe a63c 9f77 0739 a680 043b e1a7 15bb
00000070: 3546 713c 6a67 27ba 309a d139 5623 a23c
00000080: c42c 573c 04d0 3db9 43e8 b83b 293e e93b
00000090: 3863 dbbb 1dae 08ba cf12 c43c 9bfe 103d
000000a0: 1210 123d fc72 aeb8 5ba1 683c 5ede 1d3b
000000b0: c4d7 0f3d 2566 09bb 2361 a03b b728 8e3c
000000c0: 6020 aebc d121 46ba f1b8 633b 769e 923b
000000d0: 40d1 ebba 8537 d0b9 3506 e03b 99c9 d1bb
000000e0: 9705 c53c 9e00 e13c 7c91 c1ba f496 d13b
000000f0: 4a70 013c 281e 3e3b 2e14 f23c 3601 183b
00000100: 0d32 083b 5aef af3b c013 0cba 68ed 633a
00000110: 65f5 a23b 36ed 233c 324a 8c3c b888 abb9
00000120: 9b87 e03a 8f2e 933c 76fa 9a3c f0ae b73c
00000130: 39ab 8d3c 7102 633c 85c2 4d3c d667 183d
00000140: 821c d9bc c45a b63c d157 c53c db4c 6abb
00000150: 874a 463c e087 e437 ecab ab3c e2c1 c5bb
00000160: 2452 8c3c 107c 723a 445e 133a 7a29 ff3b
00000170: 7d97 f93a bf70 13ba f7c0 4cbb 896f cc3c
00000180: 3abe ea39 df04 833c dda2 11bc fe63 0a3b
00000190: 47e1 133b 5e56 a93c eddf f33c 59be 3e3b
000001a0: 48a1 d93b 1599 e43b 7bf1 9eba 903f af3c
000001b0: 36a4 b7bb 6e0a 393c 9109 0e3c 997c 9f3b
000001c0: 95f0 14bc 29a3 83bb 1968 11ba 83df 023d
000001d0: cfbd 0e3c cce6 c83c 186b 423c fbd4 903b
000001e0: 8d19 333c c16b ce3b 2803 173c 18a6 003d
000001f0: f48c f6bb 747d c9b9 b89e bc3a 5ed4 983c
0.019169226 0.002973536 0.00064002647 0.033186626 -0.0043540443 0.00068851485 0.0033122175 0.023025379
0.0012443186 0.0055951364 -0.003507496 -0.003704345 0.020443855 0.017868828 -0.003934263 0.030339528
0.013901852 -0.00016030592 0.025464378 -0.03115294 0.0002531427 -0.02380881 0.023430929 0.007168708
0.020354478 0.00012919166 0.0020218282 -0.002283566 0.014726211 -0.00063859543 0.00039978465 0.01979224
0.013133232 -0.00018101936 0.005642922 0.007118006 -0.0066951774 -0.0005213933 0.02393475 0.03539906
0.035659857 -8.318384e-05 0.014198626 0.002408884 0.03511788 -0.0020965424 0.004894392 0.017353399
-0.021255672 -0.00075581396 0.0034747685 0.0044744564 -0.0017991439 -0.00039714217 0.0068366774 -0.006402206
0.024050517 0.027466115 -0.0014768089 0.006396169 0.007900307 0.0029009674 0.029550638 0.002319408
0.0020781786 0.005369109 -0.0005343519 0.0008694739 0.004973101 0.010005286 0.017125223 -0.00032717525
0.0017130257 0.017966537 0.018918257 0.022422284 0.01729356 0.013855563 0.012558584 0.0372084
-0.026502851 0.022260077 0.024089726 -0.0035751376 0.01210273 2.724299e-05 0.020956002 -0.0060350755
0.017129011 0.0009250054 0.00056216517 0.007786927 0.0019042339 -0.00056244055 -0.0031242946 0.024955528
0.00044773688 0.015993534 -0.008888927 0.002111673 0.0022564696 0.020671066 0.029769862 0.0029105155
0.0066415407 0.0069762566 -0.001212641 0.021392614 -0.0056042923 0.011293991 0.008669273 0.004867148
-0.009090562 -0.004017253 -0.0005546823 0.03195144 0.008712246 0.024524115 0.011866353 0.0044199205
0.010931385 0.0062994664 0.009217061 0.0314084 -0.007524127 -0.00038431177 0.0014390564 0.018655952

network.2.running_mean f4 [128]
00000000: 474e de3c 0450 5b3c b337 1b3b f92d 983d
00000010: a50e a53c e82e 393c fae2 2b3d abfb 4c3d
00000020: 0987 983d 39f8 863d 9643 cc3c eeec 9f3c
00000030: 933c 2e3d 18c1 553b 135e 383d e2e0 bc3d
00000040: cb09 623d 3222 503c 7a12 953d 7573 ac3d
00000050: 6e14 973d 8a6d 5f3c 62ef 2f3d b774 8b3d
00000060: e438 1d3d dd64 833c a49c 1c3d 3660 ba3c
00000070: eec5 873d 7708 cb3c e49a 983c b937 de3c
00000080: cfc3 833d d8e2 403c 1a9a 013c 3f0a 893d
00000090: cbd2 123d afcc 043c 25ea 773d 581d 843d
000000a0: b510 983d 41b8 223c cc27 103d 6d1d 813c
000000b0: 2b76 5a3d 0871 633c 7b5c 0b3d 1331 723d
000000c0: 684a 073d f2d6 9f3b 87bb aa3c 9c85 8c3c
000000d0: d87d 863c 2adc 9e3b a31a 883d 77cd 7b3d
000000e0: 23d6 1c3d 9e4b 783d 8a33 693d a0c9 d13c
000000f0: b8d6 063d d460 8d3d d687 223d a848 b13d
00000100: 45e7 da3c 7cd6 813d e936 873d e26f b93c
00000110: 9905 3b3c 832c 963d 2550 393d e7fe 513d
00000120: db27 493c 1c7e f73d 4153 103d 6312 8d3d
00000130: cd1d 843d 1d85 783d d12c 163d 60d7 943d
00000140: 2545 823c a3b9 2e3d 9d3b a73d 8af7 913c
00000150: 915f 493d 846a 543b 81cd d83d 5b89 463d
00000160: d254 523c 61cd 913b 0396 c63c 11eb 803d
00000170: 1672 f53b 5f31 143c b0bf 0a3d a445 2c3d
00000180: 1812 773c 4856 863d 4466 2f3d 9d37 853c
00000190: d76d f13c 6915 db3c 9a03 953d 3c8b 8a3d
000001a0: db65 303d 43cc 473d f2b7 673c c9a5 8d3d
000001b0: 54e6 8f3d ea3b ce3c 86d1 993d 43be 403d
000001c0: 63e6 093d 1290 703c 71b8 2e3d 6e29 de3c
000001d0: ff78 d83d a3a0 d03d f756 873d c226 1a3d
000001e0: fc53 f63d cc03 3a3d bf6e c63d fa7c 993c
000001f0: 886d 893d 4881 4c3c 5978 903c ac31 b03c
0.027136935 0.013385776 0.0023684322 0.074306436 0.020148585 0.011302687 0.04196451 0.050044697
0.07447631 0.065903135 0.024934571 0.019522157 0.042538237 0.0032616314 0.04501159 0.092225805
0.05518512 0.012703465 0.07278915 0.08420459 0.073769435 0.013636956 0.042952903 0.06809371
0.038384333 0.016039306 0.03823532 0.022750955 0.06629549 0.02478431 0.018628545 0.02712618
0.06433832 0.011772834 0.007910276 0.066914074 0.03584556 0.008105441 0.060526032 0.064509094
0.074250616 0.009931625 0.035194203 0.015761102 0.05333535 0.013881929 0.034023743 0.059128832
0.033029944 0.0048779184 0.020841373 0.017153554 0.016417429 0.004848023 0.066457056 0.061475243
0.038290154 0.06061899 0.056933917 0.025608838 0.032919616 0.06903234 0.039680324 0.08656436
0.026721606 0.06339738 0.0660227 0.022636358 0.011414909 0.07332709 0.045242447 0.051268484
0.012277569 0.120846 0.035235647 0.068882726 0.064509965 0.06067382 0.036663834 0.07267642
0.015902111 0.042657506 0.08165667 0.017818231 0.049163405 0.003241212 0.10586072 0.048470836
0.012837606 0.004449532 0.024241453 0.06294835 0.0074904067 0.009044974 0.033874214 0.042058602
0.0150799975 0.065594256 0.042822137 0.01626187 0.029471321 0.026743608 0.072760776 0.06764838
0.043065887 0.048778784 0.014142977 0.06916387 0.070263535 0.025175054 0.075106665 0.047056448
0.03366698 0.014682787 0.042656366 0.027119365 0.10569953 0.10186889 0.06608384 0.03763462
0.120277375 0.045413777 0.09689092 0.018736351 0.067103446 0.012481995 0.017635511 0.02150806

network.2.running_var f4 [128]
00000000: 548d 7a3b 0452 923a 3052 2638 6bae 5e3c
00000010: 8ef5 b73a e822 793a 7ed4 613c 3ec5 c43b
00000020: 7305 af3c e714 9a3c e4ab a83b e155 ff3a
00000030: 57c9 bf3b f9ea 0539 1535 cd3b 0ea4 8b3c
00000040: 6743 fd3b df52 aa3a 45ac 7f3c 5180 393c
00000050: dd33 3b3c ed9e ee3a 9d45 e93b 9a8e e43b
00000060: f395 623b a444 8b3a 34ee 113c b70c 8b3a
00000070: 4ab7 b03b 7fb3 d83b 49dd 943a 78c8 713b
00000080: a734 563c 37fc 113a bab1 e339 c668 233c
00000090: ada0 c33b 375b be39 8e7e 063c adaa 1c3c
000000a0: a9b8 123c 101a aa39 a57e 873b 2a78 273b
000000b0: 11b3 da3b 170d 833a 7e90 163c 4922 383c
000000c0: 5a2d e93b ca0a e438 5d61 913b 644d ee39
000000d0: e720 033a d7c6 8439 f42c f13b 5ab4 873c
000000e0: cf3b 233b ed35 263c 1464 e93c 6fcd b53a
000000f0: 8802 053c 8fc1 833c ab43 563b 1c4a 423c
00000100: 7410 7c3b 85e8 2f3c 8e38 8c3c 722b 963b
00000110: 5130 6a3a f6a5 ac3b 27bb 033c aaab 323c
00000120: 6cfa e239 ec1b b13c d334 c63b 804e b03c
00000130: 26f2 273c 9eee 083c 46a7 a73b f593 f23b
00000140: e00f 153b 028b 113c 5a18 e33b f8c2 863a
00000150: f428 c23b 05a2 c537 d4e9 253d 9a41 823b
00000160: f3b1 a03a b4cc 8b39 e1b9 643b c738 7f3b
00000170: 9e7a 9a39 f709 233a e8dc a53b ae78 2e3c
00000180: 5e02 ce3a de84 af3b 7676 a33c 8c00 513b
00000190: 0a0f 1c3b 93e0 083c f903 a03c 6a06 163c
000001a0: 3e90 e63b c90a 3c3d a61b 173a 44df 5c3c
000001b0: 159a 223c 55ff 423b 5059 783c 24ea 4f3c
000001c0: 738b af3b 52f8 7b3a 4e4e 653b 48b2 e83b
000001d0: deb9 c73c 8968 603c adfb bf3c e207 943b
000001e0: 68ef 133c 756c 243c 1e75 003c be03 c63a
000001f0: c1ed 1b3c 0566 aa3a b7f1 3a3b 142c d73a
0.003823121 0.0011163359 3.9654027e-05 0.013591389 0.0014034973 0.00095037976 0.013783572 0.0060049584
0.021364903 0.018808795 0.005147444 0.001948055 0.005852859 0.00012771403 0.0062624314 0.017046
0.0077289823 0.0012994668 0.015605037 0.011322097 0.011425939 0.0018205323 0.0071188943 0.0069750072
0.003457424 0.0010625315 0.00890689 0.0010608648 0.0053929435 0.0066131945 0.0011357452 0.003689317
0.013074077 0.0005568894 0.0004342923 0.00997371 0.005970082 0.00036307584 0.008208884 0.009562177
0.008955159 0.00032444345 0.0041349703 0.00255538 0.0066741784 0.0009998408 0.009189723 0.011238643
0.007116002 0.00010873897 0.0044366554 0.00045452558 0.0005002156 0.0002532515 0.007360095 0.01656549
0.0024907475 0.010144693 0.028490104 0.0013870428 0.008118279 0.016083507 0.0032694142 0.011858489
0.0038461955 0.010736589 0.017116811 0.004582816 0.00089335913 0.0052688075 0.008040226 0.010905186
0.00043292658 0.02161976 0.0060487776 0.021521807 0.010250604 0.008357672 0.005116376 0.0074028918
0.0022745058 0.00888324 0.006930393 0.0010281494 0.005925292 2.3559676e-05 0.0405062 0.0039751055
0.0012260064 0.00026664662 0.0034900832 0.0038943754 0.00029464526 0.00062194414 0.0050617345 0.0106488895
0.0015717258 0.005356415 0.019953948 0.0031891195 0.0023812675 0.008354324 0.019533144 0.009156803
0.007036238 0.045908723 0.0005764313 0.013480965 0.009924431 0.002975424 0.0151580125 0.012690101
0.0053572 0.0009611893 0.00349893 0.007101331 0.02438062 0.013696798 0.023435438 0.0045175413
0.009029247 0.010035624 0.007840423 0.0015107316 0.009517134 0.0013000375 0.002852542 0.0016416335

network.4.weight f4 [64, 128]
00000000: 61e8 933b 2574 f0bb fafd 3dba ff6c 79bc
00000010: 96dd bcbb 7674 04bb 392b c73c 72d6 a2bd
00000020: f48d 71bc f10e a8bc d3ff 38ba 651c da3a
00000030: c58e c7bc a612 31bd f156 a4bc 938f fc3b
00000040: e881 cf3b ab51 f2b9 8e66 75bc c9f4 1c3d
00000050: 3d02 c8bd 2381 efbc 32c7 823b d577 4c3c
00000060: 1431 443c 654f 183c af46 0dbc 74fc b83a
00000070: 1e54 fcbb 06e4 94bd fce7 193c 5438 e9bc
00000080: a7e7 12bb 99c0 bdbb 43ad 1b39 58a0 dc3b
00000090: cd2f 62bd 03b1 70bb e147 7ebb 904c 3abc
000000a0: ed5b 97bc 9092 10bb 6731 093b a1e2 05bd
000000b0: a872 f3bc a81c b2bb bc94 05bc e23d 05bc
000000c0: 2182 81bb ae70 c7ba ee26 e0bc f6d4 bdba
000000d0: b3e0 543b 2205 a5bb 0a07 263b f4e7 a3b9
000000e0: 81d9 fcbc fedb acbc d7e1 4dbc afa0 e4bb
000000f0: 8336 bcbc ce92 2ebc 7af0 0bbd fa50 cf3c
00000100: 984b 7dbc 7884 5f3c 8c75 a9ba 76ef 48bc
00000110: b01a 45bc 43b7 7abc 91cb ca3b 94c6 51bc
00000120: 1a19 1dba ec48 5bbc 4220 ebbc b7f6 4fbd
00000130: a8cb 97bb 5073 98bc e907 f7bb 3417 34bd
00000140: 680c 43bd 85a2 3cbd 1d49 343a afbf 413b
00000150: a5d0 a53b bb2a d4ba fb7f 3bbc 5071 ee3c
00000160: d985 e8bc ccf4 09bc 7e9c 16bc 0b6d 12bc
00000170: 0f82 b13a f66b 24bb 101b 41bc 9c78 04bd
00000180: 867b bf3b 9bc1 e23c 83b4 80bd 534b 92bc
00000190: a6b5 64bc 00d4 0dbb 791f 36bd bfdd a2bc
000001a0: 5814 903b a2cf 2d3d 9d61 613b 3645 fc3b
000001b0: 5f73 f73c 8bcc 7abc cc9d 2c3c dfba 19bd
000001c0: fc81 773c c40e 25bb 3eb7 dbbb 3c49 bcbc
000001d0: 9537 bfbc 1a31 9dbb 8ded 47ba f330 15bc
000001e0: 6ddb fb3b 9927 44bd 280e e43b 6773 543d
000001f0: 23b6 88bb 29ad 7c3c 39b3 c73b 731f 063d
00000200: 7d47 22bc 2f2f 753b b2b5 963a bbd3 ab3c
00000210: d3e0 ffba 6035 7fbb de56 783b a8d6 30bd
00000220: 66a8 153b 3e4d e03c cd8d 5dbb ce83 883b
00000230: 10ea 6a3b d8cf f2bb e92e 573c 26b3 81bd
00000240: 3347 9c3c f8c4 3fba ac4a 373c 7507 143c
00000250: 1028 723a b414 de3b 0dc7 c9bc be11 0dbc
00000260: f96b 4dbb 02a3 3d3a 0d29 353b dc63 e03b
00000270: c7d5 8abb 5816 253c 4ae6 91bb 8278 883b
00000280: 34b2 2d3c 8958 093a 520c 94bb 0b26 243d
00000290: 8eec a43c 6482 c639 dc7d 0abd a1c2 913c
000002a0: 385b 97bc a6c4 05bc 4dfb 9ebb ca05 113b
000002b0: 30ab 943c a38b 7a3c f341 233c 56d2 20bc
000002c0: 6f76 aebc 977e 18ba 05fb a3bc 6c2e 2dbb
000002d0: c1ad 8d3a 4f6e feba 6517 6f3c 996b 68bb
000002e0: 9931 28bd 441e f33b b4d7 9d3c 6634 b0bb
000002f0: 67fb 45bc 2480 0c3d dcd6 1dbd 668d c23b
00000300: 7f81 57bb 69ed e43b 31eb 0a3d 3592 01bc
00000310: bb61 4b3b 3424 1a3c 5d4b a33c 4027 473c
00000320: 8304 0cbb a47a c1bb 42c9 e73a 76c0 feba
00000330: 8512 403b e48a 00bd 55a6 a13b ed38 bcbc
00000340: 36e2 13bc 723d 9ebc e474 74bc 71dd 153c
00000350: d5f7 a6bc 9e61 14b7 a58a 9e3c bdfd 233d
00000360: af6d 763b 0226 ec3b 4b0b 923b 5d24 08bc
00000370: 005f 77ba 05e9 58bb 3456 3dbb a0b1 4f3b
00000380: c57a 47bb 2c73 2f3b 8693 fab9 fe42 1839
00000390: c33b 09bb 343d 6f3a 7c52 093d 30ee d83c
000003a0: 2039 2b3d 1cf1 95bc 2495 163a ae52 51bd
000003b0: aecb 4b3c c015 473c 02bd bd3c 3871 a7bc
000003c0: 98f9 61bb a746 b63b 7edf 393c 86f9 a8bc
000003d0: 7060 d43c fa53 86bd 48fd 7a3c 8bae 743d
000003e0: 8074 73bd ba0a 9f3c 6b53 20bc ea46 1c3b
000003f0: dac5 0c3d 06ae 81ba 6c0e 603b 370e 053c
0.0045137857 -0.0073380643 -0.0007247623 -0.015223741 -0.00576372 -0.0020211018 0.024312602 -0.079510584
-0.014743317 -0.020514937 -0.0007057164 0.0016640542 -0.02436007 -0.043230675 -0.020060988 0.007707545
0.0063326247 -0.00046218684 -0.014978064 0.038319383 -0.09766052 -0.029236382 0.003991031 0.012479742
0.011974592 0.009296273 -0.008622809 0.0014113323 -0.0077004572 -0.072700545 0.009393688 -0.028469242
-0.0022415908 -0.0057907817 0.00014846497 0.0067329817 -0.055221368 -0.00367266 -0.0038800167 -0.011370793
-0.01847645 -0.0022060014 0.0020933987 -0.032686833 -0.029717758 -0.005435545 -0.008153137 -0.00813243
-0.00395228 -0.0015216076 -0.027362313 -0.0014483023 0.0032482564 -0.0050360123 0.0025333785 -0.000312626
-0.030865433 -0.021100994 -0.012566051 -0.006977163 -0.022975212 -0.010655118 -0.034164883 0.025307167
-0.0154599175 0.013642423 -0.0012928708 -0.012264123 -0.012030289 -0.015302482 0.006188818 -0.012803692
-0.0005992815 -0.013384085 -0.028701905 -0.050772395 -0.004632432 -0.018609673 -0.0075387848 -0.04396744
-0.047619253 -0.04605343 0.000687735 0.0029563715 0.0050602728 -0.0016187051 -0.011444087 0.029106766
-0.028384136 -0.0084201805 -0.009192584 -0.008937131 0.0013542789 -0.0025088764 -0.011786237 -0.032341585
0.0058435826 0.027680209 -0.0628443 -0.017858183 -0.013959324 -0.0021641254 -0.04446361 -0.019881127
0.0043969564 0.042434342 0.0034390457 0.0076986803 0.03020638 -0.015307556 0.010535669 -0.03753173
0.015106674 -0.0025185803 -0.006705194 -0.02298414 -0.023341933 -0.004797113 -0.00076266454 -0.009105909
0.0076860697 -0.047889326 0.0069596954 0.05186787 -0.004172103 0.015422144 0.006094363 0.032744836
-0.009904739 0.0037412157 0.0011498241 0.020974984 -0.0019521959 -0.0038941726 0.0037893574 -0.043173462
0.002283597 0.027380582 -0.0033806444 0.004166103 0.0035845079 -0.007410031 0.013133743 -0.06332998
0.01907692 -0.00073154224 0.011187237 0.009034981 0.0009237537 0.0067773703 -0.024631048 -0.008610187
-0.0031344874 0.0007234068 0.0027642876 0.0068478417 -0.00423691 0.010076128 -0.0044525014 0.0041647563
0.010601569 0.0005239328 -0.0045180703 0.040075343 0.02013233 0.00037862652 -0.033811435 0.017793002
-0.018476114 -0.00816456 -0.0048517347 0.0022128695 0.018148035 0.015292081 0.009964454 -0.009815773
-0.021296708 -0.0005817203 -0.020017156 -0.0026425375 0.0010809229 -0.0019411537 0.01459298 -0.0035464524
-0.041062925 0.0074193794 0.019267894 -0.00537734 -0.012083865 0.034301892 -0.038534984 0.005937266
-0.0032883582 0.0069863093 0.033915702 -0.007908394 0.0031033594 0.009408046 0.019933397 0.012155354
-0.0021364994 -0.0059045125 0.0017683881 -0.001943602 0.0029307914 -0.031382456 0.0049331584 -0.022976363
-0.009026101 -0.019316409 -0.014920447 0.009147034 -0.020381847 -8.844216e-06 0.01935322 0.040036906
0.0037601998 0.0072066793 0.0044569126 -0.008309451 -0.00094364583 -0.0033097875 -0.0028890492 0.0031691566
-0.0030438167 0.0026771529 -0.0004779363 0.00014520806 -0.0020940162 0.00091262464 0.03352593 0.026480764
0.041802526 -0.018303446 0.00057442696 -0.05110424 0.012438698 0.012151182 0.023161415 -0.02043973
-0.0034481045 0.0055626216 0.011344789 -0.020626795 0.025924891 -0.06558986 0.015319176 0.05973677
-0.059437275 0.019414295 -0.009785513 0.002384598 0.034368373 -0.0009893782 0.0034188284 0.008121065

network.4.bias f4 [64]
00000000: a702 8ebc f7e1 a8bb 78f5 aebc 17ed 25bb
00000010: ed08 17bc 0177 2bbb 97c3 9e39 d50e 31bc
00000020: 196c 85bc 237a 2bbc 4cef 8ebc 6a51 11bc
00000030: a378 8abc a4ea 8f3c c8c1 35bb 3ef4 b1bc
00000040: ea90 48bd 4992 0abd 71b4 cabc 7c77 47bc
00000050: 156f 34bc 55a2 80bb a066 92bc d272 14bc
00000060: d446 873a e7b9 bfbb cb1d 88bc 5140 3fbc
00000070: 53be 19bc 3bd8 913a 2828 0abb e9f0 8dbc
00000080: 8512 08bc 4f2f fbbb 540e 54bc 256b 94bd
00000090: 2dea bcbc bba0 7abc 3034 dbba deb3 c1bb
000000a0: 6443 56bc a668 d3bb fae2 d1bc b109 86bc
000000b0: fd59 103b 1084 1dbc 5d29 d3bb a5f1 83bc
000000c0: ace9 f9bc 8d41 a5bd 7ddc eabc 4976 963c
000000d0: f068 5cbc 7909 46bc 577c 9cbc 4d69 d8bc
000000e0: 5f18 1abc e750 67bc 5e2a 49bc 2c88 18bd
000000f0: 9445 5bbc 7af9 03bc 3a56 14bb fb13 d6bc
-0.01733525 -0.0051538902 -0.021357283 -0.0025318319 -0.009218437 -0.002616346 0.00030281834 -0.010806759
-0.016286897 -0.010466131 -0.01744809 -0.008869508 -0.016903227 0.01756794 -0.002773391 -0.021722909
-0.048966326 -0.033830915 -0.024744244 -0.012174483 -0.011012812 -0.0039256015 -0.017871201 -0.009060578
0.0010320791 -0.0058510187 -0.016615769 -0.011673049 -0.009383756 0.0011127064 -0.0021081064 -0.017326789
-0.008305197 -0.0076655517 -0.012942869 -0.07246999 -0.023060882 -0.01529711 -0.0016723927 -0.0059113344
-0.013077591 -0.006451684 -0.025620926 -0.016362043 0.0022026293 -0.009614006 -0.00644414 -0.016106436
-0.030506931 -0.080691434 -0.02866959 0.01836695 -0.013452753 -0.012087219 -0.019102259 -0.026417399
-0.009405225 -0.01411841 -0.0122781675 -0.03723924 -0.013383288 -0.008055085 -0.0022634403 -0.026132574

network.6.weight f4 [64]
00000000: 9bcc d33d 6145 d33d 25f7 e23d 90a2 e03d
00000010: c8c9 023e 7e8c f73d 7fa3 d53d ab2a ac3d
00000020: c58f 103e 672b ee3d 2107 063e d1a9 bc3d
00000030: 38ac 113e 94ca 963d 465c db3d 62d1 fe3d
00000040: 7117 da3d 7699 ea3d 7594 ef3d 650e 013e
00000050: edd0 043e 72c0 d03d cd62 d13d 8ccb c53d
00000060: 4098 bf3d d57d df3d 71f2 083e c421 f43d
00000070: 20d6 db3d 67f8 dd3d c34d a73d cbc9 d53d
00000080: 9c53 cb3d 9978 ea3d 418a d63d 3dea c03d
00000090: 6f8a 073e 77ad 093e 1a74 d53d 95c6 133e
000000a0: ddb9 f33d 28cd fb3d 3d91 e63d a4ab 0f3e
000000b0: f3b7 933b 9882 f33d 0a3f b43d 5b27 0f3e
000000c0: a6ea 0c3e c29f ba3d bd4a fc3d 925a e33d
000000d0: e5e7 e83d e0dd fd3d e9b7 ee3d 1fbd 063e
000000e0: b122 fc3d 2542 1d3e 1611 d13d c1d3 023e
000000f0: ead9 0e3e 6a70 e73d 8a21 ee3d ef62 fa3d
0.1034176 0.10315967 0.11082295 0.10968506 0.12772286 0.12087344 0.10431575 0.08406576
0.14117344 0.11629372 0.13088657 0.092120774 0.14225852 0.073628575 0.10710959 0.1244228
0.10649002 0.114550516 0.11698238 0.12603147 0.12970324 0.10192956 0.10223923 0.09657964
0.09355211 0.109126724 0.13373734 0.11920503 0.107342005 0.108383946 0.08169129 0.104388796
0.099280566 0.114487834 0.104755886 0.094196774 0.13236402 0.13445078 0.10422535 0.14431222
0.11900685 0.1229499 0.11258171 0.1403032 0.0045080124 0.11890143 0.08801086 0.13979857
0.13761386 0.09112503 0.12318943 0.11101259 0.11372355 0.12395835 0.11656172 0.13158081
0.12311304 0.15357263 0.10208337 0.1277609 0.13950315 0.11300738 0.11627491 0.12225901

network.6.bias f4 [64]
00000000: 5b7b 093d 256b 173d 14d1 c93c 87e9 7f3d
00000010: c6ac 6a3d 2d0d 183d 6602 1c3d 0602 e83b
00000020: a949 333d 602c ff3c 0441 bf3c a460 0a3d
00000030: 6604 0a3d 4e19 793c 3ee3 ed3c f447 f33c
00000040: 8ad2 41bb ff7b 2d3d 75d8 183d b504 0b3d
00000050: 6a58 6a3d ce1b 193d 7688 133d 17d6 ea3c
00000060: 6c03 2a3d 16fd 2a3d a52e 223d bfc1 023d
00000070: 6176 a93c 3bfd 7a3d 32e8 ba3c 2ed4 eb3c
00000080: afe6 873c 7c4c b73c 2ce4 163d 4d29 803c
00000090: 20d7 ef3c 6e35 533d 6123 9b3c 9735 643d
000000a0: b365 f13c 90c4 363d 855a 113c b363 6d3d
000000b0: d89b 5e3a 0239 7c3d 0d9a 073d 9d72 113d
000000c0: 43f3 453d 00b8 96bb 5208 2c3d 50f4 5c3b
000000d0: 92e0 263d 9fc8 fe3c a5a5 923c b2e9 a23c
000000e0: 7115 2a3d 558a 7a3d d0c8 153d b47f c93c
000000f0: d240 793d 130a 6f3d aed9 2e3d ebf5 863c
0.033564907 0.036967415 0.024635829 0.06247857 0.057293676 0.03712194 0.038088225 0.0070803193
0.04377142 0.03114909 0.023346432 0.03378357 0.0336956 0.015203787 0.029039022 0.029697396
-0.0029574954 0.04235458 0.037315805 0.033940036 0.057213224 0.037380032 0.03601881 0.02866654
0.04150717 0.041745268 0.039595265 0.031923052 0.02068633 0.061276656 0.022815797 0.028787699
0.01658949 0.022375338 0.036838695 0.015644694 0.029277384 0.051564626 0.018937768 0.05571517
0.02946744 0.04462105 0.008871679 0.05795641 0.00084918505 0.061577804 0.0331059 0.035509694
0.048327696 -0.004599571 0.042000122 0.0033714958 0.04074151 0.031101523 0.017901251 0.019886825
0.041524354 0.06116708 0.036568463 0.024597026 0.060852833 0.058359217 0.042688064 0.016474685

network.6.running_mean f4 [64]
00000000: b703 d43b 2670 3c3c 16ee a43b d3ed 4a3c
00000010: aa8b 243c 6503 963c 88b2 3b3c bab6 003c
00000020: 2eb9 e53b d429 183c 8351 4d3c 4b69 3a3c
00000030: d92a 363c a651 a73c 65a1 373c 2f42 6f3b
00000040: 5b8e b93a fce5 e43b 6d6d fc3b 6698 b73b
00000050: bd83 3f3c d892 333c 287c 303c 9656 f43b
00000060: fab2 523c 9d77 f63b 4d01 d23b 699e f03b
00000070: 684a 3b3c 510f a63c ff30 403c 79cf 1e3c
00000080: f77b 623c 4d9a 123c 37c8 2f3c aa43 cd39
00000090: b531 8d3b eb0d 153c 75e2 393c 2667 2c3c
000000a0: dd51 d73b 2848 153c 52b5 0b3c 55e9 1d3c
000000b0: f4c4 d33b 93db 3c3c 6ecf 113c e3a0 de3b
000000c0: 4989 fe3b 0fb2 c63a 88cc 5e3c baa3 b63c
000000d0: 0a6d 1a3c 3e83 0f3c 7e1e c93b 9a30 073b
000000e0: 62e2 123c f1db 153c 9c36 013c 8b7e 203c
000000f0: 1c7c b53c 19fa 2d3c a730 453c f06d 803b
0.0064701694 0.011501348 0.005033265 0.012385803 0.010043064 0.018312166 0.011456139 0.007856065
0.0070106005 0.009287316 0.012531641 0.011377643 0.011118614 0.020424675 0.011207913 0.0036507954
0.0014156805 0.006985424 0.0077034743 0.005602884 0.011689124 0.010960303 0.010771789 0.007456611
0.012860054 0.0075215832 0.0064088465 0.0073431027 0.011431314 0.020270975 0.011730432 0.00969302
0.013823501 0.008947921 0.010728887 0.0003915106 0.004308904 0.009097557 0.0113454955 0.010522639
0.006571038 0.009111442 0.008527117 0.00963815 0.0064626876 0.01152696 0.008899553 0.0067940815
0.0077678305 0.0015159267 0.013598569 0.022294868 0.009425411 0.008759318 0.006137668 0.0020628334
0.008965107 0.009146676 0.007886555 0.009795795 0.022153907 0.01061871 0.012035525 0.0039193556

network.6.running_var f4 [64]
00000000: a59c 1b39 f811 f239 3a52 5039 42b9 8839
00000010: b7d5 4e39 f662 943a d0b6 f139 e1ea 8439
00000020: d9dd 6839 1ced 9339 445d 323a 5e4a 063a
00000030: d29b 203a da41 413a d37a de39 9132 b238
00000040: 1f74 fc38 708b 8b39 6ad5 c339 cc13 4439
00000050: ce0d bd39 0c0c e739 2a61 d439 b637 9239
00000060: 404f df39 5e35 4939 f013 7539 dbe4 3039
00000070: 15c1 fa39 8cea 443a 13b2 df39 136a ff39
00000080: 7704 283a 9ce1 8b39 c2af ca39 73af fa37
00000090: b823 e738 b7e0 7639 22f8 173a efeb 7439
000000a0: 7efb 8639 b162 9339 e415 bb39 1df9 7839
000000b0: 8405 9638 8ae8 8139 ba98 a939 ca34 7c39
000000c0: ca7c b039 bb7a 6139 b715 333a 6d5f 563a
000000d0: b641 d139 a407 c139 d5a6 9b39 fd64 5838
000000e0: fe84 8039 e2d2 6339 42a1 5c39 258d 173a
000000f0: 156b a33a 36a1 5839 dd96 0d3a c0ab 1f39
0.00014840307 0.00046171225 0.00019867058 0.0002607797 0.00019725306 0.0011320997 0.00046103308 0.00025352
0.00022207889 0.00028214685 0.0006804059 0.0005122776 0.00061267347 0.00073721784 0.0004243465 8.49712e-05
0.000120379256 0.00026616035 0.00037352304 0.00018699392 0.00036059174 0.0004406873 0.00040508184 0.00027888798
0.0004259292 0.00019188735 0.00023372448 0.00016869923 0.00047827573 0.0007511757 0.0004266655 0.00048716422
0.0006409357 0.00026680238 0.00038659392 2.9884022e-05 0.000110215915 0.00023544101 0.00057971675 0.00023357545
0.00025745848 0.00028111556 0.0003568373 0.00023743925 7.153585e-05 0.00024778052 0.00032347982 0.00024052258
0.0003366231 0.00021503393 0.0006831544 0.00081776717 0.00039912545 0.0003681752 0.00029688203 5.1592466e-05
0.0002451315 0.00021726967 0.00021040908 0.0005781225 0.0012467826 0.00020659421 0.00054012035 0.00015227403

network.8.weight f4 [32, 64]
00000000: b743 90bb 01bf 70bd 32aa abbb b1c4 bb3a
00000010: c849 83b6 ef68 09bc 7bd8 6f3b 1388 8cbd
00000020: 5ca0 8abd cb03 84ba 88df 9c39 d199 bebd
00000030: 6e95 22bd 1e06 37b9 0b9f c4bd 5174 a5bd
00000040: a0f8 093b 3954 f0bb 96f5 c93a 4d27 323a
00000050: df70 873a 977d 74bd e711 72bb 7137 173b
00000060: 13b2 08bb 3ce3 6e3b 5b5f aa3b 03f2 35bb
00000070: bf58 2cbd 28fb dd3a f499 c9bc 7c21 fcbb
00000080: e750 18bd f4c7 90bd 34f7 90bb 280d faba
00000090: 6e45 fdbb 30a4 483b 981c 40bd 7310 87bb
000000a0: 4fbb b2ba 0b4e 71bb 7156 c63b 1d08 593b
000000b0: a7c3 3abc 65f7 853b f4ec 33bb a715 63ba
000000c0: a91b 16bb bfaa 8ebc 139a b1ba 83a3 5aba
000000d0: c006 0abc 5ace a5ba 81d7 d2bb 12aa 55bd
000000e0: 7c56 b53a c5ae 013b 4994 d53b ee13 ccbb
000000f0: 3736 f0bb 4921 2bbc 568d 2fbb 0b6d 07bd
00000100: c068 d0bc 70bc b6bc 9cba 3a3d 961a bf3c
00000110: 8e32 a23d bc59 94bc 2a5e 7c3c 685d 273c
00000120: d9ad 4ebd 1349 60bd c68d 44bd b754 5c3c
00000130: 6a40 063d db15 d3bd 442e 81bc 179f bfbc
00000140: e0a2 953d e793 9a3d 05c8 2e3d e364 f7bc
00000150: 6b22 22bb 9df2 86bc 9053 3e3d 8b95 59bc
00000160: 2690 50b9 156b 99bb b7e5 343c b788 a83b
00000170: 04ba 013b 214e 743c 6b11 20bd 0208 523c
00000180: 5ef4 fdbd 0a67 d93b 2d18 c2bc c6a9 8ebd
00000190: bf30 913d 081d 58bc c31b 013c 2735 303d
000001a0: 6743 97bd 0b9a 80bd f664 c2bd 1aae a5bc
000001b0: d050 03bc c1a0 b5bc 6650 c3bc 7974 26bd
000001c0: d4c1 793d 510b 2abd 5d64 5ebd 128c 4c3d
000001d0: 77f9 cd3a 6c68 3dbd 900f 0dbe 6ae0 4c3c
000001e0: 46ad 5fbb f26d 053d 2de0 9ebd 825c 3cbd
000001f0: f9c6 2c3b 3287 9dbc a8e3 0c3c 1925 edbc
00000200: 5456 44bb 940e d9b8 7e4f 443b 9b19 36bc
00000210: 430c 93bc e631 693b 7ae3 643c c068 c1bc
00000220: 7737 26bc 52de b6bc c2d9 02bc 02b1 babd
00000230: 44ca 8ebb 8f05 583c 9a3e adbd 5df4 59bc
00000240: 4e47 cc3c ce08 86bc f886 c13a 8608 cab9
00000250: 427d c7ba c6b1 6ebb 5302 0abd 3424 92bd
00000260: 185b 8aba 2bfd 263c ba8d 613b 5af8 4b3c
00000270: 69e6 273c 79a2 a1bd cebc 7bbb d7c2 eb3b
00000280: 95cf 6d3b 75d4 75bb d8b9 79bb f1f0 fcbb
00000290: 4567 18bc 06f7 56bd aa44 c7bc 1021 383c
000002a0: b1aa 913b a688 333c af0f e4ba 63b0 9e3b
000002b0: 279a 87bc b4da 263c 510a cf3b b680 e3bb
000002c0: 9f1a fcbc e164 b9bc 58c8 0cbd 6ee0 b4bb
000002d0: 90a2 91bd c0e0 de3b 4c1e c7bc 7888 e9ba
000002e0: ffe0 90bc 1253 a93b f668 bc3b cf57 043c
000002f0: 8737 3bbd 5b37 88bc 14ec 5fbb c116 583b
00000300: ea65 5d3b 3426 75ba 1465 d03b 373f 3bbc
00000310: 8e8e c8bd 1809 063c 60e2 99bb 7d79 a9bc
00000320: e51d 59bb 0e83 79bb 8ac7 a5bb a810 5abc
00000330: 8e18 29b8 5c40 ae3b ef6b 973b 95d2 4bba
00000340: 50d5 c0bb 3537 633b 9de2 97ba 5017 be3a
00000350: e67c 8cbd 1be2 1e3a b604 983b 5747 0f3b
00000360: c43c 04bc b271 4d3b 8483 88bd 6f78 11bc
00000370: 81f0 f13b 5be6 d23b da2c 733c 48ae 76bb
00000380: a638 de3b 188b ddbc cb8d bbbd 441f 8a3b
00000390: a07c a2bd 0066 2bbc f1c5 dbbb d57c 35bc
000003a0: 2ebe 2abc 1791 a33b d9af ec3a ee24 52bd
000003b0: 822a 993b 37e7 9dbd 9d87 f7ba 8294 b3bb
000003c0: d9d9 6f3a b440 713c 79a7 fbbb 8dc1 71bb
000003d0: 52a2 273c 4854 2cbd e470 883b 6bb6 0139
000003e0: 2c53 b73a cc9c 79bd cba7 8cbc e3f5 6f3b
000003f0: 8f53 ee3a 7756 cebb 3cd8 3ebb 16ff d8bc
-0.0044026035 -0.058775906 -0.0052387947 0.0014325586 -3.9126935e-06 -0.0083868345 0.0036597538 -0.068618916
-0.067688674 -0.0010071931 0.00029921182 -0.09306682 -0.03969329 -0.00017454519 -0.096006475 -0.08078826
0.0021052733 -0.007334259 0.0015408273 0.00067960174 0.0010333321 -0.059690084 -0.003693694 0.0023073817
-0.0020858094 0.003645136 0.0051993555 -0.0027762658 -0.042076822 0.0016935812 -0.024609543 -0.0076944213
-0.03718653 -0.07069388 -0.004424 -0.0019077407 -0.007729224 0.0030615442 -0.04690227 -0.004121834
-0.0013636145 -0.00368202 0.006052785 0.0033116408 -0.011399186 0.0040883296 -0.0027454467 -0.0008662589
-0.002290467 -0.017415402 -0.0013549946 -0.0008340405 -0.008424461 -0.0012649999 -0.0064343815 -0.052164145
0.0013834978 0.0019788009 0.006517921 -0.0062279617 -0.0073306817 -0.0104449475 -0.0026787124 -0.033062976
-0.025440574 -0.02230665 0.04558812 0.023328107 0.07919799 -0.018109195 0.01540331 0.010215141
-0.050458763 -0.05475719 -0.04798677 0.013447932 0.032776274 -0.10306903 -0.015769131 -0.02339129
0.073064566 0.075477414 0.042671222 -0.030199474 -0.0024739753 -0.016473109 0.04646641 -0.013280283
-0.00019890125 -0.0046819546 0.011041096 0.005143251 0.0019794712 0.0149112055 -0.03907911 0.012819292
-0.12400125 0.0066345977 -0.023693169 -0.069659755 0.07089376 -0.013190515 0.007880154 0.04301944
-0.07385903 -0.06279381 -0.09491913 -0.02022462 -0.008014873 -0.02217138 -0.023842048 -0.04063842
0.060975865 -0.0415147 -0.054294933 0.04993827 0.0015714605 -0.046242163 -0.13775468 0.012504676
-0.0034130379 0.032575555 -0.07757602 -0.04598666 0.0026363714 -0.019229505 0.008599199 -0.028948354
-0.0029958682 -0.00010350082 0.0029954608 -0.011114503 -0.017950183 0.003558272 0.01397025 -0.023609519
-0.01014506 -0.022322807 -0.007986488 -0.09115793 -0.004357608 0.013184919 -0.08459206 -0.01330289
0.024936344 -0.01636162 0.0014764955 -0.00038534793 -0.0015219825 -0.003642188 -0.033693623 -0.071358114
-0.0010555713 0.010192196 0.003441675 0.012449348 0.010247805 -0.07892317 -0.0038412097 0.0071948576
0.0036287059 -0.0037510667 -0.0038105156 -0.007719152 -0.009301965 -0.052481674 -0.024324734 0.011238351
0.004445397 0.0109578725 -0.0017399694 0.0048428043 -0.016552998 0.010183979 0.0063183685 -0.006942834
-0.030774413 -0.02263111 -0.03437075 -0.005519918 -0.071110845 0.0068016946 -0.024306439 -0.001781716
-0.017685411 0.0051673735 0.005749817 0.008077576 -0.045707252 -0.016627958 -0.0034167813 0.0032972547
0.003378267 -0.0009351701 0.0063597057 -0.011428646 -0.09792815 0.008180879 -0.0046961755 -0.020687813
-0.003312939 -0.00380725 -0.0050591873 -0.013309635 -4.031561e-05 0.005317731 0.004621021 -0.00077752146
-0.005884804 0.0034670357 -0.0011587922 0.0014502797 -0.0685976 0.0006060914 0.0046392335 0.002186259
-0.008071128 0.0031348285 -0.066657096 -0.008878811 0.0073834066 0.006436152 0.014842236 -0.00376405
0.0067816554 -0.027043864 -0.09157904 0.004215153 -0.079339266 -0.01046133 -0.006706946 -0.011077126
-0.010421319 0.0049916613 0.0018057778 -0.05130475 0.004674257 -0.07710116 -0.001888502 -0.00548035
0.00091495883 0.014724899 -0.0076798764 -0.0036889047 0.010231571 -0.042072564 0.0041638482 0.00012370355
0.0013986579 -0.06094055 -0.017169854 0.0036615066 0.0018182861 -0.0062969285 -0.0029120585 -0.026488822

network.8.bias f4 [32]
00000000: af70 c63c 9804 c43d 0c8a bf3c 5d01 fd3c
00000010: d09c ca3d 47f4 d23c cd03 a63c 9ae3 7a3c
00000020: a898 ea3c 5115 b53c 355a 003d 915f 753c
00000030: dbf3 dd3c 61f7 8d3c 0677 dd3b 9be6 f83c
00000040: 2d7c 0f3d 503c f23c b5af 6f3c 7659 cf3c
00000050: ab71 c43c b2a4 a93c 0645 e63c 3bbf 263d
00000060: 30ae 233d a95a 043b fab9 103d 76e9 b83c
00000070: 05c4 0d3d 654f 173d e223 093d 4e2c f63c
0.024223654 0.09571189 0.023381256 0.03088444 0.09893191 0.025751246 0.020265484 0.0153130535
0.028637245 0.022104891 0.031336028 0.014976398 0.027093818 0.017329874 0.0067585735 0.030383399
0.035030533 0.029569775 0.014629294 0.025311213 0.023979982 0.020708416 0.028109085 0.040709715
0.03996104 0.002019564 0.03533361 0.02257226 0.034610767 0.03694095 0.033481486 0.030050423

network.10.weight f4 [32]
00000000: a693 873f f302 453f 81bd 793f 95c0 863f
00000010: 3696 683f 1cac 893f 06cf 863f 23f7 253f
00000020: 9aa8 8a3f ebc9 8e3f 2efe 7e3f d6cd 6e3f
00000030: 3b06 873f 470e 6c3f acdc 1d3f 351e 183f
00000040: ee72 783f af02 873f 0787 683f 642b 8b3f
00000050: ca14 8b3f 355d 0a3f 727b 0f3f 203a 453f
00000060: 135a 8b3f 4321 113f bd83 863f 0e92 823f
00000070: 6af6 903f 35eb 833f a3c5 8f3f 7aac 8c3f
1.0591934 0.76957625 0.97554785 1.0527521 0.90854204 1.0755649 1.0531929 0.64830226
1.0832703 1.115537 0.996066 0.9328283 1.0548776 0.92209285 0.61664844 0.5942109
0.9705037 1.0547694 0.90831035 1.0872617 1.0865719 0.5404847 0.5604774 0.77041817
1.0886863 0.5669138 1.0508953 1.0200822 1.13252 1.0306154 1.1232189 1.0990136

network.10.bias f4 [32]
00000000: 5b2a 81bc 3d50 9a3d bdf7 a8bd 6d69 5ebc
00000010: 96aa 493d ebad 82bd d53a cbbd c166 533e
00000020: 9ac2 8ebd 206a 5cbd 269a b13b e53d c4bd
00000030: 997b 043d 151e e4bd 0ac7 623e b90a 2c3e
00000040: ed2c 133c 453f 0cbc f60f c1bd 6016 acbd
00000050: b0ba 0c3b 6514 203e 9588 573e 421f 223e
00000060: 58d7 933d a435 4e3e 0094 7d3d 4f0c 4f3c
00000070: 8b13 32bd 6f03 c13c dd92 01bd 841f 26bd
-0.015767267 0.075348355 -0.08250377 -0.01357494 0.04923495 -0.063808285 -0.09923331 0.20644666
-0.06970711 -0.053812146 0.0054199873 -0.09582118 0.032344434 -0.1113855 0.2214624 0.16800965
0.008982879 -0.0085600065 -0.094268724 -0.08402705 0.002147358 0.1563278 0.21048196 0.15832236
0.07218808 0.2013765 0.061908722 0.012637212 -0.04347567 0.023561208 -0.0316342 -0.0405574

network.10.running_mean f4 [32]
00000000: 8762 a93c cb3f bb3d 41a1 753c 05a9 b23c
00000010: 9b93 c83d fea8 6c3c abf4 6a3c 7999 973c
00000020: aaae 8f3c b634 843c 6144 b83c 87d9 1e3c
00000030: 2300 c43c ea4e 1b3c da67 d63c fa1b 043d
00000040: 610b f23c d775 af3c 7bd1 1f3c 6b21 783c
00000050: 07e4 ab3c 7c3d de3c 263c a93c ef3d 093d
00000060: 7703 f83c 5c2e 8b3c 821f d93c 8112 a93c
00000070: fbcf a33c ef24 cd3c f8a2 a43c 7d01 9d3c
0.020676864 0.09143027 0.014992059 0.02180911 0.097937785 0.014444588 0.01434056 0.018505799
0.017539341 0.016138416 0.022493543 0.009695417 0.023925846 0.009479264 0.026172567 0.032253243
0.029546442 0.021418495 0.009754534 0.015144686 0.020982755 0.027128927 0.020658564 0.03350633
0.03027509 0.01698988 0.026504282 0.020638706 0.019996634 0.025042025 0.02009724 0.019165749

network.10.running_var f4 [32]
00000000: 761f 033a 327d c23b 87b7 cc39 702e 2c3a
00000010: e3b1 e03b b655 d639 9cf8 c939 8703 d43a
00000020: a345 d839 2a50 d939 cee8 dd39 1841 9739
00000030: 68f9 fe39 ba69 a039 57d3 0a3b 83a4 353b
00000040: dc20 1a3a 2fbe 1c3a d0b2 9039 bcdd eb39
00000050: 6fc6 0f3a f870 033b 4581 ab3a f4a0 df3a
00000060: d96b 123a 72e4 c33a 8f30 d139 d38d f939
00000070: 0d20 213a 19f8 2c3a aba7 1e3a c020 113a
0.00050019415 0.0059353346 0.0003904665 0.0006568199 0.0068571432 0.0004088112 0.00038522936 0.0016175368
0.00041250614 0.00041449192 0.00042325858 0.00028849463 0.00048632477 0.0003059635 0.0021183097 0.0027716465
0.000587953 0.00059792673 0.00027599046 0.00044987898 0.0005484586 0.0020056348 0.001308479 0.0017061518
0.00055855286 0.0014945401 0.00039899765 0.00047598648 0.00061464385 0.0006598249 0.0006052206 0.0005536191
