models/mlp_multiclass_crossentropy20250830_193754.pth (torch, 81442 bytes, 21 tensors)

network.0.weight f4 [128, 48]
0	0x3be2ff55	0.0069274106
1	0xbcae64f9	-0.021288382
2	0xbc337edc	-0.010955539
3	0x3ccc6851	0.024952086
4	0x3c7b1f68	0.015327312
5	0xbdc410fe	-0.095735535
6	0xbba483ea	-0.005020608
7	0xbc550d32	-0.013003634
8	0x3cbe9286	0.023263227
9	0xbc97847b	-0.018495789
10	0xbd31fd07	-0.043454196
11	0x3cbeb691	0.023280414
12	0x3d0e4751	0.03473598
13	0x3d01b644	0.031667963
14	0x3bebbf97	0.00719447
15	0xbc73552f	-0.014851852
16	0x3d1c264d	0.038122464
17	0xbc22390f	-0.009901299
18	0x3cc8e146	0.024521481
19	0xbbf16329	-0.007366557
20	0x3be2c940	0.0069209635
21	0x3c97ce47	0.018530978
22	0xbcc685c3	-0.024233704
23	0x3b95538a	0.004557078
24	0xbcb64948	-0.02225174
25	0xbc117165	-0.008877133
26	0xbd214d45	-0.03938033
27	0x3ca9c816	0.020725291
28	0x3bd2d0b8	0.0064335726
29	0xbbd9b482	-0.0066438327
30	0x3d3dd4aa	0.04634539
31	0x3bd82afa	0.00659692
32	0x3d5be2e7	0.053683188
33	0xbe0befc0	-0.13665676
34	0xbba5de22	-0.0050618807
35	0xbabe8527	-0.0014535532
36	0x3c66e92e	0.01409368
37	0xbc5fb0af	-0.0136529645
38	0xbd99a063	-0.075012945
39	0xbc8b45f9	-0.017001139
40	0xbe47b8df	-0.19504116
41	0xbcde311d	-0.027123028
42	0x3d3c07a4	0.045905724
43	0xbce7c599	-0.028292464
44	0xbd4eeb39	-0.050517295
45	0x3d776e33	0.06040783
46	0xbb8cde91	-0.004298993
47	0x3c81eda8	0.015860394
48	0xbabf7543	-0.001460709
49	0x3d7e0bb8	0.062022895
50	0xbcb42f2d	-0.021995151
51	0xbc878628	-0.016543463
52	0xba07421e	-0.00051596935
53	0xbd33696b	-0.043801706
54	0xbd2519cf	-0.040307816
55	0x3ba56a8b	0.0050481013
56	0x3c12e6b8	0.00896614
57	0x3ca88c45	0.020574698
58	0x3d25c0da	0.04046712
59	0xbb023ad2	-0.0019871485
60	0xbbbe19f5	-0.005801434
61	0xbcc1c068	-0.023651317
62	0xbd38842b	-0.04504792
63	0x3c0195c8	0.007909246
64	0xbc9ddd3e	-0.019270536
65	0xbbf23298	-0.007391285
66	0x3cf0bbfa	0.02938651
67	0xbde875ae	-0.113505706
68	0x3c0ceafe	0.008600948
69	0xbc77eb08	-0.015131719
70	0x3c058a3c	0.008150633
71	0xbc1671dd	-0.009182421
72	0x3b9e04ae	0.004822335
73	0xbba49034	-0.005022073
74	0x3d6ee5d2	0.058324642
75	0x3cc97441	0.024591567
76	0x3b932867	0.0044909003
77	0xbb3f651a	-0.0029204548
78	0x3ca28474	0.01983855
79	0xbc88a1f6	-0.016678791
80	0xbd72fd1b	-0.05932341
81	0x3d36e389	0.04465059
82	0xbc375876	-0.011190524
83	0xbc954c63	-0.0182249
84	0xbb74d013	-0.0037355467
85	0xbd6f5148	-0.058427125
86	0xbed55dfc	-0.41673267
87	0xbd2fc341	-0.042910818
88	0xbaf75e60	-0.001887273
89	0xbd190712	-0.03736026
90	0xbd97b81a	-0.074081615
91	0x3dad5305	0.084631
92	0x3c0b2b30	0.008494183
93	0xbbe1a3c2	-0.0068859765
94	0x3bc4ad35	0.006002093
95	0xbc7167ec	-0.01473425
96	0x3ca91775	0.020641068
97	0x3cf482b4	0.02984748
98	0xbc4efde8	-0.012633778
99	0x3c2f8a75	0.010714163
100	0xbd760750	-0.060065567
101	0x3d086e48	0.033308297
102	0x3cbc86b6	0.023013454
103	0x3ca79e29	0.020461159
104	0x3d039323	0.032122742
105	0xbd4ca967	-0.049966242
106	0xbd44054b	-0.04785661
107	0xba5e739f	-0.0008485857
108	0xb995fe39	-0.00028608905
109	0xbd28c9d9	-0.041208122
110	0xbc7351ff	-0.014851092
111	0xbd3fb8d7	-0.046807136
112	0xbce93c4a	-0.02847113
113	0xbd241a4a	-0.040064134
114	0x3b15baad	0.0022846863
115	0x3d73505d	0.059402812
116	0xbc93bf2e	-0.018035498
117	0x3afa9018	0.001911643
118	0x3a26819a	0.00063517096
119	0xbd8570af	-0.06515633
120	0x3b77c104	0.0037804255
121	0xbc213a76	-0.009840598
122	0xbd825b37	-0.06365054
123	0xbdb00df6	-0.08596413
124	0xbc63e251	-0.0139089385
125	0x3c5b1c02	0.013373377
126	0x3d2aba3b	0.04168151
127	0x3d58add9	0.05290017
128	0x3bf30637	0.0074165124
129	0xbcae4ac8	-0.021275893
130	0x3ce8edf6	0.028433781
131	0xbb876bbd	-0.0041327165
132	0xbcacdd89	-0.02110173
133	0xbc8f4091	-0.017486842
134	0xbe71526b	-0.23566596
135	0xbc752850	-0.0149632245
136	0xbe5874af	-0.21138261
137	0xbd30e4c7	-0.04318693
138	0x38f3f77d	0.00011633241
139	0x3cd8e879	0.02647804
140	0x3d07899f	0.03309023
141	0xbcd11456	-0.025522392
142	0x3c55dcb9	0.013053113
143	0xbb541e43	-0.003236667
144	0x3da3db9f	0.08000874
145	0xbc4d5e85	-0.012534742
146	0xbdd3e5d0	-0.10346568
147	0xbdb7b8f2	-0.089708224
148	0xbd24d5e2	-0.040243037
149	0x3da6570d	0.08122072
150	0xbdaaa7cd	-0.08332787
151	0x3d80183d	0.06254623
152	0xbcfca052	-0.030838165
153	0xbc3e518c	-0.011616122
154	0xbd9ab1f8	-0.07553476
155	0xbc68e810	-0.014215484
156	0xbdaa7b85	-0.08324341
157	0xbd4f1ac4	-0.050562635
158	0xbd216482	-0.039402492
159	0x3b398e3f	0.0028313545
160	0xbcf7373b	-0.030177703
161	0x3bbe0392	0.0057987655
162	0xbcaa6849	-0.02080168
163	0xbd47d951	-0.048791233
164	0x3b8a8900	0.0042277575
165	0xbd0e778b	-0.034781974
166	0x3c7ee1df	0.015556782
167	0x3cdef6d3	0.027217304
168	0xbc27adad	-0.010234279
169	0xbc3f8f40	-0.011691868
170	0xbd47877b	-0.04871319
171	0x3bff8bd3	0.007798651
172	0x3d656fdb	0.056014877
173	0xbd5b5b99	-0.05355415
174	0xbdf8c857	-0.12147587
175	0x3d9300c6	0.07177882
176	0xbdac5c8e	-0.08416091
177	0xbd946d57	-0.072474174
178	0xbdad2777	-0.08454793
179	0x3c0f7cde	0.008757798
180	0xbba62efe	-0.00507152
181	0xbdc6f8e3	-0.0971544
182	0xbcd82a8c	-0.026387475
183	0xbc1b1c59	-0.009467208
184	0xbe3d9525	-0.18513925
185	0xbd432b0d	-0.04764848
186	0x3ca038e8	0.019558385
187	0x3d95f0d7	0.07321327
188	0xbd1fa69b	-0.038977247
189	0x3d105a8d	0.035242606
190	0x3d1b2a37	0.037882056
191	0xbc3ec9f9	-0.011644834
192	0xbe15dbb4	-0.14634591
193	0x3d225a7c	0.039637074
194	0xbd7a995e	-0.06118142
195	0x3c3bce59	0.011462771
196	0x3d0ec33b	0.034854155
197	0x3d03b59c	0.032155618
198	0x3c3e8c57	0.011630139
199	0xbe0db049	-0.13836779
200	0x3c8f680b	0.017505666
201	0x3be65cfc	0.0070301276
202	0xbd2f9638	-0.04286787
203	0xbd4f885a	-0.050667144
204	0xbb582489	-0.003298076
205	0xbd57ef23	-0.052718293
206	0xbcb6f1f7	-0.022332175
207	0x3cc03275	0.02346156
208	0xbbd3d373	-0.0064644157
209	0xbbdc1c3a	-0.006717232
210	0xbc9a80dc	-0.018860273
211	0xbccfb903	-0.025356775
212	0x3ce39b35	0.02778397
213	0x3cf1ab50	0.029500633
214	0xbdd44fc4	-0.103667766
215	0x3d333612	0.043752737
216	0xbcaf1f73	-0.0213773
217	0x3b59621e	0.0033170055
218	0xbc17bd87	-0.009261495
219	0xbd06a9db	-0.03287683
220	0xbe21a549	-0.15785708
221	0x3d0f65b2	0.035009094
222	0xbd8a6318	-0.06757182
223	0xbd0577e1	-0.03258503
224	0xbd81cd89	-0.06338031
225	0xbd18dfd6	-0.03732284
226	0xbcdfffcd	-0.027343655
227	0xbbcd2e38	-0.006261613
228	0x3c46b5bb	0.012128289
229	0xbcc712dd	-0.024300987
230	0xbdacbd68	-0.08434564
231	0xbd2f6f07	-0.042830493
232	0x3d64d6b0	0.055868804
233	0x3ca27e5f	0.019835649
234	0x3dec8454	0.11548677
235	0xbdc0820f	-0.09399807
236	0x3d827f60	0.06371951
237	0xbc0d240c	-0.008614551
238	0x3aff26ef	0.0019466559
239	0xbd277df6	-0.04089161
240	0xbe173962	-0.14767984
241	0x3b697fbc	0.0035629114
242	0xbd360280	-0.044435978
243	0xbd362c39	-0.044475768
244	0xbc95950c	-0.018259548
245	0x3d8c09d1	0.0683781
246	0x3ab7893e	0.0014002693
247	0x3ddc6c13	0.10762801
248	0xbd01c517	-0.0316821
249	0xbb8612c6	-0.0040915934
250	0x3dcdb8b8	0.10044998
251	0xbc040503	-0.0080578355
252	0xbca79065	-0.020454595
253	0x3cf4a1a1	0.029862227
254	0x39c6e2ed	0.00037934576
255	0xbcc207bc	-0.023685329

network.0.bias f4 [128]
0	0xbe44eb40	-0.19230366
1	0xbe9000f5	-0.2812573
2	0xbe90fdfd	-0.28318778
3	0xbd9d9479	-0.076943345
4	0xbdb674ca	-0.089089945
5	0x3ca63731	0.02028999
6	0xbe2f91eb	-0.17145507
7	0xbea6b52e	-0.32560104
8	0xbdd3e9e0	-0.103473425
9	0xbe51b77b	-0.20480148
10	0xbe0e1681	-0.13875772
11	0xbda877a0	-0.08225942
12	0xbd7db1fa	-0.06193731
13	0xbe1bcdb1	-0.15215184
14	0xbd008729	-0.0313789
15	0xbd8b27d4	-0.06794706
16	0xbd938654	-0.072033554
17	0xbd721604	-0.059103027
18	0xbd948bfe	-0.07253264
19	0xbe3f0486	-0.1865407
20	0xbd4fdf70	-0.050750196
21	0xbda7d09a	-0.081940845
22	0xbdf00d86	-0.117213294
23	0xbe1f2604	-0.15541846
24	0xbe67a9a0	-0.226233
25	0xbd9ed178	-0.07754797
26	0xbe1d63b6	-0.15370068
27	0xbd149208	-0.03627208
28	0xbe814b57	-0.25252792
29	0xbe5269a0	-0.20548105
30	0xbde0757c	-0.10959908
31	0xbd0b0a8d	-0.03394561
32	0xbe3ea633	-0.18618087
33	0xbe0c83c5	-0.13722141
34	0xbe4b7cd6	-0.1987184
35	0xbc161fb7	-0.009162835
36	0xbe0f9217	-0.14020573
37	0xbe91c91e	-0.28473753
38	0xbc4c2187	-0.012459165
39	0xbde6b2d1	-0.11264575
40	0xbe7e1369	-0.24812092
41	0xbda61024	-0.08108547
42	0xbe74f8eb	-0.2392308
43	0xbc0bd3cc	-0.008534383
44	0xbe22ccc3	-0.15898423
45	0xbd6e95da	-0.05824838
46	0xbe381aaa	-0.17978922
47	0xbd11e987	-0.0356231
48	0xbe3277ea	-0.17428556
49	0xbe622b10	-0.2208674
50	0xbdab2ed9	-0.08358545
51	0xbe35cc89	-0.17753805
52	0xbe200e67	-0.15630494
53	0xbe009b75	-0.12559302
54	0xbdd95674	-0.10612193
55	0xbe67ef2f	-0.22649835
56	0xbd0799ce	-0.033105664
57	0xbcc7cf77	-0.02439092
58	0xbe575731	-0.21029355
59	0xbe22999c	-0.1587891
60	0xbdcfffda	-0.10156222
61	0xbe0b0660	-0.1357665
62	0xbdb95263	-0.09048917
63	0xbe02a452	-0.12757996
64	0xbd0c1a0e	-0.034204535
65	0xbe3f0995	-0.18655999
66	0xbdf8c526	-0.12146978
67	0xbe8bc29f	-0.27296922
68	0xbe2809a5	-0.16409929
69	0xbdb6d147	-0.08926635
70	0xbe75ab8c	-0.23991221
71	0xbd53f7d5	-0.051750023
72	0x3d57286b	0.05252878
73	0xbe2c3ded	-0.16820498
74	0xbd175661	-0.03694761
75	0xbc46aef1	-0.01212667
76	0xbe4eea6e	-0.20206615
77	0xbdcb3d0a	-0.09923752
78	0xbe379ff5	-0.17932113
79	0xbe83b584	-0.25724423
80	0xbdb95d31	-0.09050978
81	0xbe10a0a0	-0.14123774
82	0xbe19561d	-0.14974256
83	0xbcbebc25	-0.023283074
84	0xbdb26e67	-0.08712464
85	0xbe483d9d	-0.19554754
86	0xbe0fd557	-0.14046226
87	0xbe036f3b	-0.128354
88	0xbe190247	-0.14942275
89	0xbd97acb4	-0.074059874
90	0xbe017613	-0.12642698
91	0xbda0f939	-0.078600354
92	0xbe1e84ec	-0.15480393
93	0xbe870f5a	-0.263789
94	0xbe244519	-0.16041984
95	0xbe2578f8	-0.16159427
96	0xbe04be95	-0.12963326
97	0xbe5a7235	-0.21332629
98	0xbeb738d4	-0.35785544
99	0xbe3478a1	-0.17624141
100	0xbe497a9e	-0.19675681
101	0xbe16266c	-0.14663094
102	0xbe3204a7	-0.17384587
103	0xbe048fbc	-0.12945455
104	0xbe353a86	-0.17698106
105	0xbe2b6c20	-0.16740465
106	0xbe382c90	-0.17985749
107	0xbe14603c	-0.14489836
108	0xbeabc831	-0.3355117
109	0xbe47327d	-0.19452854
110	0xbda7585e	-0.081711516
111	0xbd40922d	-0.047014404
112	0xbda43b0d	-0.080190755
113	0xbdbd47bf	-0.092422
114	0xbdcc11a2	-0.09964301
115	0xbe103a4b	-0.14084737
116	0xbd11adf2	-0.035566278
117	0xbd723e9f	-0.05914175
118	0xbe1be988	-0.15225804
119	0xbe5215e5	-0.20516165
120	0x3d2157cd	0.039390374
121	0xbe015acc	-0.12632293
122	0xbd837b88	-0.06420046
123	0xbd7f5478	-0.062336415
124	0xbd638e9a	-0.055555917
125	0xbe18623e	-0.14881226
126	0xbcc11732	-0.02357063
127	0xbe5b1fe2	-0.21398881

network.2.weight f4 [128]
0	0x3e876bbc	0.26449382
1	0x3ea8e6e0	0.32988644
2	0x3e99740d	0.29971352
3	0x3e84c766	0.2593338
4	0x3e82af37	0.25524303
5	0x3e8872c3	0.26650056
6	0x3e8c9604	0.27458203
7	0x3ec3940f	0.38198897
8	0x3e7d906d	0.24762125
9	0x3e64d07d	0.22345157
10	0x3e81ed09	0.25376156
11	0x3e800834	0.25006258
12	0x3e8c5486	0.27408236
13	0x3e85a53d	0.2610263
14	0x3e39902d	0.18121405
15	0x3ea5dd17	0.3239524
16	0x3e8fdf8d	0.28100243
17	0x3e81edb5	0.2537667
18	0x3e8e99e7	0.27851793
19	0x3e7a6ad9	0.24454822
20	0x3e5faf7a	0.21844283
21	0x3e69bb1f	0.22825287
22	0x3e6cadcd	0.23113175
23	0x3e8f791e	0.28022093
24	0x3e9e662a	0.3093732
25	0x3e53c9aa	0.20682397
26	0x3e8e5a13	0.27803096
27	0x3e3db789	0.18527044
28	0x3e8e5a16	0.27803105
29	0x3e9792b8	0.29604125
30	0x3e3391ce	0.17536089
31	0x3e67e44e	0.22645685
32	0x3e81f50f	0.25382277
33	0x3e84e0b0	0.25952673
34	0x3eb7f636	0.35930032
35	0x3e2ed68e	0.17074034
36	0x3e848845	0.25885215
37	0x3eaf366f	0.34221217
38	0x3e582e23	0.2111135
39	0x3e8befb2	0.2733131
40	0x3ea30d5c	0.3184613
41	0x3e736177	0.23767649
42	0x3e998ff3	0.29992637
43	0x3e3df478	0.18550289
44	0x3e5c23a6	0.21497974
45	0x3e729805	0.23690803
46	0x3e9b7940	0.30365944
47	0x3e62ab60	0.22135687
48	0x3e8e12b0	0.27748632
49	0x3e9d2822	0.3069468
50	0x3e71701f	0.23577927
51	0x3e5f2349	0.21790804
52	0x3e816faa	0.25280505
53	0x3e6815a6	0.22664508
54	0x3e842a72	0.25813633
55	0x3e795763	0.24349742
56	0x3e8ce7bc	0.2752055
57	0x3e555f89	0.20837225
58	0x3e952d04	0.29135907
59	0x3e61bc2f	0.22044443
60	0x3e6105cb	0.21974866
61	0x3e5dced4	0.2166093
62	0x3e6c985e	0.23104998
63	0x3e5c5bab	0.21519344
64	0x3e25884d	0.16165276
65	0x3e8ceefd	0.27526084
66	0x3e681905	0.22665794
67	0x3ea6d4c2	0.32584196
68	0x3e8320a7	0.2561085
69	0x3e81fc2d	0.25387707
70	0x3e5291f0	0.20563483
71	0x3e67292e	0.22574303
72	0x3e7ce197	0.2469543
73	0x3e8abd95	0.27097765
74	0x3e55b3fd	0.20869441
75	0x3e87bfa8	0.2651341
76	0x3e965675	0.29362836
77	0x3e8220e8	0.2541573
78	0x3e8afed6	0.2714755
79	0x3eadff10	0.3398366
80	0x3e68f220	0.22748613
81	0x3e73adf7	0.23796831
82	0x3e87bda0	0.2651186
83	0x3e25e08b	0.16198938
84	0x3e813ec5	0.25243202
85	0x3e6f6547	0.23378478
86	0x3e887ae4	0.26656258
87	0x3e67ee9f	0.2264962
88	0x3e42ef23	0.19036536
89	0x3e8ccbcb	0.27499232
90	0x3eab4abf	0.33455464
91	0x3e7ac14c	0.244878
92	0x3e70f9a0	0.23532724
93	0x3e949618	0.29020762
94	0x3e4a9327	0.19782697
95	0x3e7a4f39	0.24444284
96	0x3e97ee9b	0.2967423
97	0x3e93b6a3	0.28850278
98	0x3eb4a018	0.35278392
99	0x3e9908c4	0.298895
100	0x3e81ac21	0.25326636
101	0x3e7831f3	0.24237804
102	0x3e52afd6	0.20574889
103	0x3e70c416	0.23512301
104	0x3e82b2d2	0.25527054
105	0x3e515c65	0.20445402
106	0x3e8b8ab9	0.27254274
107	0x3e6c0ef4	0.23052579
108	0x3ea59243	0.3233815
109	0x3eb24a98	0.34822536
110	0x3e747240	0.23871708
111	0x3e8a370f	0.2699513
112	0x3e59d3b7	0.21272169
113	0x3e7c8e3e	0.24663636
114	0x3e8bac38	0.2727983
115	0x3e99a92e	0.30011886
116	0x3e6f57ad	0.2337329
117	0x3e61ff42	0.2207003
118	0x3e86f855	0.26361337
119	0x3ea5ced0	0.32384348
120	0x3e8565db	0.26054272
121	0x3e975144	0.29554188
122	0x3e903ff3	0.2817379
123	0x3e7d56a5	0.24740084
124	0x3e84f852	0.25970703
125	0x3e6c9475	0.23103507
126	0x3e308c67	0.17241059
127	0x3e96d05e	0.29455847

network.2.bias f4 [128]
0	0x3d1c9540	0.038228273
1	0xbbcaf111	-0.006193288
2	0xbcbb981c	-0.02289968
3	0x3d9d849b	0.07691308
4	0x3cfcb0bc	0.030845992
5	0x3d3c8c1e	0.046032064
6	0x3d1c417a	0.03814838
7	0x3bd2d946	0.0064345924
8	0x3d639ffc	0.055572495
9	0x3cc04267	0.023469163
10	0x3c63aeaa	0.013896624
11	0x3d4f1014	0.050552443
12	0x3db2440d	0.08704386
13	0x3d2a81bf	0.04162764
14	0x3c9a510e	0.018837478
15	0x3d800dcf	0.06252634
16	0xb99063f8	-0.00027540303
17	0x3d8f5cc4	0.070001155
18	0x3d5299b9	0.051416133
19	0xbbd78d48	-0.0065781213
20	0x3ceb3ed1	0.028716477
21	0x3d752a61	0.05985487
22	0x3d3c733b	0.04600833
23	0x3d0c6e44	0.034284845
24	0x3dd18ec7	0.10232311
25	0x3d237ea0	0.03991568
26	0x3ba8dd21	0.0051533137
27	0x3d56d728	0.052451283
28	0x3d4e813a	0.05041621
29	0x3d2a4502	0.041569717
30	0x3bb4892c	0.005509516
31	0x3d32a5fb	0.043615323
32	0x3c8db7a8	0.017299488
33	0x3d5a3408	0.053272277
34	0x3df3eeae	0.11910759
35	0x3ce2f615	0.027705232
36	0x3cc25ddd	0.023726398
37	0x3d60f626	0.054922245
38	0x3ce45900	0.02787447
39	0xbbcd02e2	-0.006256447
40	0x3d1caf64	0.038253203
41	0x3cb7becc	0.022429846
42	0x3d0b5e9e	0.03402578
43	0x3cf463ae	0.029832687
44	0xbba8a7ce	-0.005146957
45	0x3da9ae04	0.08285144
46	0x3d8981d1	0.06714214
47	0x3d1031e9	0.035203848
48	0x3d26f9d8	0.040765613
49	0x3d58e522	0.052952893
50	0xb9f2756f	-0.00046245332
51	0x3cd5199c	0.026013188
52	0x3caff660	0.021479785
53	0x3c0facd0	0.008769229
54	0x3dac5210	0.0841409
55	0x3b28175c	0.002564869
56	0x3d9e677a	0.0773458
57	0x3b86c47e	0.004112779
58	0x3d145054	0.03620942
59	0x3d09058e	0.033452563
60	0x3bcab0ee	0.0061856424
61	0x3cd7330d	0.02626946
62	0x3b2f8b88	0.0026786048
63	0x3d4d58ca	0.050133504
64	0x3bfa9139	0.0076467064
65	0x3c18d166	0.009327268
66	0x3d87044f	0.06592619
67	0x3d0d30a9	0.034470234
68	0x3d04c3a3	0.032413136
69	0x3c8c2d8f	0.017111568
70	0xbb933a3b	-0.0044930256
71	0x3c8b4307	0.016999735
72	0x3d1a1423	0.03761686
73	0x3d16a8e9	0.03678218
74	0x3c903bef	0.017606704
75	0x3d488a6d	0.048960138
76	0x3d71d814	0.05904396
77	0x3d9de1dc	0.07709095
78	0x3d438850	0.04773742
79	0x3dd197a3	0.102340005
80	0x3d87a063	0.06622388
81	0x3c26c3cd	0.0101785185
82	0x3d1b1e39	0.03787062
83	0x3c426b7b	0.011866446
84	0x3d34ee4c	0.04417257
85	0xbc918aff	-0.017766474
86	0x3d221130	0.039567173
87	0x3c77c85a	0.015123451
88	0x3cfb29d5	0.030659596
89	0x3da26464	0.07929304
90	0x3d9c594c	0.076342195
91	0x3d5cb6fb	0.05388544
92	0x3d15da40	0.036585093
93	0x3c251850	0.010076597
94	0x3cc9d2ca	0.024636645
95	0x3d044d8e	0.032300524
96	0x3d8017be	0.062545285
97	0x3cd9840d	0.026552225
98	0x3d50dc5b	0.050991397
99	0x3d2c5d68	0.042081267
100	0xbadff49b	-0.0017086448
101	0x3c386015	0.0112533765
102	0x3b994e79	0.004678544
103	0x3c9c4ba5	0.019079039
104	0x3ce2a9dc	0.027668886
105	0x3ca59972	0.02021477
106	0x3ce85b57	0.028363867
107	0xb93b96ae	-0.00017889842
108	0x3da09dd6	0.07842605
109	0x3dbc8779	0.09205527
110	0x3d26970c	0.040671393
111	0x3d1e50b2	0.038651176
112	0x3d4d5b8a	0.050136127
113	0x3d10b8bc	0.035332426
114	0x3da130d0	0.07870638
115	0x3d4984af	0.049198803
116	0x3d363c40	0.044491053
117	0x3cb6dbea	0.02232166
118	0x3d3ce910	0.046120703
119	0x3dbfedd3	0.09371533
120	0x3d7b04cd	0.061283875
121	0x3d6b492e	0.057442836
122	0x3d051eca	0.032500066
123	0x3ce48d83	0.02789951
124	0x3cbb05db	0.02282994
125	0x3d323946	0.04351165
126	0x3c97e816	0.018543284
127	0x3c40acbf	0.011759936

network.2.running_mean f4 [128]
0	0x3d0c0758	0.03418669
1	0x3cd46758	0.025928184
2	0x3cc28273	0.023743844
3	0x3dd41a74	0.10356608
4	0x3da44692	0.08021273
5	0x3ddae1a0	0.10687566
6	0x3d0bc298	0.034121126
7	0x3cd2b3f4	0.025720574
8	0x3d4745fc	0.048650727
9	0x3cac996f	0.021069257
10	0x3d2afc60	0.04174459
11	0x3d982382	0.074286476
12	0x3da66638	0.081249654
13	0x3d28856a	0.04114286
14	0x3d8fa2f0	0.070135
15	0x3df7b753	0.12095513
16	0x3db63a78	0.08897871
17	0x3da8294d	0.082110025
18	0x3db68f50	0.089140534
19	0x3d6790a9	0.056534443
20	0x3dd3ec00	0.10347748
21	0x3da01038	0.078155935
22	0x3d4a19c3	0.049340975
23	0x3d43303d	0.047653425
24	0x3d53405a	0.051575042
25	0x3d70d720	0.05879891
26	0x3d8d332a	0.068945244
27	0x3dc1090c	0.09425554
28	0x3cecde63	0.028914636
29	0x3d707597	0.058705892
30	0x3d6b7abb	0.05749009
31	0x3dc0e783	0.09419157
32	0x3c82afdb	0.015952995
33	0x3d5f015e	0.054444663
34	0x3d41ff47	0.047362592
35	0x3dd6cdf0	0.10488498
36	0x3d86430f	0.06555759
37	0x3cd01076	0.025398474
38	0x3dddfc1d	0.108391024
39	0x3d48b92a	0.04900471
40	0x3d133db8	0.03594753
41	0x3d6a93a6	0.057269715
42	0x3cf9b326	0.030480932
43	0x3d878881	0.06617833
44	0x3cb7db6c	0.022443496
45	0x3dd1040a	0.102058485
46	0x3dd0ae19	0.101894565
47	0x3dcc11d2	0.099643365
48	0x3d3f1ecc	0.04666023
49	0x3cdddbaa	0.027082283
50	0x3dbd0203	0.09228899
51	0x3d254c01	0.040355686
52	0x3d5b3fea	0.05352775
53	0x3daaba7d	0.08336351
54	0x3d726047	0.05917385
55	0x3cf0f470	0.029413432
56	0x3dcffa79	0.10155196
57	0x3dd0e02d	0.10199008
58	0x3cc7e3e5	0.02440066
59	0x3d42b986	0.04754021
60	0x3d94e515	0.072702564
61	0x3d342513	0.04398067
62	0x3d9433e0	0.07236457
63	0x3d824eda	0.06362696
64	0x3d9933b8	0.07480568
65	0x3d0faa38	0.035074443
66	0x3da977a2	0.08274771
67	0x3cbb49fa	0.022862423
68	0x3d95c713	0.07313361
69	0x3d7b19c5	0.061303873
70	0x3cca0ef2	0.02466533
71	0x3da8a186	0.08233933
72	0x3e1ef18f	0.15521835
73	0x3cf92237	0.030411823
74	0x3d8b2e02	0.06795885
75	0x3d9f8506	0.07789044
76	0x3d512e50	0.051069558
77	0x3dc3feea	0.095701054
78	0x3d7cd2aa	0.061724342
79	0x3d7adeeb	0.061247747
80	0x3d82665b	0.06367179
81	0x3d746bce	0.059673123
82	0x3d6682cd	0.056277085
83	0x3d513bb2	0.05108232
84	0x3d609b54	0.054835632
85	0x3d236a8a	0.039896525
86	0x3d41d402	0.047321327
87	0x3d69dd6c	0.05709593
88	0x3c8c8742	0.01715434
89	0x3dae98bc	0.085252255
90	0x3d90993e	0.07060479
91	0x3db2e1f3	0.08734503
92	0x3da1d801	0.079025276
93	0x3c81f5b2	0.015864227
94	0x3d6a9126	0.05726733
95	0x3d193dac	0.03741233
96	0x3d60d905	0.054894466
97	0x3d65b59a	0.056081392
98	0x3cfa8304	0.030580051
99	0x3d9457d2	0.07243313
100	0x3d48e38a	0.049045123
101	0x3d8b0450	0.06787932
102	0x3d0d9a34	0.034570888
103	0x3d924e12	0.07143797
104	0x3d28eff6	0.04124447
105	0x3d399f83	0.045318138
106	0x3d346cdd	0.044049133
107	0x3d65a41a	0.056064703
108	0x3d4504e9	0.048100386
109	0x3d525cb2	0.051357932
110	0x3d9febdc	0.078086585
111	0x3da0627e	0.07831286
112	0x3dcff837	0.10154765
113	0x3d8be9d1	0.06831706
114	0x3db53b41	0.088491924
115	0x3d8fa4ba	0.07013841
116	0x3dbe806b	0.093018375
117	0x3db17d53	0.08666482
118	0x3d7a84c3	0.061161768
119	0x3db17b16	0.08666055
120	0x3dfb122e	0.12259327
121	0x3d97e4d9	0.07416696
122	0x3dd9a3e1	0.106269605
123	0x3da58e17	0.08083742
124	0x3dcf044a	0.1010824
125	0x3cd56001	0.026046755
126	0x3d774236	0.060365878
127	0x3d1fdae0	0.039027095

network.2.running_var f4 [128]
0	0x3c12d309	0.0089614475
1	0x3b5c806c	0.0033645881
2	0x3b03b154	0.002009471
3	0x3c21bf16	0.009872219
4	0x3c9c5acd	0.019086266
5	0x3cb691f8	0.0222864
6	0x3c4877b3	0.01223557
7	0x3c4d969e	0.012548117
8	0x3cb554b1	0.02213511
9	0x3c29028e	0.0103155505
10	0x3be17b83	0.006881179
11	0x3ca1a48c	0.019731782
12	0x3c1dc9f7	0.009630672
13	0x3bdc75ac	0.006727895
14	0x3c434f92	0.0119208265
15	0x3c9ed872	0.019390319
16	0x3c84f4a5	0.016229937
17	0x3c8d18f1	0.017223807
18	0x3d9bebc9	0.07613332
19	0x3c1ea3eb	0.009682636
20	0x3c6bbd3b	0.014388378
21	0x3c2be0c4	0.0104906
22	0x3c11eabc	0.008906063
23	0x3bd32990	0.0064441636
24	0x3bc74831	0.006081604
25	0x3c1bdc0b	0.009512912
26	0x3c9e04a4	0.019289322
27	0x3d5214aa	0.051289238
28	0x3b51ae75	0.0031994854
29	0x3cca0e6e	0.024665084
30	0x3c566478	0.013085477
31	0x3c36ddb7	0.011161259
32	0x3b02941b	0.0019924704
33	0x3c09ae07	0.008403308
34	0x3bcdf79c	0.006285621
35	0x3d1221be	0.03567671
36	0x3c033078	0.008007161
37	0x3b395852	0.0028281403
38	0x3c8370c2	0.016044978
39	0x3ba23ff9	0.004951474
40	0x3bb0e0b6	0.0053978814
41	0x3c6045e6	0.01368854
42	0x3b74cb67	0.0037352683
43	0x3d0fdad4	0.0351208
44	0x3bd4e760	0.0064973086
45	0x3cb6f1b6	0.022332054
46	0x3c8b72f1	0.017022582
47	0x3c876c96	0.01653127
48	0x3d32410e	0.043519072
49	0x3bd3f4b9	0.006468382
50	0x3c336500	0.010949373
51	0x3dcf7de5	0.10131434
52	0x3cfea0e5	0.03108258
53	0x3d00e61e	0.031469457
54	0x3d1a9786	0.03774216
55	0x3bbeee18	0.005826723
56	0x3cd31ce9	0.025770621
57	0x3dac2abc	0.084065884
58	0x3b44fc46	0.0030057593
59	0x3c953c4e	0.018217232
60	0x3c6fd8f0	0.014639124
61	0x3c1979f7	0.009367458
62	0x3c3c7950	0.0115035325
63	0x3d2b4c4a	0.0418208
64	0x3d20650d	0.03915887
65	0x3bc8a0e6	0.006122696
66	0x3c20c7f2	0.009813296
67	0x3b611938	0.0034347307
68	0x3db81a30	0.0898937
69	0x3c3073e0	0.010769814
70	0x3c2227a9	0.009897151
71	0x3c0168d6	0.00789853
72	0x3ccc9125	0.024971554
73	0x3d40f933	0.047112655
74	0x3d192a06	0.037393592
75	0x3cd0d8a2	0.025493924
76	0x3c04142b	0.008061449
77	0x3c86c51b	0.01645141
78	0x3cb40b06	0.021977913
79	0x3c0eefe6	0.008724188
80	0x3cf7c8e0	0.030247152
81	0x3c5181db	0.012787308
82	0x3cc42f3a	0.0239483
83	0x3d6cc6d2	0.057806797
84	0x3cce94c6	0.025217425
85	0x3be849d1	0.0070888777
86	0x3c6ea82e	0.014566464
87	0x3c4480b4	0.011993576
88	0x3b8701b9	0.0041200784
89	0x3cb287ee	0.021793332
90	0x3cda8ab1	0.026677461
91	0x3cf889ad	0.030339086
92	0x3cc3b2cd	0.02388897
93	0x3b5ca085	0.0033665013
94	0x3e92245e	0.2854337
95	0x3c40bb49	0.011763402
96	0x3c44666c	0.01198731
97	0x3c00ee47	0.00786931
98	0x3b3c5b7f	0.002874106
99	0x3c3d7feb	0.011566143
100	0x3e9eee10	0.31041002
101	0x3c8b312d	0.016991222
102	0x3d658971	0.056039277
103	0x3c36eb9b	0.011164571
104	0x3ca1f992	0.019772325
105	0x3c5dc7cc	0.013536405
106	0x3b7f9e2b	0.0039004188
107	0x3c54dd02	0.0129921455
108	0x3d66bd2d	0.056332756
109	0x3bbedc37	0.0058245915
110	0x3ce01e94	0.02735833
111	0x3c38fe56	0.011291107
112	0x3cc2db90	0.023786336
113	0x3caf007c	0.021362536
114	0x3c85fdee	0.016356435
115	0x3c988d03	0.018621927
116	0x3c88aecf	0.016684918
117	0x3c109367	0.008824206
118	0x3d8bbb85	0.06822876
119	0x3c77782b	0.015104334
120	0x3c8996b3	0.016795492
121	0x3c463fd5	0.01210018
122	0x3c6b80ff	0.014374017
123	0x3ca6bf8e	0.020355012
124	0x3d0071f9	0.031358693
125	0x3c16c972	0.009203302
126	0x3cc5b2d7	0.024133129
127	0x3c06e9e3	0.008234474

network.4.weight f4 [64, 128]
0	0xbc99a993	-0.018757617
1	0x3a752f84	0.00093530887
2	0xbd91161f	-0.070842974
3	0x3d206b9f	0.039165135
4	0xbc95bc39	-0.018278228
5	0xbb17deed	-0.0023173646
6	0x3ce7f790	0.02831629
7	0x3ce44ac1	0.027867677
8	0x3c89ff6b	0.016845426
9	0xbd1af81a	-0.037834264
10	0x3d114592	0.035466738
11	0x3d34e9e2	0.04416836
12	0x3bf403ab	0.0074467263
13	0x3b221054	0.002472897
14	0xbaf0cf46	-0.0018372319
15	0x3ab15bfa	0.001353144
16	0xbd430c07	-0.047618892
17	0x3c4dfbbe	0.012572227
18	0x3ccffeb7	0.025390012
19	0x3d32cfa9	0.04365507
20	0x3d148d50	0.03626758
21	0xbdee495c	-0.11635086
22	0xbd5fd1b8	-0.054643363
23	0x3c528690	0.012849465
24	0xbd8c882c	-0.0686191
25	0x3cc777e4	0.02434916
26	0xbcbfebba	-0.023427833
27	0x3c6b11c1	0.014347495
28	0x3bcfa474	0.006336743
29	0xbc9ca2ad	-0.019120539
30	0x3ca82859	0.020527052
31	0x3caba886	0.020954382
32	0x3cc716ca	0.024302859
33	0xbca7f781	-0.020503761
34	0xbcd017cc	-0.025401972
35	0xbd01610e	-0.0315867
36	0xbce5a61a	-0.028033305
37	0xbb657a63	-0.0035015575
38	0xbd0856bf	-0.033285853
39	0x3d96d53c	0.0736489
40	0xbc06bf26	-0.008224284
41	0xbba5b98f	-0.0050575207
42	0xbcfff65d	-0.031245405
43	0x3cec8420	0.028871596
44	0x3ba1f3ec	0.004942408
45	0x3d1828a1	0.03714812
46	0xbdbb3189	-0.091403075
47	0xbd770801	-0.060310367
48	0xbc286510	-0.010278001
49	0x3c3ced66	0.01153121
50	0xbd15f6b9	-0.036612246
51	0xbab90123	-0.0014114719
52	0xbc559b97	-0.013037584
53	0xbce79743	-0.02827037
54	0x3bdc4844	0.006722482
55	0x3b9681cc	0.0045931097
56	0xbd3afe47	-0.045652654
57	0x3c12c7ba	0.008958751
58	0xbc8e0901	-0.017338278
59	0xbd05d9a5	-0.032678265
60	0xbd2ac878	-0.04169509
61	0xbc025456	-0.007954678
62	0xbd57fd7c	-0.052731976
63	0x3c29f708	0.010373838
64	0xbcdd35e8	-0.027003244
65	0x3ce3360d	0.027735734
66	0xbd0e2255	-0.03470071
67	0xbcf65987	-0.030071987
68	0x3cf8ce39	0.030371772
69	0xbbc07039	-0.005872753
70	0x3d247b59	0.040156696
71	0xbd40472e	-0.046942882
72	0x3c854e60	0.016272724
73	0x38800081	6.1036095e-05
74	0x3c524874	0.012834657
75	0x3d7a7715	0.06114872
76	0xbd9e9421	-0.07743097
77	0x3d3f1316	0.04664906
78	0xbc5e0c61	-0.013552756
79	0xbd15726e	-0.03648608
80	0x3b64b4d8	0.003489783
81	0xbc860fdc	-0.016364984
82	0xbb851859	-0.0040617404
83	0xbd1f12e5	-0.03883638
84	0xbdad4af1	-0.084615596
85	0x3d123dae	0.035703354
86	0xbc9d7915	-0.019222775
87	0x3c12066f	0.008912667
88	0x3cccf79a	0.02502041
89	0xbd07eeb4	-0.03318663
90	0x3cea4b6c	0.028600417
91	0xbb941c42	-0.00451997
92	0x3ce22b41	0.027608516
93	0xbc228323	-0.009918961
94	0xbbfe64ac	-0.007763466
95	0x3caa55ee	0.020792928
96	0xbca357c3	-0.019939309
97	0xbdc119f7	-0.094287805
98	0x3a053cf5	0.00050826307
99	0x3ceff767	0.029292775
100	0xbc992d2c	-0.018698297
101	0x3cc121ca	0.023575682
102	0xbc823d17	-0.01589827
103	0xbd12285a	-0.035683013
104	0xbd2b3f66	-0.04180851
105	0xbcd90bcc	-0.026494883
106	0xbdc8b27f	-0.097996704
107	0xbc9cc994	-0.019139089
108	0xbd1fc71b	-0.03900824
109	0x3d1e7f43	0.038695585
110	0xbbc3ff23	-0.0059813424
111	0x3c8cd600	0.017191887
112	0xbcb43cf8	-0.022001728
113	0x3b84eb7d	0.0040563927
114	0xbbae29b4	-0.00531503
115	0xbc70b4ef	-0.014691575
116	0x3b9cae51	0.0047815223
117	0x3d00ac69	0.031414423
118	0xbb92f805	-0.0044851326
119	0xbd8b8c12	-0.06813826
120	0xbd784b38	-0.06061861
121	0xbe0376ed	-0.12838335
122	0x3b1384d7	0.0022509599
123	0x3d344f28	0.0440208
124	0xbbe3ac56	-0.0069480343
125	0xbcebe0db	-0.028793743
126	0x3ce37354	0.027764954
127	0xbca034bd	-0.019556398
128	0xbd03f1cf	-0.03221303
129	0x3d253622	0.04033483
130	0x3c3d2e19	0.011546635
131	0x3cd498af	0.025951711
132	0xbcc29328	-0.02375181
133	0xbbf8c29d	-0.007591559
134	0x3d6e95fc	0.058248505
135	0x3d4c466e	0.049871854
136	0x3d4b49b2	0.04963083
137	0x3d5ab8b5	0.053398807
138	0x3c7c311e	0.01539257
139	0xbc813a49	-0.015774863
140	0xba61c992	-0.0008613105
141	0xbd212e49	-0.03935078
142	0x3c2eebe9	0.010676363
143	0x3d847e3c	0.0646939
144	0x3ce11889	0.02747752
145	0xbbc669e2	-0.0060551027
146	0xbc228d25	-0.009921347
147	0x3d13108f	0.035904463
148	0xbd2d0ec4	-0.04225041
149	0xbd5fd82c	-0.054649517
150	0x3cce4e1d	0.025183732
151	0x3c7585d0	0.014985517
152	0xbda728d6	-0.08162086
153	0x3c018b05	0.00790668
154	0x3ca8ce01	0.020606043
155	0xbd80bde2	-0.06286217
156	0x3cd9cc99	0.026586818
157	0x3b0d2c6a	0.0021541365
158	0x3d8278f4	0.06370726
159	0xb94d60d2	-0.00019586392
160	0x3cc2f478	0.023798212
161	0x3b28b5b6	0.0025743074
162	0xbd95e635	-0.07319299
163	0xbd84b79f	-0.064803354
164	0x3d0ec8b9	0.034859393
165	0x3d0e73c7	0.034778383
166	0x3cb72b7b	0.0223596
167	0x3c915d97	0.017744822
168	0xbc3858be	-0.011251627
169	0x3c958703	0.018252855
170	0x3b9ad1aa	0.004724701
171	0x3d23603a	0.03988669
172	0x3ce150e6	0.027504396
173	0xbd83234a	-0.06403215
174	0x3aad01d3	0.0013199396
175	0xbd087f90	-0.033324778
176	0x3c4878e6	0.012235856
177	0x3ca8be33	0.020598507
178	0xbd87ec74	-0.06636897
179	0xbcc48392	-0.023988519
180	0x3c8746fc	0.01651334
181	0xbd52fc03	-0.05150987
182	0x3cabdf23	0.020980423
183	0x3d3883f8	0.04504773
184	0xbd21a8b7	-0.03946754
185	0xbc182bb5	-0.009287764
186	0x3d709227	0.05873313
187	0x3cffc7ec	0.03122326
188	0x3c367537	0.011136345
189	0x3d4af987	0.049554374
190	0xbd9f5aa5	-0.07780961
191	0xbbde4112	-0.0067826593
192	0x3c69794a	0.014250109
193	0x3d8b39db	0.067981444
194	0x3ccefc85	0.025266895
195	0xbd30c42e	-0.04315584
196	0xbd980f2c	-0.07424769
197	0xbd7d2432	-0.061802097
198	0x3ca61d87	0.020277752
199	0xbd6f557b	-0.05843113
200	0x3a8221f9	0.0009928338
201	0xbb48bebe	-0.003063127
202	0xbbf349c4	-0.007424565
203	0x3d6ce87a	0.057838894
204	0xbc564597	-0.013078115
205	0xbdf112da	-0.11771174
206	0x3d68987b	0.05678604
207	0x3cfab07b	0.03060173
208	0xbd01f93f	-0.03173184
209	0x3b8b970b	0.004259949
210	0xbcc8096d	-0.024418557
211	0xbca4315f	-0.020043073
212	0xbd437f3b	-0.04772876
213	0xbc88139b	-0.016610911
214	0xbbca4e0d	-0.006173855
215	0x3b71c929	0.0036893582
216	0x3d144bd4	0.036205128
217	0xbdb4a5d0	-0.08820689
218	0xbcbdb515	-0.023157636
219	0xbda119fd	-0.07866285
220	0xbcff5308	-0.031167522
221	0xbbeeb450	-0.0072846785
222	0x3c76908d	0.015049112
223	0xbd791e74	-0.060820058
224	0x3cf758a4	0.030193634
225	0x3cd6bd56	0.02621333
226	0x3c8183ef	0.015809981
227	0x3d27757a	0.04088352
228	0xbc7fbe15	-0.015609284
229	0x3d7b7ad9	0.061396454
230	0x3d6e2765	0.05814304
231	0x3bd8fe1c	0.006622089
232	0xbd8ccd0b	-0.06875046
233	0x3d8e3873	0.069443606
234	0xbd0d3d9a	-0.034482576
235	0xbc9c8cea	-0.019110162
236	0x3d054aab	0.032541912
237	0xbd8486d6	-0.064710304
238	0xbc75eea1	-0.015010507
239	0xbc8f6b7d	-0.01750731
240	0x3c3a232b	0.011360924
241	0xbcde315d	-0.027123148
242	0x3cada953	0.021198904
243	0x3d27b4f7	0.040944066
244	0x3bef1a4e	0.007296837
245	0x3d461e3e	0.048368685
246	0x3ce3c747	0.027804984
247	0x3c0bdd69	0.008536675
248	0xbde8176c	-0.11332592
249	0xbc967373	-0.018365597
250	0xbd005c3d	-0.031337965
251	0xbd2f629e	-0.042818658
252	0x3cfeba2c	0.031094633
253	0x3ce11ea0	0.027480423
254	0xbd1b4ebe	-0.03791689
255	0xbca82a10	-0.02052787

network.4.bias f4 [64]
0	0xbd0c0787	-0.034186866
1	0xbdbfd17f	-0.0936613
2	0xbdd95a90	-0.106129766
3	0x3d54cd32	0.051953502
4	0xbc87d15d	-0.016579324
5	0xbdc465d1	-0.095897324
6	0x3b6f5195	0.0036517133
7	0xbd997bc8	-0.074943125
8	0xbdaedefd	-0.085386254
9	0xbcc3d820	-0.023906767
10	0xbb6d9ff7	-0.0036258677
11	0xbd9b31b6	-0.07577841
12	0xbd951133	-0.07278671
13	0xbda582d7	-0.08081596
14	0xbdacb3f4	-0.08432761
15	0xbd9489d3	-0.072528504
16	0xbd3022e6	-0.04300203
17	0xbd6f6358	-0.05844435
18	0xbd845d82	-0.06463148
19	0xb8ba3d78	-8.8806206e-05
20	0xbc974fcd	-0.01847067
21	0xbda5bf98	-0.08093184
22	0xbd597e00	-0.05309868
23	0xbd20f5cf	-0.03929692
24	0xbddcf2d5	-0.10788504
25	0xbd5f4592	-0.054509707
26	0xbdd55c65	-0.104180135
27	0xbcd57c2a	-0.026060183
28	0xbdeed4aa	-0.11661656
29	0x3aa9bd0b	0.0012950016
30	0xbd43ac65	-0.04777183
31	0xbdad4a02	-0.084613815
32	0xbb2f8c59	-0.0026786535
33	0x3d819ff2	0.06329335
34	0xbdb909e5	-0.0903509
35	0xbcdd8d99	-0.027045058
36	0xbdb3bcc6	-0.0877624
37	0xbd22b132	-0.039719768
38	0xbd723ef2	-0.05914206
39	0xbce4f7a8	-0.027950123
40	0xbd30f898	-0.043205827
41	0xbd850efd	-0.064969994
42	0xbd455af4	-0.048182443
43	0x3cc2e777	0.023792012
44	0xbc1242f1	-0.008927093
45	0xbd72140c	-0.05910115
46	0xbdd6f58d	-0.10496054
47	0xbda3b582	-0.07993604
48	0xbdcab671	-0.09898079
49	0xbd143cc1	-0.036190752
50	0xbd943402	-0.07236482
51	0xbdf65cb9	-0.12029404
52	0xbda8c97a	-0.082415536
53	0xbd9ab9e8	-0.0755499
54	0xbcd9cd52	-0.026587162
55	0xbdec6c4a	-0.11544092
56	0x3d02953d	0.031880606
57	0xbe3b3a25	-0.18283899
58	0xbd37d7c5	-0.04488351
59	0xbccd5131	-0.02506313
60	0xbd4cd6a6	-0.050009392
61	0xbd9ddead	-0.07708488
62	0xbc979c7e	-0.018507238
63	0xbdb257a1	-0.0870812

network.6.weight f4 [64]
0	0x3ea35cc8	0.31906724
1	0x3eb54125	0.35401264
2	0x3ea9bf0c	0.3315357
3	0x3e81cb13	0.25350246
4	0x3e935956	0.28779095
5	0x3eada32e	0.3391356
6	0x3e985a5b	0.29756436
7	0x3ea6d41b	0.325837
8	0x3e94d141	0.29065898
9	0x3ea72b93	0.32650432
10	0x3e946c7c	0.28989017
11	0x3e82bb1f	0.25533387
12	0x3e9cf6c2	0.3065701
13	0x3e9d9882	0.30780417
14	0x3e9d077c	0.30669773
15	0x3ea9f69d	0.33195964
16	0x3e8c4a10	0.27400255
17	0x3e9adb3f	0.30245396
18	0x3e963314	0.29335845
19	0x3e97ca1a	0.2964638
20	0x3e8b2524	0.27176774
21	0x3e95d523	0.29264173
22	0x3e965c3c	0.29367244
23	0x3ea52c5e	0.32260412
24	0x3ea31dd6	0.318587
25	0x3e92c54c	0.2866615
26	0x3ea54a75	0.3228337
27	0x3e9d689a	0.30743867
28	0x3e97645e	0.29568762
29	0x3ead4d3c	0.33847988
30	0x3e98523b	0.29750237
31	0x3ea83177	0.3285024
32	0x3ea0868d	0.31352654
33	0x3e8cb6e6	0.2748329
34	0x3e98c014	0.29834044
35	0x3e8edb4f	0.27901694
36	0x3ebf2c0d	0.37338296
37	0x3ea56df7	0.3231046
38	0x3e800b8f	0.25008819
39	0x3e99811b	0.29981312
40	0x3e9c61f2	0.30543476
41	0x3eb35239	0.35023668
42	0x3e987693	0.29777965
43	0x3e934b37	0.28768322
44	0x3ea61156	0.324351
45	0x3ea6b491	0.32559636
46	0x3ea3d6cb	0.31999812
47	0x3ea393b5	0.3194863
48	0x3e927ec1	0.2861233
49	0x3e96a823	0.29425153
50	0x3e940acb	0.28914484
51	0x3ecf5255	0.40492502
52	0x3ea0df4b	0.3142036
53	0x3e9512f2	0.29116017
54	0x3e96d1e5	0.29457012
55	0x3e9e7167	0.30945894
56	0x3e8ce5b1	0.2751899
57	0x3ebd02ed	0.36916295
58	0x3ea3d508	0.31998467
59	0x3e998778	0.29986167
60	0x3ea4bd07	0.32175466
61	0x3eb1a611	0.3469701
62	0x3e91cb83	0.2847558
63	0x3eae63e8	0.34060597

network.6.bias f4 [64]
0	0x3cd1fe08	0.025633827
1	0x3d923164	0.07138327
2	0x3cfebb15	0.031095067
3	0x3cebcbad	0.028783644
4	0x3c269bae	0.010168953
5	0x3d2f1625	0.042745728
6	0x3d40002d	0.046875168
7	0x3d1132c9	0.035448823
8	0x3ad2e617	0.0016090301
9	0x3d039508	0.03212455
10	0x3d2b299c	0.04178773
11	0x3be04910	0.006844647
12	0x3da1b376	0.078955576
13	0x3d32ec54	0.04368241
14	0x3ce26455	0.027635733
15	0x3cef795b	0.029232671
16	0x3d71903a	0.058975436
17	0x3c7948f3	0.015215146
18	0xbaa636e6	-0.0012681156
19	0x3d8956a4	0.067059785
20	0x3d1cb0c1	0.038254503
21	0xbca3f2ff	-0.02001333
22	0xbd588869	-0.052864466
23	0x3d081309	0.03322128
24	0x3b6160f4	0.0034390064
25	0x3c8ca6c9	0.017169373
26	0x3d0317de	0.032005183
27	0xbcf48b2c	-0.029851519
28	0x3d40889c	0.04700528
29	0x3d8d12b7	0.06888335
30	0x3d31036d	0.043216158
31	0x3d3af3a0	0.045642495
32	0x3d449c68	0.048000723
33	0xbd924815	-0.07142655
34	0x3d4d0c0d	0.05006032
35	0x3d15ec0a	0.036602058
36	0x3db12a10	0.08650601
37	0x3d451d52	0.048123665
38	0x3c46ba3f	0.0121293655
39	0x3cfdb95e	0.030972179
40	0x3bdb9be3	0.0067019328
41	0x3ce8c1c8	0.028412715
42	0x3d828bec	0.06374344
43	0x3d343835	0.043998916
44	0x3d127c59	0.03576312
45	0x3cf7d725	0.030253956
46	0x3cd85f7c	0.026412718
47	0x3d612562	0.05496729
48	0x39de2454	0.00042370206
49	0x3cd38623	0.025820797
50	0x3d018bc3	0.031627428
51	0x3d4194cf	0.047261056
52	0x3bceddf6	0.006313081
53	0xbad29b80	-0.0016068071
54	0x3d2f551d	0.04280578
55	0x3c1e6f8d	0.0096701505
56	0x3d5faf26	0.054610394
57	0x3d89db19	0.06731243
58	0x3d9a02c3	0.07520058
59	0x3d66763d	0.056265105
60	0x3d6e99cb	0.058252137
61	0x3d009b1f	0.031397935
62	0x3d10be1e	0.03533756
63	0x3c55ccdd	0.0130493315

network.6.running_mean f4 [64]
0	0x3d50980e	0.05092626
1	0x3cf32e94	0.029685296
2	0x3cbc12e2	0.022958223
3	0x3d871aab	0.065968834
4	0x3d0d4af0	0.034495294
5	0x3d56ab1c	0.052409276
6	0x3d835905	0.064134635
7	0x3ccc0e86	0.024909269
8	0x3d1127d1	0.035438363
9	0x3d195cfb	0.03744219
10	0x3d19b391	0.037524763
11	0x3cc5fd37	0.024168594
12	0x3d32be75	0.043638665
13	0x3d3b96e1	0.045798186
14	0x3d6b282c	0.057411358
15	0x3cfcb9eb	0.030850371
16	0x3d841e66	0.064511105
17	0x3d036f4b	0.03208856
18	0x3d87ea70	0.06636512
19	0x3d805893	0.06266894
20	0x3d65e323	0.056124818
21	0x3d3a1771	0.04543251
22	0x3d4744fb	0.04864977
23	0x3d37c19f	0.044862386
24	0x3c55b17f	0.013042807
25	0x3db0a2ed	0.086248256
26	0x3c6c084e	0.014406277
27	0x3d5306c8	0.05152014
28	0x3c666ca9	0.014063993
29	0x3d812bc7	0.06307178
30	0x3d75e67c	0.06003426
31	0x3d0f54a6	0.034992836
32	0x3d3e7e76	0.04650732
33	0x3ddc2753	0.10749688
34	0x3d583217	0.052782144
35	0x3d19bcc0	0.03753352
36	0x3cd38eaa	0.025824863
37	0x3d557d91	0.052121703
38	0x3d295403	0.041339885
39	0x3d050d89	0.03248361
40	0x3d490e43	0.049085867
41	0x3d05f2ad	0.032702137
42	0x3d5203d6	0.05127319
43	0x3d90e5c8	0.07075077
44	0x3d73a40c	0.05948262
45	0x3d0d7aae	0.034540825
46	0x3d5257d6	0.051353298
47	0x3ccf3272	0.025292609
48	0x3c858348	0.016297951
49	0x3d01faf6	0.031733476
50	0x3d13185f	0.035911914
51	0x3cd72c25	0.026266167
52	0x3cb35f20	0.021895945
53	0x3d114bc1	0.035472635
54	0x3d8526d8	0.065015495
55	0x3ce1ab36	0.02754746
56	0x3d942fd0	0.07235682
57	0x3c0d0084	0.00860608
58	0x3d52d4cf	0.05147248
59	0x3d43494a	0.047677316
60	0x3d7e797c	0.062127575
61	0x3d981986	0.07426743
62	0x3d8d792a	0.06907876
63	0x3d2b6228	0.041841656

network.6.running_var f4 [64]
0	0x3c18084d	0.009279323
1	0x3bcdeb29	0.006284137
2	0x3b7e3cfe	0.0038793678
3	0x3c22e9b0	0.009943411
4	0x3ba52db5	0.005040849
5	0x3c174c14	0.009234447
6	0x3c061ba5	0.008185302
7	0x3b2eeeeb	0.00266927
8	0x3bb45271	0.005502992
9	0x3bbe4a9a	0.005807233
10	0x3b6f9899	0.003655946
11	0x3b6d7c46	0.0036237403
12	0x3c06a790	0.008218661
13	0x3c13f2ad	0.009030026
14	0x3c2b66dd	0.010461536
15	0x3b856169	0.00407045
16	0x3c0044ca	0.007828901
17	0x3bb41e60	0.005496785
18	0x3c4ecb20	0.012621671
19	0x3c24e423	0.010064158
20	0x3c17c97f	0.009264349
21	0x3bf6e6ab	0.007534822
22	0x3be5e5aa	0.0070159035
23	0x3bff2bfd	0.0077872262
24	0x3ad7d02b	0.0016465237
25	0x3cb67fa3	0.022277659
26	0x3af0653c	0.0018340717
27	0x3c52b988	0.012861617
28	0x3ac52083	0.0015039596
29	0x3c45c069	0.0120698
30	0x3c313f85	0.010818367
31	0x3bd7915b	0.006578607
32	0x3bf0e2f2	0.0073512727
33	0x3c69d841	0.01427275
34	0x3c50570b	0.012716065
35	0x3b9b3632	0.004736685
36	0x3b75117c	0.0037394455
37	0x3c025413	0.007954615
38	0x3bd6689e	0.006543233
39	0x3b7ed0bd	0.0038881742
40	0x3c066c52	0.0082045365
41	0x3b8712cb	0.0041221133
42	0x3c0abe39	0.008468204
43	0x3c08c647	0.008348054
44	0x3c2c24c8	0.010506816
45	0x3b825f1f	0.0039786245
46	0x3c18efa4	0.0093344785
47	0x3b946256	0.004528324
48	0x3aedf599	0.0018154859
49	0x3b939d1a	0.004504812
50	0x3bbd3f7e	0.005775391
51	0x3b868993	0.0041057556
52	0x3b7e9eed	0.0038852051
53	0x3bc8229b	0.006107641
54	0x3c520bdf	0.012820213
55	0x3b861ec6	0.004093024
56	0x3c2f5ccc	0.010703277
57	0x3a83fb41	0.0010069386
58	0x3bf27391	0.0073990305
59	0x3be22087	0.00690085
60	0x3c5d0bf2	0.0134916175
61	0x3c66bacd	0.014082623
62	0x3c4ac910	0.012377039
63	0x3bbeb604	0.005820038

network.8.weight f4 [32, 64]
0	0x3cf5341b	0.029932072
1	0x3be6b8e1	0.0070410823
2	0x3cbbf1b9	0.02294241
3	0x3d84d1a1	0.06485296
4	0x3d8b328a	0.06796749
5	0x3c9ec370	0.019380301
6	0x3d030755	0.031989414
7	0x3d163152	0.03666813
8	0x3d9cbb19	0.076528735
9	0x3d0e1c7a	0.034695126
10	0x3de38aa1	0.11110426
11	0xbdde2fd7	-0.108489685
12	0xbd0a013c	-0.033692583
13	0xbd53fa62	-0.051752456
14	0x3b483f99	0.0030555485
15	0xbdc175c7	-0.09446292
16	0xbdf6a93d	-0.120439984
17	0x3db2146b	0.08695301
18	0xbd91d76a	-0.07121165
19	0xbc030481	-0.007996679
20	0x3cdcf9d9	0.026974605
21	0xbcb2a9eb	-0.021809539
22	0xbb7944d6	-0.0038035414
23	0xbbd1d6db	-0.0064037866
24	0xbd453453	-0.048145603
25	0xbd99a65e	-0.07502435
26	0x3cfddb1d	0.03098827
27	0x3c318682	0.010835292
28	0xbda2bc5a	-0.079460815
29	0xbc8ea2c8	-0.017411605
30	0x3db2acb1	0.087243445
31	0xbdcac82e	-0.099014625
32	0x3d2619a9	0.040551815
33	0xbc8a8b87	-0.016912235
34	0x3ca0f642	0.019648675
35	0x3c933c09	0.017972963
36	0x3ceb6843	0.02873624
37	0xbcc02914	-0.023457088
38	0xbda59e0f	-0.08086788
39	0xbda54229	-0.0806926
40	0xbd7cc3c2	-0.061710127
41	0xbe02ac2b	-0.1276099
42	0xbbd2bd04	-0.006431224
43	0x3c51cbee	0.012804968
44	0xbbc3dc17	-0.0059771645
45	0xbd13fb5c	-0.036128387
46	0x3d213238	0.039354533
47	0x3dbfc9e0	0.093646765
48	0xbcc89bc4	-0.024488337
49	0x3d47165a	0.0486053
50	0xbcd97466	-0.02654476
51	0x3ce6be89	0.028167026
52	0x3d8e4710	0.06947148
53	0xbdbc6617	-0.091991596
54	0x3d0fdd1e	0.035122983
55	0x3cb804d4	0.02246324
56	0x3d5af6ee	0.053458147
57	0x3c6eed5e	0.01458296
58	0x3db462e5	0.08807925
59	0x3d58b350	0.05290538
60	0xbc86ec8b	-0.016470214
61	0xbdaa2651	-0.083080895
62	0x3d614663	0.054998767
63	0xbd9dd52b	-0.07706674
64	0x3da15c0f	0.07878887
65	0x3db189e8	0.08668882
66	0xbcbd397a	-0.023098696
67	0x3d80088f	0.062516324
68	0x3dbe8b87	0.093039565
69	0xbdbf2e44	-0.09334996
70	0x3c494d9e	0.012286572
71	0xbd0bbbb9	-0.034114573
72	0x3d3017a3	0.04299129
73	0xbcd28c27	-0.025701595
74	0x3ca05819	0.019573258
75	0x3c949c08	0.018140808
76	0xbc4283e1	-0.011872263
77	0x3d3207c3	0.043464433
78	0x3ca2c113	0.019867456
79	0xbc96fad6	-0.018430155
80	0xb9eb7881	-0.00044912475
81	0x3d700c12	0.05860526
82	0x3da14fa3	0.078765176
83	0x3d9ec556	0.077524826
84	0xbcfb73cd	-0.030694867
85	0xbd8e1015	-0.06936661
86	0xbd58fd9d	-0.05297624
87	0x3be085bf	0.0068518813
88	0xbe1534b2	-0.14570883
89	0xbcb30fc2	-0.0218581
90	0xbd53a1cb	-0.05166797
91	0x3d9eb1e9	0.077487774
92	0xbbaa447e	-0.005196153
93	0xbd67fea4	-0.05663933
94	0xbd5c52d1	-0.053789917
95	0xbc3633e7	-0.011120773
96	0x3bf49589	0.007464115
97	0xbd52c60d	-0.051458407
98	0x3d59f7b1	0.053214733
99	0xbd50b906	-0.050957702
100	0x3c1fafa7	0.009746469
101	0xbd6c62c3	-0.057711374
102	0x3c17561e	0.0092368405
103	0xbd3a710a	-0.04551796
104	0xbd85a14c	-0.065249056
105	0x3d6fc6d6	0.058539234
106	0x3b492f26	0.0030698269
107	0xbd45ad7c	-0.04826115
108	0x3c1b8ca7	0.009493983
109	0xbd346fcd	-0.044051934
110	0xbceea5a8	-0.029131725
111	0x3dad0274	0.084477335
112	0xbc5e42a6	-0.013565695
113	0x3ddbca33	0.10731926
114	0xbcd43c00	-0.025907516
115	0xbde40648	-0.111340106
116	0x3d5e4b46	0.054271005
117	0xbd79a5b8	-0.060949057
118	0x3c81f8ea	0.015865762
119	0xbe179a4f	-0.14804958
120	0x3c8bf411	0.017084153
121	0xbd51bf54	-0.051207855
122	0xbd1d8d9f	-0.03846514
123	0xbc824cc0	-0.015905738
124	0x3d657b03	0.056025516
125	0xbd46e8a3	-0.048561703
126	0x3d04bbb9	0.03240559
127	0x3cee1abd	0.029065484
128	0xbd98545a	-0.07437964
129	0x3d572870	0.0525288
130	0xbc3cc239	-0.011520916
131	0x3d3d2755	0.046180088
132	0xbd2c2e29	-0.04203621
133	0x3b285cf8	0.002569018
134	0xbbeb9fdc	-0.0071906876
135	0xbbddaf2e	-0.006765268
136	0x3d1b9886	0.037987255
137	0x3d9931f8	0.07480234
138	0x3b1f802c	0.002433787
139	0x3d209dae	0.039212875
140	0xbe1ec0db	-0.15503256
141	0xbc739564	-0.0148671605
142	0xbd633a5e	-0.055475585
143	0xbcc7eed0	-0.024405867
144	0xbc6cc1ea	-0.01445053
145	0xbc47b029	-0.012187996
146	0xbd3f6497	-0.04672679
147	0xbda66e94	-0.0812656
148	0xbd4dffb7	-0.050292697
149	0x3d6418c0	0.055687666
150	0x3d8ef04e	0.06979428
151	0xbd1157d1	-0.03548414
152	0x3ccb17df	0.024791656
153	0xbdc1b8f6	-0.094591066
154	0x3c867188	0.016411558
155	0xbd334d03	-0.043774616
156	0x3cec5fdd	0.028854305
157	0xbd957618	-0.07297915
158	0xbd7ee394	-0.062228754
159	0xbe48aa18	-0.19596136
160	0x3c8881be	0.016663428
161	0x3c2d809d	0.010589746
162	0xbe12a841	-0.14321996
163	0x3c90f456	0.017694633
164	0xbd15fb78	-0.036616772
165	0x3b140641	0.0022586735
166	0xbd41c4e0	-0.047306895
167	0xbd6e9d92	-0.05825574
168	0xbd30e608	-0.043188125
169	0x3d4fd664	0.05074157
170	0x3d410ffd	0.04713439
171	0xbbc5152b	-0.0060144863
172	0x3cada113	0.02119497
173	0xbd88cf75	-0.06680194
174	0xbd2ffd41	-0.04296613
175	0xbdd3cc70	-0.10341728
176	0xbd0086fd	-0.031378735
177	0xbcb8cb75	-0.022557953
178	0x3cb3ac3b	0.021932712
179	0x3bd60736	0.0065316213
180	0xbdbcea4a	-0.092243746
181	0x3d9cd6f5	0.07658187
182	0x3c327f3d	0.010894594
183	0x3cb450fc	0.022011273
184	0xbd6188db	-0.055062156
185	0xbd42831a	-0.04748831
186	0x3c44f772	0.012021886
187	0x3d126ef2	0.035750337
188	0xbd390f20	-0.04518044
189	0xbd397402	-0.04527665
190	0xbb9e59c5	-0.0048324787
191	0xbc73196a	-0.014837602
192	0x3cc13040	0.023582578
193	0x3bb1d925	0.005427497
194	0x3ca3e82b	0.020008167
195	0xbcd598b8	-0.026073799
196	0xbdac7c36	-0.08422129
197	0x3cc1b693	0.023646628
198	0xbd176167	-0.036958124
199	0xbdcd1da6	-0.100154206
200	0xbd3167fa	-0.04331205
201	0x3cf3ee88	0.029776827
202	0x3c609e45	0.013709609
203	0xbc63df58	-0.01390823
204	0x3b198536	0.0023425347
205	0x3c983d2d	0.018583858
206	0xbd1e2d7f	-0.038617607
207	0xbdef827b	-0.11694809
208	0xbde34ba1	-0.110984094
209	0xbc3d628d	-0.011559141
210	0x3ccb6e2b	0.024832806
211	0xbbcad099	-0.0061894176
212	0xbb3cd8b2	-0.0028815684
213	0xbd8c13f6	-0.06839745
214	0xbd815897	-0.06315725
215	0xbb9712b5	-0.0046103843
216	0x3bc18785	0.0059060478
217	0x3c20226a	0.00977383
218	0x3d08fee9	0.033446226
219	0x3d41fe88	0.04736188
220	0x3c8ac96e	0.016941752
221	0x3d20ac43	0.03922678
222	0xbb1b0573	-0.002365437
223	0xbc9dfbee	-0.019285168
224	0x3d223916	0.039605223
225	0x3b44bc92	0.0030019623
226	0x3c78643b	0.015160616
227	0xbbb35416	-0.0054726703
228	0x3cbdd015	0.02317051
229	0xbddf918e	-0.10916434
230	0xbc0212e9	-0.007939079
231	0xbd5d2806	-0.053993247
232	0x3bbbe782	0.005734385
233	0x3c35214e	0.011055304
234	0xbc26bb64	-0.010176513
235	0xbdcee00c	-0.10101327
236	0xbb7b581e	-0.0038352082
237	0x3ba0fd60	0.004913017
238	0x3d2aafde	0.041671626
239	0x3c882346	0.016618382
240	0xbbb78b94	-0.005601356
241	0x3d06562e	0.03279703
242	0x3cd34c23	0.02579314
243	0xbdc06481	-0.093941696
244	0xbd77f1ea	-0.06053344
245	0xbdcf083c	-0.101089925
246	0xbc81d40c	-0.015848182
247	0x3d0a5f7d	0.03378247
248	0x3cc67c94	0.024229325
249	0x3bb96b85	0.0056585693
250	0x3b72c8ec	0.0037046028
251	0xbdcd634a	-0.100287035
252	0x3c7c25f7	0.015389911
253	0xbd4da8f6	-0.05020996
254	0xbceaf7ca	-0.028682608
255	0xbd2557bf	-0.040366884

network.8.bias f4 [32]
0	0x3c7a3600	0.015271664
1	0x3d97bae4	0.074086934
2	0x3e37e776	0.17959389
3	0xbd4e743a	-0.05040381
4	0x3e0b933e	0.13630387
5	0x3c3b03c7	0.011414475
6	0xbc8635d3	-0.016383087
7	0x3de911de	0.11380361
8	0xbd968c1d	-0.07350943
9	0x3e0a40b8	0.1350125
10	0x3c06b4e9	0.008221843
11	0x3dc25caf	0.09490334
12	0x3cfa19e6	0.030529927
13	0xbd05d71d	-0.03267585
14	0xbc98fa9e	-0.018674191
15	0x3d8de9ef	0.06929385
16	0xbdf8bebd	-0.121457554
17	0xbd3b8fd7	-0.045791473
18	0x3d000808	0.03125766
19	0x3e29894e	0.16556284
20	0x3e01ea9b	0.12687151
21	0x3e2f0a34	0.17093736
22	0x3e06643b	0.13124172
23	0x3dcc6f68	0.099821866
24	0xbd424e92	-0.04743821
25	0xba514b90	-0.0007983977
26	0x3db8e23c	0.09027526
27	0xbd211ef4	-0.03933616
28	0x3d720739	0.05908892
29	0x3d39baf0	0.045344293
30	0x3d09efd2	0.033675976
31	0xbcf183f5	-0.029481867

network.10.weight f4 [32]
0	0x3f394545	0.7237132
1	0x3f476ec6	0.779034
2	0x3f1da066	0.61572874
3	0x3f518b35	0.8185304
4	0x3f147208	0.579865
5	0x3f2b2acf	0.66862196
6	0x3f33c8be	0.70228183
7	0x3f550aa8	0.83219385
8	0x3f34583f	0.7044715
9	0x3f2baf79	0.67064625
10	0x3f220481	0.6328812
11	0x3f2b6645	0.66952926
12	0x3f1c2dd9	0.6100746
13	0x3f06517c	0.52468085
14	0x3f23a887	0.6392903
15	0x3f20cd71	0.6281348
16	0x3f27b84c	0.6551559
17	0x3f625cfa	0.8842312
18	0x3f4252a1	0.7590733
19	0x3f409928	0.752337
20	0x3f23271a	0.6373154
21	0x3f255d94	0.64595914
22	0x3f3f5e46	0.74753225
23	0x3f225a02	0.6341859
24	0x3f2a4b28	0.6652093
25	0x3f1bbbb0	0.60833263
26	0x3f210048	0.62891054
27	0x3f35d3e4	0.71026444
28	0x3f25d7f7	0.6478266
29	0x3f1cbcea	0.6122576
30	0x3f226c76	0.6344675
31	0x3f347b53	0.7050068

network.10.bias f4 [32]
0	0xbd5f33b6	-0.054492675
1	0x3bf284aa	0.0074010687
2	0xbdbe4abc	-0.09291598
3	0xbe64c492	-0.2234061
4	0x3e12d63c	0.14339536
5	0x3e6a09ff	0.22855376
6	0x3e90a4d7	0.28250763
7	0xbe4ce942	-0.20010856
8	0x3e087174	0.13324529
9	0x3e38e653	0.18056612
10	0x3e30b0da	0.17254964
11	0x3e209339	0.15681161
12	0x3e4abcc6	0.19798574
13	0x3d1614e8	0.03664103
14	0x3e9908ef	0.29889628
15	0x3e207e13	0.15673093
16	0x3e0a9583	0.13533597
17	0xbee840f7	-0.45362064
18	0xbe12a58a	-0.1432096
19	0x3e38902f	0.18023752
20	0x3cfd0043	0.030883914
21	0x3dc94d40	0.098291874
22	0x3c77694a	0.015100786
23	0x3d05a24b	0.032625478
24	0x3e29c735	0.16579898
25	0x3d59e9f8	0.053201646
26	0x3e054def	0.1301801
27	0x3e4ba3ec	0.1988675
28	0x3e8ad435	0.27115026
29	0x3e0b73a8	0.13618338
30	0x3e0f5153	0.13995866
31	0x3ddf22d7	0.10895317

network.10.running_mean f4 [32]
0	0x3df06e82	0.11739828
1	0x3e0c2129	0.13684525
2	0x3e2acf1f	0.16680573
3	0x3d47f427	0.048816826
4	0x3e0f969a	0.14022294
5	0x3db91b76	0.09038441
6	0x3deecf75	0.11660663
7	0x3e1b023f	0.15137576
8	0x3d9d5faf	0.07684266
9	0x3e3fc4bc	0.18727392
10	0x3dbc6310	0.09198582
11	0x3e13e95f	0.14444493
12	0x3df74103	0.12072947
13	0x3d888943	0.066668056
14	0x3da475a8	0.08030254
15	0x3e0eb229	0.1393515
16	0x3d532a42	0.051553972
17	0x3d481951	0.04885227
18	0x3db9ae85	0.0906649
19	0x3e3ab5fa	0.18233481
20	0x3e1d2006	0.15344247
21	0x3e4e5c54	0.20152408
22	0x3e2eb0bf	0.17059611
23	0x3dfea240	0.124332905
24	0x3d970c36	0.07375376
25	0x3da2d7bd	0.07951305
26	0x3df850f1	0.12124813
27	0x3db73e23	0.089473985
28	0x3e0e21f8	0.13880146
29	0x3db5e7e9	0.08882124
30	0x3db87ab0	0.09007776
31	0x3d8b430a	0.06799896

network.10.running_var f4 [32]
0	0x3ce675e3	0.028132385
1	0x3cffcebc	0.031226508
2	0x3cbb84f0	0.022890538
3	0x3c2f6137	0.01070433
4	0x3cb70d99	0.022345351
5	0x3ca65731	0.020305248
6	0x3ce06af4	0.02739475
7	0x3ce01fec	0.027358972
8	0x3cc40c4a	0.023931641
9	0x3cc958e3	0.024578517
10	0x3caf2a41	0.021382453
11	0x3d096470	0.03354305
12	0x3cd17c10	0.025571853
13	0x3c5928be	0.013254343
14	0x3c93176b	0.017955502
15	0x3ccdac5a	0.025106598
16	0x3c8b4b6b	0.017003736
17	0x3c44e082	0.012016417
18	0x3ca7c1ef	0.020478217
19	0x3cb16c10	0.021657974
20	0x3d045c37	0.032314505
21	0x3d03679c	0.03208123
22	0x3d149b12	0.0362807
23	0x3cc16302	0.02360678
24	0x3cb6e89e	0.022327717
25	0x3c975239	0.018471824
26	0x3cc70887	0.024296058
27	0x3cd9f374	0.026605345
28	0x3d02e710	0.03195864
29	0x3c3bc952	0.011461573
30	0x3c80b495	0.015711108
31	0x3c90ba43	0.017666942
