models/mlp_multiclass_crossentropy20250910_115911.pth (torch, 83253 bytes, 21 tensors)

network.0.weight f4 [128, 50]
0.016839046 0.023787918 -0.016435301 -0.00069757295 0.00058867404 0.004598799 0.011461312 0.0039667105
-0.0020564552 -0.003742378 0.014509711 0.0052486258 -0.006581157 0.0131964125 -0.00036640494 0.00036555782
0.016964149 0.011088816 -0.0106428135 0.011792582 0.028869597 0.010224255 -0.0027209823 -0.0041558007
-0.0064214887 0.0140819 0.042979874 0.007324866 -0.0004257763 -0.0011907278 -0.00034722086 0.0014637904
0.011953247 0.013524217 0.008290068 -0.009262074 -0.007393612 -0.24211285 -0.0077443295 0.0141675975
0.02208193 0.11835387 -0.020222384 0.004909637 -0.019980557 0.02632248 0.032985 0.05344622
-0.055172 -0.020025559 -0.046380956 0.018667486 -0.020871209 -0.17641228 -0.031261016 -0.01726648
-0.02115663 0.029928505 -0.039937362 -0.008381143 0.03248623 0.008423187 0.009507961 0.007653703
0.067213334 0.01996182 0.0028263715 0.08494996 0.292674 -0.0110288095 -0.017019382 -0.0071799196
-0.015069113 0.04558634 -0.14797695 -0.01919874 0.06525691 0.076507375 0.010027816 -0.008114069
-0.033244975 0.039005525 0.0631904 0.017043427 -0.11667196 -2.8656912e-05 0.010968725 -0.036431577
0.020123959 0.0014060152 -0.012652052 -0.048952624 0.033035833 -0.02609462 -0.061637864 -0.007016692
0.002430064 0.023893895 0.0011213517 0.04812708 -0.0482105 -0.017417572 -0.019799963 -0.07921909
0.059722807 -0.041796096 0.01895758 0.009063646 0.0035322562 -0.009297943 0.004751888 0.053215746
-0.014986989 -0.015338294 0.008827857 0.037194964 -0.017381394 0.00078688795 0.097274095 0.061850443
-0.013586414 0.0017545895 -0.006746921 0.04768373 0.00044249275 -0.014282948 0.03236943 -0.02221081
-0.02894942 -0.008990033 -0.019612227 0.03020046 -0.016914086 -0.061096128 -0.08530894 0.053160105
0.023857394 -0.035254147 0.070481494 -0.03912658 0.003609958 0.043645 0.03549553 -0.03370761
-0.056776825 0.025523558 -0.009251165 0.0062990305 -0.02638481 -0.006705586 0.004136986 -0.010951731
-0.0024336877 -0.023469752 0.025007956 -0.019848444 -0.03708891 -0.019649897 0.0023243392 0.017311959
0.027620723 -0.05699727 -0.004165118 -0.009282945 -0.083752826 0.04532762 -0.041859835 0.023949962
0.015090523 -0.08169275 0.013244251 0.019654881 -0.037054442 -0.03158946 -0.014549031 0.054682467
-0.010966256 0.013835196 -0.036834262 -0.025457831 -0.021088855 -0.03671954 -0.011653344 -0.008554866
0.006833722 -0.018912885 0.024092762 0.21477282 -0.0141635155 -0.0009617098 0.0011037545 -0.02119487
0.01187859 -0.066912495 -0.10201185 0.06443794 0.023830062 0.04156507 -0.003907629 -0.0013616951
-0.015048247 -0.00082994835 -0.0057193744 0.023702787 -0.013694028 -0.041560587 -0.008014124 0.004351824
-0.011127509 -0.008069843 -0.013777527 0.019529885 -0.0071705165 -0.019020304 -0.15841773 0.02678143
-0.01253045 -0.0007349658 0.025050556 -0.063113734 -0.0050709452 -0.009922695 0.0056028925 0.0031036113
0.019422326 -0.003289974 -0.009837943 -0.025864918 -0.0011972149 0.009503218 -0.0069607073 -0.02203419
-0.06384064 -0.037267715 0.016361708 0.019231869 -0.0070269243 -0.010453421 -0.022765243 0.0017834709
0.033045802 0.04056975 -0.045121673 -0.14540523 -0.01927399 -0.007857902 0.004955221 -0.003484949
0.049508274 -0.044201083 -0.034031108 0.0112943025 0.033043258 0.039182495 0.0042017964 -0.00041034067
00000000: 0af2 893c e1de c23c 53a3 86bc 54dd 36ba
00000010: 3f51 1a3a 86b1 963b 3ac8 3b3c 2efb 813b
00000020: 98c5 06bb af42 75bb 24ba 6d3c aafc ab3b
00000030: bfa6 d7bb c435 583c 0a1a c0b9 57a8 bf39
00000040: 66f8 8a3c dead 353c 325f 2ebc ad35 413c
00000050: ef7f ec3c a283 273c 8252 32bb 622d 88bb
00000060: 5a6b d2bb c5b7 663c aa0b 303d 6e05 f03b
00000070: ba3a dfb9 3212 9cba 320b b6b9 a8dc bf3a
00000080: 8dd7 433c ad94 5d3c 11d3 073c f4bf 17bc
00000090: 1d46 f2bb 6eec 77be 25c4 fdbb 361f 683c
000000a0: 2ae5 b43c 8463 f23d 6aa9 a5bc 05e1 a03b
000000b0: 44ae a3bc 3ea2 d73c 481b 073d 6cea 5a3d
000000c0: 09fc 61bd a40c a4bc f5f9 3dbd 8eec 983c
000000d0: 19fa aabc 6ca5 34be 8d0b 00bd 6f72 8dbc
000000e0: ab50 adbc a02c f53c 5c95 23bd 1051 09bc
000000f0: 4810 053d 6801 0a3c 47c7 1b3c eacb fa3b
00000100: 25a7 893d f986 a33c a53a 393b 3ffa ad3d
00000110: 5ed9 953e 2eb2 34bc 3b6c 8bbc 8845 ebbb
00000120: 71e4 76bc beb8 3a3d 4587 17be ad46 9dbc
00000130: 6aa5 853d e6af 9c3d b54b 243c dff0 04bc
00000140: e22b 08bd 42c4 1f3d f869 813d a89e 8b3c
00000150: b5f1 eebd 4064 f0b7 2bb6 333c 4739 15bd
00000160: 00db a43c 0b4a b83a 8d4a 4fbc 8c82 48bd
00000170: 9550 073d 62c4 d5bc fc77 7cbd 47ec e5bb
00000180: b541 1f3b 21bd c33c 52fa 923a e720 453d
00000190: 6078 45bd 4caf 8ebc 8833 a2bc 9e3d a2bd
000001a0: e79f 743d 6232 2bbd ed4c 9b3c b07f 143c
000001b0: 6d7d 673b 6656 18bc bab5 9b3b c1f8 593d
000001c0: fd8b 75bc 784d 7bbc b7a2 103c bf59 183d
000001d0: 6d63 8ebc 2847 4e3a a437 c73d e456 7d3d
000001e0: 8d99 5ebc 41fa e53a 4715 ddbb 0450 433d
000001f0: 5ffe e739 0703 6abc cf95 043d 72f3 b5bc
00000200: 5627 edbc ee4a 13bc d2a9 a0bc f566 f73c
00000210: 698f 8abc ef3f 7abd 74b6 aebd 69be 593d
00000220: 9570 c33c a766 10bd 9a58 903d 3143 20bd
00000230: 0c95 6c3b 19c5 323d c363 113d fe10 0abd
00000240: d18e 68bd c816 d13c 3392 17bc 1968 ce3b
00000250: f524 d8bc 88ba dbbb 8e8f 873b e46e 33bc
00000260: 817e 1fbb a343 c0bc 7cdd cc3c 3499 a2bc
00000270: 8aea 17bd d2f8 a0bc f153 183b cfd1 8d3c
00000280: db44 e23c f875 69bd 8b7b 88bb 7e17 18bc
00000290: 9a86 abbd 74a9 393d 3875 2bbd b632 c43c
000002a0: 3e3e 773c 874e a7bd 6afe 583c 4603 a13c
000002b0: 66c6 17bd f363 01bd 0f5f 6ebc b9fa 5f3d
000002c0: d0ab 33bc 05ad 623c 86df 16bd f18c d0bc
000002d0: 89c2 acbc 3a67 16bd abed 3ebc b529 0cbc
000002e0: 6aed df3b 32ef 9abc 2f5e c53c 68ed 5b3e
000002f0: 170e 68bc 411b 7cba dbab 903a dda0 adbc
00000300: 6b9e 423c 6b09 89bd 97eb d0bd 0af8 833d
00000310: 4337 c33c 2340 2a3d 910b 80bb e87a b2ba
00000320: ec8c 76bc e490 59ba 9769 bbbb 592c c23c
00000330: eb5c 60bc 6f3b 2abd ac4d 03bc bf99 8e3b
00000340: 2850 36bc 6037 04bc 23bb 61bc 23fd 9f3c
00000350: a7f6 eabb 78d0 9bbc 4238 22be bb64 db3c
00000360: 844c 4dbc b8aa 40ba d336 cd3c c641 81bd
00000370: 2c2a a6bb cd92 22bc 7898 b73b f565 4b3b
00000380: 921b 9f3c 9b9c 57bb 532f 21bc aae2 d3bc
00000390: deeb 9cba 63b3 1b3c a516 e4bb 0c81 b4bc
000003a0: e2be 82bd 08a6 18bd fd08 863c 278c 9d3c
000003b0: 1d42 e6bb d344 2bbc 2d7e babc 5ac3 e93a
000003c0: 095b 073d 772c 263d 81d1 38bd 1ce5 14be
000003d0: 7de4 9dbc 6ebe 00bc 685f a23b be63 64bb
000003e0: 30c9 4a3d 320c 35bd 3464 0bbd bd0b 393c
000003f0: 5e58 073d d37d 203d 39af 893b fe22 d7b9

network.0.bias f4 [128]
-0.16953401 -0.19668923 -0.052379303 -0.13288188 -0.017124146 -0.09592303 -0.103140876 -0.063238166
-0.043016255 -0.22687463 -0.08493416 -0.044007923 -0.1474225 -0.14242646 -0.15472844 -0.14215085
-0.07423055 -0.04095133 -0.28789163 -0.1406219 -0.029047957 -0.2664025 -0.14307031 0.014392422
-0.30143365 -0.1279765 -0.061812546 -0.05743836 -0.13918665 -0.1445247 -0.018023007 -0.2173783
-0.13415354 -0.087286346 -0.13182071 -0.13719983 -0.016950356 -0.11922268 -0.15155274 -0.11267736
-0.16490056 -0.02524011 -0.127324 -0.10167197 -0.20610665 -0.09216616 -0.105137676 -0.074723214
-0.12344385 -0.15126397 -0.108159095 -0.20726506 -0.20709589 -4.2020816e-05 -0.095964335 -0.06751645
-0.056150574 -0.08618036 -0.34933335 -0.14623584 -0.07241903 -0.067786045 -0.26899025 -0.12239546
-0.25452435 -0.18484062 -0.035718743 -0.08704832 -0.12748264 -0.013735898 -0.124702625 -0.09436027
-0.0741894 -0.11756823 -0.29539636 -0.16850042 -0.079278186 -0.16792755 -0.15302563 -0.34524348
-0.11253545 -0.18559282 -0.11501399 -0.10274984 -0.09345794 -0.06738167 -0.06622427 -0.10831399
-0.13075744 -0.13940881 -0.037447724 -0.0857822 -0.03834351 -0.1168807 -0.071660824 -0.04596456
-0.16729392 -0.059560064 -0.11858533 -0.18807828 -0.12425428 -0.008552103 -0.15309736 -0.12091672
-0.13422906 -0.18034594 -0.004008965 -0.17700994 -0.20206231 -0.06531442 -0.07831873 -0.10855586
-0.14295454 -0.00014576854 -0.026606515 -0.10956296 -0.04265189 -0.25687227 -0.13612473 -0.14718626
-0.07815242 -0.13916291 -0.12363174 -0.08458251 -0.08933935 -0.087399766 -0.052515697 -0.021089332
00000000: 539a 2dbe e768 49be ae8b 56bd 3012 08be
00000010: f047 8cbc 4b73 c4bd 863b d3bd 0383 81bd
00000020: d031 30bd d351 68be f6f1 adbd a741 34bd
00000030: edf5 16be 3ed8 11be 2271 1ebe fe8f 11be
00000040: 3006 98bd 95bc 27bd 8866 93be 30ff 0fbe
00000050: fbf5 edbc e965 88be 0681 12be 31ce 6b3c
00000060: 8355 9abe 460c 03be 272f 7dbd 7c44 6bbd
00000070: f286 0ebe 48fe 13be fca4 93bc 6b98 5ebe
00000080: 8c5f 09be 2fc3 b2bd 02fc 06be 1d7e 0cbe
00000090: 79db 8abc 052b f4bd a430 1bbe 63c3 e6bd
000000a0: b1db 28be 59c4 cebc 3961 02be 6539 d0bd
000000b0: 9f0d 53be 9dc1 bcbd 6c52 d7bd 7c08 99bd
000000c0: 21d0 fcbd f1e4 1abe 8482 ddbd 4b3d 54be
000000d0: f210 54be 823f 30b8 f388 c4bd 1146 8abd
000000e0: 25fe 65bd 547f b0bd d2db b2be d9be 15be
000000f0: 6e50 94bd 69d3 8abd 17b9 89be 79aa fabd
00000100: 0451 82be dc46 3dbe d14d 12bd 6446 b2bd
00000110: cf8a 02be 880c 61bc 1764 ffbd f53f c1bd
00000120: 9df0 97bd 9dc7 f0bd 313e 97be 608b 2cbe
00000130: 9a5c a2bd 33f5 2bbe c0b2 1cbe c1c3 b0be
00000140: fc78 e6bd 0b0c 3ebe 748c ebbd 826e d2bd
00000150: e066 bfbd 67ff 89bd 97a0 87bd bad3 ddbd
00000160: 47e5 05be 2fc1 0ebe c962 19bd 94ae afbd
00000170: 160e 1dbd 265f efbd e9c2 92bd 5645 3cbd
00000180: 194f 2bbe 41f5 73bd dedc f2bd 9897 40be
00000190: 0779 febd 1f1e 0cbc 8ec5 1cbe 2fa3 f7bd
000001a0: 5873 09be 9bac 38be a35d 83bb 1842 35be
000001b0: 6ce9 4ebe 91c3 85bd 9265 a0bd 8952 debd
000001c0: ad62 12be 72d9 18b9 e8f5 d9bc 8c62 e0bd
000001d0: c0b3 2ebd c384 83be 4864 0bbe ffb7 16be
000001e0: 600e a0bd b980 0ebe a332 fdbd 9839 adbd
000001f0: 8df7 b6bd a6fe b2bd b31a 57bd 89c3 acbc

network.2.weight f4 [128]
0.11995848 0.16622862 0.09860429 0.14150123 0.09989246 0.1380987 0.12941025 0.17295659
0.09737506 0.19556467 0.119494446 0.11304869 0.10049364 0.111069016 0.1826271 0.16268437
0.15602596 0.12688443 0.18498856 0.11601203 0.08714441 0.14973883 0.1403475 0.10644611
0.1581423 0.105581 0.1841792 0.07242952 0.09767947 0.08627413 0.1102765 0.16410528
0.10561428 0.15055734 0.11133 0.121979855 0.08295785 0.120829456 0.16907687 0.115220785
0.09732056 0.08020208 0.10863905 0.18643454 0.11956075 0.11885193 0.14678831 0.122784704
0.12561156 0.18762684 0.14419784 0.13647851 0.16858953 0.11001854 0.103724994 0.09685526
0.113047384 0.10909773 0.20545632 0.09069831 0.11748439 0.10256464 0.13341317 0.12633674
0.17825976 0.111229256 0.086345166 0.12780611 0.111155756 0.08622678 0.11098671 0.12466525
0.10240589 0.1121331 0.14976007 0.12928574 0.08555135 0.11004677 0.1329688 0.18230407
0.13028929 0.10584806 0.09968224 0.12308695 0.10185269 0.09613682 0.12572038 0.12099404
0.09864961 0.14908025 0.12827614 0.10947801 0.100374386 0.13169685 0.10697773 0.11137379
0.1370482 0.14401975 0.118404336 0.14528218 0.121511325 0.10774256 0.16861475 0.12862816
0.13590418 0.11281089 0.19076999 0.18197018 0.062439054 0.09288092 0.07250561 0.086149454
0.18994996 0.09086308 0.09101077 0.2058518 0.12660895 0.16537619 0.12401299 0.09337829
0.111771196 0.113688566 0.14031236 0.15346242 0.12551364 0.12642035 0.100196354 0.09577488
00000000: cbac f53d d637 2a3e 0cf1 c93d b3e5 103e
00000010: 6b94 cc3d bf69 0d3e 1f84 043e 881b 313e
00000020: 936c c73d 1b42 483e 81b9 f43d 1286 e73d
00000030: 9ccf cd3d 2778 e33d 9902 3b3e bb96 263e
00000040: 45c5 1f3e feed 013e a46d 3d3e b797 ed3d
00000050: c578 b23d 2355 193e 41b7 0f3e 6b00 da3d
00000060: 0ef0 213e da3a d83d 7999 3c3e ee55 943d
00000070: 2d0c c83d 7eb0 b03d a5d8 e13d 370b 283e
00000080: 4d4c d83d b42b 1a3e fc00 e43d 93d0 f93d
00000090: cee5 a93d 6f75 f73d 7d22 2d3e e0f8 eb3d
000000a0: 0050 c73d fd40 a43d 267e de3d b2e8 3e3e
000000b0: 44dc f43d a468 f33d ad4f 163e 8c76 fb3d
000000c0: 51a0 003e 4021 403e 99a8 133e 06c1 0b3e
000000d0: bca2 2c3e 6651 e13d c56d d43d 0d5c c63d
000000e0: 6385 e73d a16e df3d 2463 523e 09c0 b93d
000000f0: a89b f03d 690d d23d 769d 083e 6b5e 013e
00000100: ba89 363e 2acc e33d bcd5 b03d 9bdf 023e
00000110: a1a5 e33d ab97 b03d 004d e33d 7f50 ff3d
00000120: 2eba d13d 0aa6 e53d b45a 193e 7b63 043e
00000130: 8c35 af3d 3360 e13d f928 083e ebad 3a3e
00000140: 8e6a 053e dec6 d83d 3426 cc3d 0315 fc3d
00000150: 2598 d03d 62e3 c43d d8bc 003e b9cb f73d
00000160: cf08 ca3d 7ea8 183e d25a 033e 0236 e03d
00000170: 1691 cd3d 8adb 063e 2417 db3d f117 e43d
00000180: 5d56 0c3e ea79 133e f97d f23d dac4 143e
00000190: eeda f83d 22a8 dc3d 58a9 2c3e 1ab7 033e
000001a0: 772a 0b3e 6509 e73d 3559 433e 6456 3a3e
000001b0: 18c0 7f3d 5a38 be3d d27d 943d 206f b03d
000001c0: 3e82 423e 6c16 ba3d db63 ba3d d0ca 523e
000001d0: c7a5 013e 6058 293e 86fa fd3d 1e3d bf3d
000001e0: 4ce8 e43d 8dd5 e83d 0bae 0f3e 4125 1d3e
000001f0: a686 003e 5674 013e bf33 cd3d 9f25 c43d

network.2.bias f4 [128]
0.027860438 0.014041789 0.013733895 -0.006865483 0.034789752 0.03298886 0.010484164 0.08102739
0.02085351 0.035912793 0.004439525 -0.0014352202 -0.0111789 0.013849998 0.07313277 0.026578007
0.10289798 0.044814892 0.01876941 0.022107463 0.021734683 0.010269965 0.027219731 0.011682052
-0.01806142 0.013146072 0.09909556 0.022824896 0.008582424 0.013618237 0.015080773 0.013886001
0.010514028 0.02129328 0.028023275 0.02473572 -0.01839271 0.0059157535 0.045562577 -0.0062060975
0.0025111192 0.0012877787 0.0042049186 0.049493924 0.015078758 -0.018829755 0.030046718 0.016364798
0.0012972752 0.01110837 0.018591082 -0.016109519 0.024358919 -0.0022738217 -0.003213651 0.00059959886
0.024192264 0.039217442 0.00836211 0.019638626 0.0346376 0.029260945 -0.020120753 0.0032710654
0.03618849 0.026281945 -0.005848589 0.020749412 0.00207726 -0.0048219743 0.019190952 0.013179339
0.044454236 0.009841104 0.017445568 0.026198857 -0.009017611 -0.0008393728 0.02079107 -0.0026682855
0.028305992 -0.0109233465 0.0156248165 0.011208301 -0.0072710733 0.008941529 0.065529406 0.040200334
0.006507209 0.0323253 0.0056165694 0.023937436 0.038602747 0.021392683 -0.009008545 0.030216224
0.01759917 0.019621022 -0.01480729 0.047373824 0.0266729 0.017539185 0.04840771 0.009920965
0.022115937 0.008121226 0.112086184 0.060020063 0.008353369 0.008090823 0.0074674287 0.017271293
0.09051858 -0.008386671 0.016036525 0.043873608 -0.0005269888 0.00066263217 0.008140133 -0.0062837694
0.003910028 -0.009708993 0.028676583 0.026381494 0.016367063 0.032042142 0.027553732 -0.009280654
00000000: 933b e43c 880f 663c 2104 613c d8f7 e0bb
00000010: b37f 0e3d 541f 073d c5c5 2b3c b0f1 a53d
00000020: fbd4 aa3c 4b19 133d 6f79 913b 001e bcba
00000030: b427 37bc 1aeb 623c a2c6 953d 1fba d93c
00000040: 2dbc d23d d28f 373d 4ec2 993c b61a b53c
00000050: ef0c b23c 5b43 283c eafb de3c 1466 3f3c
00000060: 8bf5 93bc 9f62 573c 9df2 ca3d 47fb ba3c
00000070: 4c9d 0c3c 071f 5f3c 5915 773c 1c82 633c
00000080: 0843 2c3c 3f6f ae3c 1191 e53c 91a2 ca3c
00000090: 4fac 96bc f0d8 c13b d39f 3a3d 855c cbbb
000000a0: 9791 243b afca a83a 6ac9 893b 24ba 4a3d
000000b0: e50c 773c dc40 9abc 8924 f63c 780f 863c
000000c0: 5509 aa3a e1ff 353c 534c 983c 1cf8 83bc
000000d0: 5b8c c73c 6604 15bb 1e9c 52bb 662e 1d3a
000000e0: db2e c63c 78a2 203d 3b01 093c 2fe1 a03c
000000f0: 28e0 0d3d a6b4 ef3c 47d4 a4bc 5f5f 563b
00000100: 623a 143d 3c4d d73c 85a5 bfbb acfa a93c
00000110: a422 083b a701 9ebb 5836 9d3c 27ee 573c
00000120: a515 363d 953c 213c 02ea 8e3c fc9e d63c
00000130: 9abe 13bc 5b09 5cba 0952 aa3c 67de 2ebb
00000140: f8e1 e73c d6f7 32bc 3bff 7f3c 06a3 373c
00000150: 2f42 eebb 7e7f 123c 4834 863d 1ba9 243d
00000160: 6d3a d53b 8967 043d 330b b83b 7118 c43c
00000170: ea1d 1e3d b53f af3c 9498 13bc 0488 f73c
00000180: 222c 903c 44bc a03c 479a 72bc 0e0b 423d
00000190: 2081 da3c 56ae 8f3c 2a47 463d 8b8b 223c
000001a0: 7b2c b53c e40e 053c 718d e53d 99d7 753d
000001b0: 92dc 083c 5f8f 043c 55b1 f43b 877c 8d3c
000001c0: ce61 b93d 3f68 09bc 085f 833c d0b4 333d
000001d0: 9f25 0aba 7eb4 2d3a 315e 053c 14e8 cdbb
000001e0: b11f 803b 7812 1fbc 27eb ea3c 011e d83c
000001f0: 3814 863c 9f3e 033d 5db8 e13c e20d 18bc

network.2.running_mean f4 [128]
0.04594757 0.06057583 0.082182646 0.048789162 0.09121695 0.09472276 0.0931556 0.108316295
0.090408914 0.05364034 0.08480517 0.10705989 0.025764821 0.034147054 0.07210377 0.076675706
0.09292301 0.102952 0.038172804 0.06229431 0.07996254 0.02439478 0.057283446 0.1233703
0.009997488 0.053553984 0.11477609 0.07464446 0.07691875 0.039165705 0.08551501 0.015181914
0.041968133 0.05406582 0.05602387 0.0548308 0.07458503 0.05385645 0.037898526 0.04627538
0.024706542 0.060858354 0.03928228 0.090003416 0.029157627 0.05739932 0.056256626 0.058211256
0.17647094 0.024294663 0.052722067 0.03094215 0.047616854 0.11263405 0.057878748 0.10495743
0.10496382 0.1260976 0.023577332 0.024914041 0.065563686 0.08329022 0.0074659046 0.20812003
0.04103894 0.020618236 0.060241617 0.07988416 0.047235124 0.07693517 0.103242844 0.04613841
0.047921147 0.063013375 0.022563145 0.047403704 0.049535133 0.016610567 0.12518409 0.009630274
0.07785849 0.14699686 0.059597738 0.034373626 0.08567994 0.05895498 0.08312299 0.058571406
0.03155007 0.024620451 0.074354775 0.09118071 0.06308755 0.032863334 0.0582961 0.053126976
0.043842927 0.091561966 0.029635552 0.060189094 0.035645597 0.109065115 0.057079736 0.041173514
0.052978184 0.023163306 0.15255234 0.052576568 0.030086335 0.07382594 0.039586257 0.03250314
0.07241961 0.12580734 0.08978678 0.12298329 0.068814024 0.023286682 0.036601264 0.023726216
0.06718467 0.06642225 0.04247959 0.05459986 0.12501617 0.115356825 0.07886194 0.061856978
00000000: 8533 3c3d 5d1e 783d 604f a83d 25d7 473d
00000010: f4cf ba3d 02fe c13d 5dc8 be3d efd4 dd3d
00000020: 4f28 b93d f9b5 5b3d 55ae ad3d 3742 db3d
00000030: bf10 d33c c8dd 0b3d 24ab 933d 2708 9d3d
00000040: 6b4e be3d 80d8 d23d 165b 1c3d 5228 7f3d
00000050: 66c3 a33d 90d7 c73c 0ca2 6a3d 91a9 fc3d
00000060: 81cc 233c 6c5b 5b3d ba0f eb3d 32df 983d
00000070: 9487 9d3d 386c 203d 7e22 af3d 90bd 783c
00000080: c7e6 2b3d 1f74 5d3d 4979 653d 4396 603d
00000090: 09c0 983d 9598 5c3d 7c3b 1b3d 418b 3d3d
000000a0: 6065 ca3c 9c46 793d 75e6 203d b653 b83d
000000b0: fadb ee3c 8d1b 6b3d 596d 663d ed6e 6e3d
000000c0: ccb4 343e 9a05 c73c 18f3 573d 647a fd3c
000000d0: e409 433d aeac e63d 4412 6d3d ecf3 d63d
000000e0: 45f7 d63d bb1f 013e 4025 c13c 8818 cc3c
000000f0: 4146 863d 1094 aa3d 8ca4 f43b 6b1d 553e
00000100: 7318 283d 93e7 a83c eabf 763d 4e9a a33d
00000110: 9e79 413d 3090 9d3d fc70 d33d a1fb 3c3d
00000120: f748 443d 280d 813d 58d6 b83c 632a 423d
00000130: 5ae5 4a3d e212 883c 4230 003e 4cc8 1d3c
00000140: 4674 9f3d 5886 163e c21c 743d 5ccb 0c3d
00000150: f778 af3d c77a 713d 633c aa3d 92e8 6f3d
00000160: a53a 013d d4b0 c93c 5147 983d f4bc ba3d
00000170: 0c34 813d b49b 063d e4c7 6e3d ac9b 593d
00000180: a494 333d d784 bb3d 42c6 f23c d788 763d
00000190: 1e01 123d 885d df3d 71cc 693d 8fa5 283d
000001a0: a7ff 583d f9c0 bd3c ae36 1c3e 875a 573d
000001b0: 9e77 f63c 0e32 973d 3325 223d 0322 053d
000001c0: bc50 943d a4d3 003e 22e2 b73d aade fb3d
000001d0: 5eee 8c3d b6c3 be3c 35eb 153d 7b5d c23c
000001e0: 1e98 893d 6308 883d 14ff 2d3d 1aa4 5f3d
000001f0: 3d04 003e 3340 ec3d 5e82 a13d be5d 7d3d

network.2.running_var f4 [128]
0.16755962 0.05558016 0.4180612 0.013162196 0.012981144 0.51271445 5.335988 0.017126752
1.5924249 0.019595675 0.12117793 0.018934907 0.0059658624 0.007982718 0.18029469 0.02870542
0.0133325495 0.60877335 0.029838724 0.8145906 0.021198645 0.2895391 0.26609454 0.02383201
0.002859672 0.022797432 0.47139534 0.24524722 10.066166 0.08637752 0.011047191 0.0019418017
0.007692951 0.020122884 0.008467991 2.715205 0.26100227 0.011998551 0.0037833604 0.042653292
0.002881861 0.0104811005 0.13663346 0.08802109 0.010505215 0.0062532513 0.011333947 0.36440802
41.007774 0.0040684934 0.0079182675 0.16490115 0.008700397 0.06603254 1.1304667 7.1497774
0.027144786 13.193491 0.031892736 0.0322721 0.1353794 0.64421004 0.0023287162 64.41832
0.009920387 0.03122489 0.0150133725 0.017357435 0.36619344 0.009616003 6.924178 0.40988013
0.041556686 0.21253233 0.005036293 1.6558585 0.0055484655 0.0016571591 16.82098 0.000981349
1.9424391 30.308277 0.021625662 0.0046130116 8.145384 0.060485903 0.012923347 0.016619744
0.0058370144 0.0035695839 0.010934989 1.177637 0.005586107 0.0042970562 0.31465223 0.0068719946
0.0065989923 0.034621954 0.00502532 0.2844864 0.0049789455 0.20749983 0.07184911 0.008381174
0.007218191 0.008911055 0.3334604 0.009527451 0.011266702 0.011768192 0.06831479 0.006556327
0.016572166 2.2627566 0.016120922 0.06253915 0.010985296 0.17337523 0.0071256855 0.002177306
0.008631775 4.5320516 0.011613093 0.008044042 11.601938 5.288611 0.011083381 0.008092047
00000000: c094 2b3e 06a8 633d 1e0c d63e 40a6 573c
00000010: ddae 543c 4141 033f 6ac0 aa40 674d 8c3c
00000020: 94d4 cb3f 1c87 a03c 222c f83d 611d 9b3c
00000030: 487d c33b f2c9 023c 2c9f 383e a127 eb3c
00000040: c470 5a3c 92d8 1b3f 5770 f43c 0289 503f
00000050: c8a8 ad3c 783e 943e 8b3d 883e 593b c33c
00000060: 5669 3b3b aec1 ba3c bb5a f13e 1622 7b3e
00000070: 040f 2141 b2e6 b03d 47ff 343c 0e84 fe3a
00000080: 2615 fc3b bfd8 a43c 54bd 0a3c ebc5 2d40
00000090: 17a2 853e 9295 443c 41f2 773b 38b5 2e3d
000000a0: 9bdd 3c3b ecb8 2b3c a4e9 0b3e 6744 b43d
000000b0: 111e 2c3c 13e8 cc3b 05b2 393c b093 ba3e
000000c0: f607 2442 ff50 853b 9fbb 013c d9db 283e
000000d0: 1c8c 0e3c 113c 873d 22b3 903f faca e440
000000e0: be5e de3c 8a18 5341 f5a1 023d c02f 043d
000000f0: e6a0 0a3e f3ea 243f 609d 183b 2ed6 8042
00000100: 1e89 223c 57cb ff3c a6fa 753c 2e31 8e3c
00000110: b57d bb3e 718c 1d3c de92 dd40 cfdb d13e
00000120: 5837 2a3d 13a2 593e 7d07 a53b 2cf3 d33f
00000130: e7cf b53b 0835 d93a 5e91 8641 9ca0 803a
00000140: d8a1 f83f 5a77 f241 4d28 b13c bf28 973b
00000150: 7e53 0241 11c0 773d 72bc 533c 2126 883c
00000160: 6d44 bf3b aeef 693b ab28 333c cfbc 963f
00000170: a90b b73b 52ce 8c3b 191a a13e 782e e13b
00000180: 5c3c d83b c0cf 0d3d 71ab a43b 34a8 913e
00000190: 6c26 a33b d67a 543e a025 933d 3151 093c
000001a0: 9386 ec3b acff 113c 52bb aa3e 0719 1c3c
000001b0: f997 383c 60cf 403c a0e8 8b3d 75d6 d63b
000001c0: 5ac2 873c 01d1 1040 0610 843c 8714 803d
000001d0: acfb 333c 4789 313e 957e e93b 22b1 0e3b
000001e0: 4a6c 0d3c 9106 9140 d844 3e3c 28cb 033c
000001f0: 8aa1 3941 4d3c a940 1297 353c 8194 043c

network.4.weight f4 [64, 128]
-0.025197135 0.06115117 -0.022241786 -0.009083464 -0.015726749 0.016305266 0.042416453 -0.0017075561
0.02233284 0.0140716275 -0.008218089 0.029560065 0.0034077077 0.00961226 0.033377636 0.0076400302
-0.03008281 -0.066301815 0.094311684 -0.009597886 -0.0012739517 0.014405937 0.022785578 -0.0092674885
0.0666685 -0.051144868 -0.04309757 -0.005794683 0.013699334 -0.0019659034 0.0221218 -0.040330313
0.047438506 -0.026956193 0.035668038 -0.007208288 0.0007582768 0.03643367 0.010963175 -0.019685829
0.03818252 0.0260077 -0.028410545 0.03738277 0.0053269938 -0.010832762 -0.0500553 0.02547619
0.004376295 0.0052160313 0.014747296 -0.045453686 0.028190779 0.029688809 8.1897175e-05 0.019409461
0.020066025 -0.029568208 0.083892144 -0.026578577 -0.072526254 -0.033778198 0.000817455 0.0019159454
0.04991183 -0.0498576 -0.0792313 -0.0059320456 -0.04580894 0.032491025 0.027394157 0.03345227
-0.01795287 -0.006587952 -0.04584628 -0.0163391 0.0011763602 0.000101148275 0.022183588 0.0148440385
0.04053764 -0.004353167 -0.004002688 0.008531436 -0.045763943 0.012847191 0.0038386672 -0.02837284
0.012389093 -0.03477295 -0.05218745 0.006591906 0.0052312696 -0.002810938 0.032172043 -0.011961629
-0.01954028 0.064673334 0.006108044 0.023446625 -0.0677123 -0.004612712 0.029109316 -0.015841171
-0.010126391 0.014575768 -0.017510183 -0.010437098 -0.0006870978 0.022625225 -0.043125816 -0.02264797
0.005713913 -0.0023603584 -0.028203404 -0.022139927 -0.031607848 -0.009136088 0.027475026 -0.012238916
0.035153825 -0.0052083125 0.016632175 0.0034115028 0.062023755 0.008147062 -0.057872746 0.0292162
-0.010827905 0.029171782 0.020786483 0.033706874 0.017099006 0.043123923 0.02601722 0.019683065
-0.0010688177 0.04109983 0.023552198 -0.035579424 -0.07627546 0.0067671426 0.024569182 0.011218124
0.01475645 0.010016174 0.024561055 0.042438444 -0.03109461 0.042923573 0.00019769033 -0.02642364
0.019487461 0.030974882 0.010391851 0.042757895 -0.025495578 -0.020768816 -0.04162547 0.013057479
0.019208858 -0.026059741 -0.048355762 0.0017334793 -0.08458791 0.04024326 0.010598609 0.012998219
0.0059724976 0.006411361 0.013675943 -0.047195196 -0.041507762 -0.023277165 -0.023599606 -0.04694011
0.021428956 0.016227828 0.03836694 -0.039024666 -0.04494505 0.0062286467 -0.035085756 -0.010039528
0.010477862 0.025602378 0.0070935045 -0.008013086 -0.009034549 0.009291105 -0.026158735 -0.0018296922
0.03991388 0.01661632 -0.003361604 0.0708567 0.0028615214 0.04249983 0.046658203 0.06158258
0.012308747 0.0136144115 -0.012038076 0.028075498 -0.011761727 0.051858578 -0.06997286 0.045149278
0.03407534 -0.026262546 -0.021210918 0.024992349 -0.02433026 0.009617289 0.033958558 0.023683757
-0.019679181 0.063721634 -0.02453225 -0.004509824 0.012609081 0.0135347685 -0.028951919 0.006944183
-0.054883417 -0.00529021 -0.05705681 0.018640464 -0.005022431 0.028601663 0.046870857 -0.039417148
0.027862903 0.0027800659 -0.029725263 -0.00049706106 0.03842456 0.010661521 0.002508785 0.006401126
0.029710457 -0.021783542 0.014760279 0.04447401 -0.02133988 0.061076283 0.015140558 -0.01954575
-0.04383007 -0.05637667 0.00794441 0.023111273 -0.0061969403 0.029205268 0.015438852 -0.014099066
00000000: 396a cebc a679 7a3d 6834 b6bc cfd2 14bc
00000010: 62d5 80bc 9f92 853c e0bc 2d3d 13d0 dfba
00000020: 5cf3 b63c af8c 663c 2aa5 06bc f327 f23c
00000030: d953 5f3b be7c 1d3c fdb6 083d 3859 fa3b
00000040: 3a70 f6bc 3fc9 87bd 7c26 c13d 7440 1dbc
00000050: bafa a6ba e106 6c3c d2a8 ba3c aad6 17bc
00000060: 7f89 883d 487d 51bd 1487 30bd 53e1 bdbb
00000070: 2c73 603c 63d6 00bb c738 b53c 6631 25bd
00000080: e14e 423d 3cd3 dcbc a618 123d 8133 ecbb
00000090: 18c7 463a 793b 153d e49e 333c 2d44 a1bc
000000a0: 4665 1c3d 1a0e d53c 3bbd e8bc ad1e 193d
000000b0: 108e ae3b e67b 31bc c906 4dbd 71b3 d03c
000000c0: 0667 8f3b 3eeb aa3b a59e 713c a52d 3abd
000000d0: 59f0 e63c f235 f33c 36c0 ab38 9700 9f3c
000000e0: 8161 a43c 0739 f2bc a5cf ab3d 51bb d9bc
000000f0: a588 94bd 025b 0abd 7a4a 563a 7620 fb3a
00000100: 5970 4c3d 7c37 4cbd 0544 a2bd 9b61 c2bb
00000110: 28a2 3bbd 4f15 053d b669 e03c 3f05 093d
00000120: e611 93bc bfdf d7bb 4fc9 3bbd 94d9 85bc
00000130: 1930 9a3a 911f d438 5bba b53c 6934 733c
00000140: cc0a 263d 03a5 8ebb fb28 83bb 70c7 0b3c
00000150: f972 3bbd 067d 523c 2692 7b3b 286e e8bc
00000160: 9ffb 4a3c 156e 0ebd 82c2 55bd ea00 d83b
00000170: 126b ab3b b737 38bb d5c6 033d b5fa 43bc
00000180: f012 a0bc 7473 843d fd25 c83b 2313 c03c
00000190: bfac 8abd 3c26 97bb a976 ee3c 58c5 81bc
000001a0: 2ae9 25bc 34cf 6e3c 8471 8fbc 5d00 2bbc
000001b0: 5a1e 34ba 8958 b93c b2a4 30bd 3c88 b9bc
000001c0: c73b bb3b 3eb0 1abb d30a e7bc cb5e b5bc
000001d0: 3b77 01bd 88af 15bc 4e13 e13c bc85 48bc
000001e0: 75fd 0f3d 7eaa aabb 3340 883c 8593 5f3b
000001f0: 9f0c 7e3d 417b 053c f90b 6dbd d056 ef3c
00000200: 8667 31bc a9f9 ee3c 6a48 aa3c 3810 0a3d
00000210: 3713 8c3c b6a2 303d 1122 d53c 613e a13c
00000220: 9217 8cba 4c58 283d 8af0 c03c bbbb 11bd
00000230: 4f36 9cbd e8be dd3b 4f45 c93c 39cc 373c
00000240: 0ac5 713c e11a 243c 4434 c93c efd3 2d3d
00000250: 20ba febc a1d0 2f3d 184b 4f39 6476 d8bc
00000260: 2ba4 9f3c 09bf fd3c 9542 2a3c e722 2f3d
00000270: 1adc d0bc 5d23 aabc 787f 2abd 09ef 553c
00000280: e55b 9d3c 3d7b d5bc b110 46bd ea35 e33a
00000290: 6d3c adbd 1ed6 243d caa5 2d3c 7bf6 543c
000002a0: f1b4 c33b 6516 d23b 1011 603c c04f 41bd
000002b0: 0b04 2abd c1af bebc f653 c1bc 4644 40bd
000002c0: c78b af3c 39f0 843c a726 1d3d 54d8 1fbd
000002d0: 4d18 38bd ad19 cc3b 15b6 0fbd d57c 24bc
000002e0: 57ab 2b3c 14bc d13c a170 e83b 5249 03bc
000002f0: a505 14bc b839 183c d84a d6bc 48d2 efba
00000300: bd7c 233d f31e 883c 5b4e 5cbb 511d 913d
00000310: 5d88 3b3b 4d14 2e3d ac1c 3f3d 043e 7c3d
00000320: a0aa 493c fb0e 5f3c 5a3b 45bc 96fe e53c
00000330: 42b4 40bc a969 543d ee4d 8fbd 73ee 383d
00000340: 9592 0b3d 8d24 d7bc 85c2 adbc c1bc cc3c
00000350: 4150 c7bc d591 1d3c 2118 0b3d 7004 c23c
00000360: 3c36 a1bc 7d80 823d dbf7 c8bc 25c7 93bb
00000370: 5296 4e3c efc0 5d3c 932c edbc 078c e33b
00000380: 6fcd 60bd 7f59 adbb 67b4 69bd e3b3 983c
00000390: 3493 a4bb 094e ea3c a8fb 3f3d e073 21bd
000003a0: be40 e43c c431 363b 6582 f3bc 344d 02ba
000003b0: 1263 1d3d a9ad 2e3c 6e6a 243b 89c0 d13b
000003c0: 5863 f33c 6673 b2bc 19d5 713c 612a 363d
000003d0: f9d0 aebc 202b 7a3d 1a10 783c 691e a0bc
000003e0: 2987 33bd 39eb 66bd 4529 023c da53 bd3c
000003f0: b40f cbbb e33f ef3c 3df3 7c3c c5ff 66bc

network.4.bias f4 [64]
-0.021607768 -0.0048185713 -0.029850118 -0.014801082 -0.021055078 0.0003753773 -0.056347553 0.0018332258
-0.017491931 -0.0511189 -0.020043911 0.0077238725 -0.036933646 -0.0005835135 -0.0027512999 -0.017974526
0.0024608828 -0.03501461 -0.01191488 -0.043829758 0.010399284 -0.0017018052 -0.02752053 -0.008781381
-0.028767576 -0.03276395 -0.01045561 -0.03538976 -0.044961777 -0.055216722 -0.0060357554 -0.03078816
-0.055074107 0.016447293 -0.019992186 -0.022756642 -0.020808093 0.014780437 -0.03958982 -0.00031793164
-0.016899213 -0.026327793 0.00514086 0.011573321 -0.099690706 -0.020916833 -0.054247938 -0.010022759
-0.021100732 -0.032653194 -0.033175804 -0.0002791592 -0.015634276 -0.035417214 0.005292333 -0.007237366
0.0029481284 0.0016136103 -0.025665384 -0.028773794 -0.019651987 -0.046820153 -0.012576797 -0.028036535
00000000: c602 b1bc 1be5 9dbb 3c88 f4bc 3d80 72bc
00000010: b37b acbc 4ace c439 b1cc 66bd da48 f03a
00000020: 3d4b 8fbc 0d62 51bd 2133 a4bc 8a18 fd3b
00000030: bc47 17bd eef6 18ba 274f 34bb 503f 93bc
00000040: c346 213b 7b6b 0fbd a136 43bc d586 33bd
00000050: c261 2a3c 1b0f dfba bc72 e1bc c8df 0fbc
00000060: fba9 ebbc 7e33 06bd 024e 2bbc daf4 10bd
00000070: d729 38bd ee2a 62bd 96c7 c5bb 7437 fcbc
00000080: 6395 61bd 79bc 863c a7c6 a3bc 236c babc
00000090: bc75 aabc a529 723c ef28 22bd 10b0 a6b9
000000a0: 3870 8abc 62ad d7bc a974 a83b 079e 3d3c
000000b0: a42a ccbd c759 abbc 1633 5ebd 8036 24bc
000000c0: 71db acbc 5bbf 05bd 5ae3 07bd 1d5c 92b9
000000d0: 7413 80bc a411 11bd 4f6b ad3b 6d27 edbb
000000e0: 6335 413b c77f d33a 3640 d2bc 05b7 ebbc
000000f0: 34fd a0bc 7dc6 3fbd e90e 4ebc e0ac e5bc

network.6.weight f4 [64]
0.112125196 0.12720408 0.15477064 0.14568304 0.11033492 0.13259114 0.16327538 0.12470759
0.120326355 0.15625344 0.14782731 0.14672096 0.15638395 0.1434281 0.15088165 0.17703073
0.13461266 0.15970974 0.13383082 0.15687571 0.13666403 0.12656288 0.12557101 0.13448475
0.12866807 0.12301893 0.12153937 0.13268471 0.12144804 0.1259324 0.13080247 0.13973019
0.15242784 0.1414355 0.15928449 0.16122323 0.14668113 0.122295864 0.15909211 0.1603054
0.11097982 0.13076301 0.1651096 0.16498369 0.15371534 0.1584623 0.16766651 0.13158755
0.1469596 0.14130129 0.13922843 0.12327546 0.105060145 0.13736331 0.12346125 0.11566475
0.14153491 0.1789141 0.15081991 0.16462676 0.14223638 0.13883835 0.12431024 0.1400932
00000000: e5a1 e53d c941 023e 327c 1e3e ef2d 153e
00000010: 46f7 e13d f9c5 073e a931 273e b166 ff3d
00000020: aa6d f63d e700 203e 0b60 173e 053e 163e
00000030: 1d23 203e d1de 123e b880 1a3e 8b47 353e
00000040: e7d7 093e f38a 233e f20a 093e 07a4 203e
00000050: a8f1 0b3e b399 013e b095 003e 5fb6 093e
00000060: 90c1 033e 59f1 fb3d a2e9 f83d 80de 073e
00000070: c0b9 f83d 6cf4 003e 15f1 053e 6e15 0f3e
00000080: 0b16 1c3e 78d4 103e 791b 233e b417 253e
00000090: 9433 163e 4176 fa3d 0be9 223e 1927 243e
000000a0: 6349 e33d bde6 053e 7e12 293e 7cf1 283e
000000b0: 8e67 1d3e f143 223e c5b0 2b3e e3be 063e
000000c0: 947c 163e 49b1 103e e691 0e3e d877 fc3d
000000d0: c629 d73d f8a8 0c3e 40d9 fc3d a4e1 ec3d
000000e0: 87ee 103e 4235 373e 8970 1a3e eb93 283e
000000f0: 6aa6 113e a42b 0e3e 5e96 fe3d 9874 0f3e

network.6.bias f4 [64]
0.0020842764 0.01622186 0.028850194 -0.0067379638 -0.0008590591 -0.0029687206 0.021833636 0.0017016396
0.012675711 0.013607575 0.026583426 0.050952293 0.016681725 -0.0025172438 0.02759508 0.036434535
0.0038429843 0.036912117 -0.012557914 0.02525989 0.015493446 0.015999703 0.01565563 0.045997463
0.040889397 0.00016014326 0.004863001 0.033063624 -0.0032213128 0.033209153 0.041065075 0.03381825
0.021592455 0.052557763 0.037142582 0.021612318 0.049558714 -0.014245573 0.02589335 0.032471232
-0.01101424 -0.008742714 0.015628662 0.035942018 0.022104673 0.013195799 0.027849795 0.0056782644
-0.018629706 0.048958044 0.029640017 0.012245216 0.0032572974 0.020132486 -0.0384341 0.029836645
0.024754142 0.05077206 0.054288022 0.032110844 0.02925183 0.013582086 0.0158147 0.01523831
00000000: 5b98 083b b5e3 843c 3e57 ec3c 23ca dcbb
00000010: 7b32 61ba de8e 42bb 74dc b23c 8d09 df3a
00000020: c9ad 4f3c 4ef2 5e3c 7cc5 d93c 5ab3 503d
00000030: 1da8 883c 58f8 24bb 140f e23c 613c 153d
00000040: 94da 7b3b 2931 173d b5bf 4dbc d4ed ce3c
00000050: 39d8 7d3c cf11 833c 3c40 803c d667 3c3d
00000060: a47b 273d 21ec 2739 cf59 9f3b b96d 073d
00000070: a91c 53bb 5206 083d da33 283d 0185 0a3d
00000080: a9e2 b03c cf46 573d d222 183d 510c b13c
00000090: 14fe 4a3d 4466 69bc 4a1e d43c 8e00 053d
000000a0: 1275 34bc 9a3d 0fbc ae07 803c f037 133d
000000b0: dc14 b53c 3133 583c 4125 e43c bc10 ba3b
000000c0: 539d 98bc 3b88 483d 9fcf f23c 29a0 483c
000000d0: 6278 553b e2ec a43c 136d 1dbd fb6b f43c
000000e0: 33c9 ca3c 5df6 4f3d 1e5d 5e3d a986 033d
000000f0: 89a1 ef3c 6687 5e3c d48d 813c 1baa 793c

network.6.running_mean f4 [64]
0.016102517 0.049353987 0.018043038 0.016714234 0.023424648 0.034223974 0.008622338 0.04056844
0.013555946 0.019951101 0.011770386 0.013734618 0.014922594 0.029375685 0.030224059 0.027552126
0.013435449 0.015787665 0.033136196 0.01595444 0.045634635 0.025867717 0.011829009 0.020204458
0.014665668 0.010062674 0.038226023 0.03202122 0.01815034 0.03460488 0.037039895 0.02203704
0.022441821 0.03923324 0.022511054 0.026360562 0.03870941 0.013469253 0.010962084 0.02189039
0.016038947 0.018754411 0.022748828 0.04260082 0.021978302 0.0089720655 0.002742013 0.031053571
0.018257113 0.0338233 0.022667691 0.032167714 0.020025395 0.020652588 0.030873558 0.0345654
0.024997156 0.01788805 0.034593858 0.0040079243 0.025092158 0.015515592 0.024636718 0.009738827
00000000: 6de9 833c 6827 4a3d fece 933c 4aec 883c
00000010: 0ce5 bf3c 702e 0c3d b544 0d3c 182b 263d
00000020: c219 5e3c 7e70 a33c 94d8 403c 2a07 613c
00000030: e57d 743c 47a5 f03c 7298 f73c ffb4 e13c
00000040: 5c20 5c3c 2255 813c d2b9 073d e3b2 823c
00000050: 62eb 3a3d 89e8 d33c 76ce 413c d283 a53c
00000060: 4548 703c eadd 243c e492 1c3d af28 033d
00000070: 06b0 943c d9bd 0d3d 25b7 173d 0687 b43c
00000080: e9d7 b73c 09b3 203d 1a69 b83c 1bf2 d73c
00000090: c28d 1e3d 24ae 5c3c 509a 333c 7a53 b33c
000000a0: 1c64 833c daa2 993c c05b ba3c 337e 2e3d
000000b0: d70b b43c 92ff 123c 58b3 333b 0f64 fe3c
000000c0: f18f 953c 4d8a 0a3d 98b1 b93c 4bc2 033d
000000d0: 4c0c a43c 9e2f a93c 8bea fc3c 7394 0d3d
000000e0: d6c6 cc3c f689 923c 4ab2 0d3d e854 833b
000000f0: 128e cd3c 1c35 7e3c f1d2 c93c 9a8f 1f3c

network.6.running_var f4 [64]
0.0015149346 0.0048393025 0.001104894 0.0009622607 0.0015691548 0.0019075577 0.00055876793 0.0028629096
0.00089048827 0.001271167 0.0006634492 0.0007210001 0.0012740183 0.0016167392 0.0021929753 0.001949616
0.00066676136 0.0012472135 0.0023824077 0.001022744 0.0036474853 0.001213111 0.0008271895 0.0010216195
0.0010890706 0.0005898936 0.0030331896 0.0036298619 0.0014148636 0.0048692 0.0034436812 0.0017358736
0.0021954481 0.0025231675 0.0016113266 0.0022466218 0.0032109008 0.00064164645 0.0006793537 0.0012553863
0.00084039196 0.001206922 0.0013369953 0.0038252887 0.0035993208 0.0004104183 0.000109719695 0.0022494402
0.0012637447 0.0047416845 0.0023728185 0.001982028 0.001272046 0.001478862 0.0021777805 0.0027513811
0.0017962871 0.0012094942 0.0039056845 0.00014043198 0.0019835245 0.0009647544 0.0018922294 0.0006478611
00000000: c590 c63a 0393 9e3b 17d2 903a 3940 7c3a
00000010: 19ac cd3a 0407 fa3a 487a 123a a79f 3b3b
00000020: a86f 693a 499d a63a 52eb 2d3a 7f01 3d3a
00000030: f6fc a63a c4e8 d33a 05b8 0f3b 428a ff3a
00000040: 99c9 2e3a 8a79 a33a 2b22 1c3b 980d 863a
00000050: a60a 6f3b 4001 9f3a bfd7 583a dde7 853a
00000060: 25bf 8e3a 17a3 1a3a 7ac8 463b fae2 6d3b
00000070: f272 b93a cf8d 9f3b 62af 613b 4186 e33a
00000080: 82e1 0f3b ba5b 253b 2633 d33a 0f3c 133b
00000090: fa6d 523b 2a34 283a a816 323a c68b a43a
000000a0: c04d 5c3a 9531 9e3a 1e3e af3a b2b1 7a3b
000000b0: 95e2 6b3b 692d d739 5019 e638 586b 133b
000000c0: 3ca4 a53a 2260 9b3b 4a81 1b3b e9e4 013b
000000d0: c8ba a63a 60d6 c13a 18b9 0e3b 8450 343b
000000e0: 6571 eb3a e487 9e3a 83f6 7f3b ec40 1339
000000f0: 05fe 013b 92e7 7c3a af04 f83a 39d5 293a

network.8.weight f4 [32, 64]
-0.05184118 0.003240497 -0.013370421 0.023012808 0.030494913 -0.036135335 0.020310534 0.0018417551
0.032760803 -0.018792188 -0.052339982 0.0029699898 0.012113841 0.060515676 -0.027858287 0.0069789905
-0.03719685 0.04537787 0.036212187 -0.008689772 -0.026792498 0.068698 0.049498823 -0.035258923
-0.019873329 -0.01901452 -0.0003264785 0.092300825 0.046080448 -0.057004403 -0.042774916 -0.033541072
-0.0013571631 0.031240184 0.028187865 0.0053895465 -0.019482711 0.03248309 -0.037784312 -0.06410126
0.02498817 -0.010717844 -0.0034045298 -0.015933298 -0.120081805 -0.05725492 -0.09218598 0.0015497569
0.029733503 0.0034566217 -0.00595588 -0.038109187 -0.004535781 0.06546983 0.026399583 -0.03778194
-0.037605427 -0.13047618 0.011812177 -0.027558789 0.028906928 0.08986057 0.015443039 -0.04612776
-0.030186202 -0.038126808 -0.002766491 0.060237028 -0.010732017 0.05234454 -0.08474428 0.057052284
-0.0057501975 0.038764726 0.030462982 -0.008158453 -0.036126148 -0.050870273 0.01794599 -0.11501469
-0.005319164 0.010649215 0.02234371 -0.029456194 -0.038451247 -0.018821292 0.014745586 0.017066818
-0.038644183 0.022689179 -0.07439141 -0.07307639 0.021158636 -0.046456736 0.0052596647 -0.0042181998
0.032485064 0.015309721 -0.075115584 0.032668985 -0.040221572 -1.754547e-05 0.055649612 0.03525566
0.00118292 0.030538153 0.10607254 -0.034448747 -0.034384932 0.011406622 0.0101065505 0.04526259
-0.033731144 -0.025234288 -0.039786793 0.0076690842 -0.01293595 -0.0143372305 -0.055814166 0.016490981
-0.05927735 -0.008281777 -6.9054724e-05 0.011196401 -0.033449776 -0.022703424 0.003995159 0.03841679
0.006421813 -0.024827115 -0.041688398 -0.07492127 -0.02747079 0.021352125 -0.027920898 0.046892636
-0.0040639746 -0.0068599763 0.0034848554 -0.007743556 -0.013844544 -0.042721145 -0.015331058 -0.10938251
-0.010146209 0.0043707336 -0.043054756 -0.079525866 0.0183871 -0.056751307 -0.015693514 -0.025147904
-0.0067549907 -0.015872864 -0.0243998 -0.048726343 -0.07718208 -0.011433572 0.026839726 -0.029471558
0.0022487757 -0.044462766 -0.050807755 -0.047480997 -0.021029327 -0.027773703 0.0023285702 -0.00638597
0.0010921031 -0.0010115005 -0.027897071 -0.005782053 -0.016531201 -0.0065368833 0.03898425 -0.024768963
-0.049743988 0.013108245 -0.028066171 0.029648313 0.009557369 0.02335527 -0.06399486 0.037162177
-0.07459026 0.0076172766 0.001284806 -0.07513269 -0.13353209 0.0043392517 0.0056908154 0.005418919
-0.0011896054 0.04620834 -0.0106669795 0.06422451 -0.023736855 -8.855399e-05 -0.028649928 0.0777399
0.040196367 -0.05284163 0.05278942 0.051486753 0.03267977 -0.02172074 -0.008984428 -0.11033334
-0.014873232 0.043718815 -0.013308263 -0.040146522 0.0033656976 -0.043657687 0.022280278 -0.025788585
-0.032477424 -0.038762935 -0.035264693 1.2450331e-05 0.023659773 -0.0151812155 0.039661337 0.03918712
0.011370751 0.00090872153 -0.02483986 0.025049485 -0.043218892 -0.037239354 -0.054705646 0.012760625
-0.017962432 0.021350943 -0.0073259026 0.014522241 -0.042680394 -0.10460913 0.03313726 0.06691151
0.025700528 -0.004613581 -0.0216601 0.01790369 0.062408153 0.080675006 -0.0048836772 0.024952678
-0.0992431 -0.008196446 0.015770355 0.006732657 -0.084433824 0.044685297 -0.04630703 -0.058561783
00000000: 6b57 54bd 855e 543b 9c0f 5bbc 5b85 bc3c
00000010: 78d0 f93c a502 14bd 4762 a63c 0c67 f13a
00000020: 3130 063d 13f2 99bc 7362 56bd 29a4 423b
00000030: 2279 463c 49df 773d 1037 e4bc 04b0 e43b
00000040: b95b 18bd 25de 393d 3b53 143d 8c5f 0ebc
00000050: f17b dbbc 89b1 8c3d 47bf 4a3d a96b 10bd
00000060: 64cd a2bc 57c4 9bbc 342b abb9 3708 bd3d
00000070: dabe 3c3d 737d 69bd c034 2fbd 5d62 09bd
00000080: d6e2 b1ba 6aeb ff3c 3dea e63c cb9a b03b
00000090: 359a 9fbc fd0c 053d b9c3 1abd 8547 83bd
000000a0: feb3 cc3c e599 2fbc 881e 5fbb 8c86 82bc
000000b0: 73ed f5bd 2384 6abd 01cc bcbd 3621 cb3a
000000c0: ad93 f33c 7d88 623b 8b29 c3bb 6118 1cbd
000000d0: e4a0 94bb 0c15 863d f043 d83c 3cc1 1abd
000000e0: 2608 1abd 8c9b 05be dc87 413c f8c2 e1bc
000000f0: 39ce ec3c d208 b83d cd04 7d3c 76f0 3cbd
00000100: 0e49 f7bc db2a 1cbd 044e 35bb 1abb 763d
00000110: 58d5 2fbc 3a67 563d 698e adbd a8af 693d
00000120: 276c bcbb c3c7 1e3d 818d f93c 08ab 05bc
00000130: 03f9 13bd 595d 50bd 7803 933c d28c ebbd
00000140: 624c aebb 0c7a 2e3c 280a b73c 1e4e f1bc
00000150: 0e7f 1dbd 1c2f 9abc 7897 713c b6cf 8b3c
00000160: 5d49 1ebd a8de b93c 865a 98bd 13a9 95bd
00000170: e054 ad3c 6b49 3ebd 4459 ac3b d338 8abb
00000180: 0f0f 053d a0d5 7a3c 33d6 99bd eacf 053d
00000190: 60bf 24bd 9c2e 93b7 d9f0 633d 3d68 103d
000001a0: 350c 9b3a 262b fa3c 8f3c d93d 211a 0dbd
000001b0: 37d7 0cbd d7e2 3a3c f295 253c 4465 393d
000001c0: ab29 0abd 23b8 cebc 7af7 22bd f14c fb3b
000001d0: 4ff1 53bc b4e6 6abc 659d 64bd 1818 873c
000001e0: cecc 72bd 4ab0 07bc 79d1 90b8 1c71 373c
000001f0: a202 09bd 88fc b9bc d3e9 823b ed5a 1d3d
00000200: 126e d23b 3c62 cbbc 74c1 2abd 5370 99bd
00000210: 6c0a e1bc a7ea ae3c 5eba e4bc 7e12 403d
00000220: 172b 85bb a7c9 e0bb 2c62 643b a8bd fdbb
00000230: 3ad4 62bc 5efc 2ebd 1e2f 7bbc f003 e0bd
00000240: 493c 26bc 5f38 8f3b 2f5a 30bd 75de a2bd
00000250: 8ba0 963c 0f74 68bd af8f 80bc fa02 cebc
00000260: f858 ddbb cf07 82bc 17e2 c7bc 4695 47bd
00000270: a311 9ebd e053 3bbc fcde db3c 566e f1bc
00000280: 3260 133b 971e 36bd cb1b 50bd 6f7b 42bd
00000290: b245 acbc ad85 e3bc ed9a 183b 6641 d1bb
000002a0: e624 8f3a 5394 84ba 6688 e4bc 6077 bdbb
000002b0: 716c 87bc 5a33 d6bb f3ad 1f3d 48e8 cabc
000002c0: 5ac0 4bbd f7c3 563c 07eb e5bc 05e1 f23c
000002d0: 8396 1c3c 8d53 bf3c bd0f 83bd 5e37 183d
000002e0: c7c2 98bd 599a f93b f066 a83a 2bdf 99bd
000002f0: a3bc 08be 4830 8e3b 057a ba3b 3091 b13b
00000300: 89ec 9bba f544 3d3d 8ec4 2ebc 2488 833d
00000310: cb73 c2bc 10b6 b9b8 41b3 eabc 1936 9f3d
00000320: f2a4 243d 7770 58bd b839 583d c6e3 523d
00000330: 39db 053d b1ef b1bc 6c33 13bc 72f6 e1bd
00000340: dbae 73bc 8012 333d e70a 5abc ae70 24bd
00000350: 0993 5c3b 67d2 32bd 2185 b63c 9542 d3bc
00000360: 0c07 05bd e2c5 1ebd b671 10bd c4e1 5037
00000370: 24d2 c13c a2ba 78bc ed73 223d ac82 203d
00000380: 634c 3a3c 4537 6e3a f67c cbbc 9434 cd3c
00000390: 4b06 31bd 4b88 18bd 0713 60bd f111 513c
000003a0: f325 93bc 2ce8 ae3c 200e f0bb b2ee 6d3c
000003b0: a3d1 2ebd 503d d6bd efba 073d e708 893d
000003c0: ea89 d23c 862d 97bb 8670 b1bc c2aa 923c
000003d0: b19f 7f3d f038 a53d 4107 a0bb 8f69 cc3c
000003e0: f73f cbbd 634a 06bc d530 813c 9f9d dc3b
000003f0: a4eb acbd ee07 373d 71ac 3dbd 7bde 6fbd

network.8.bias f4 [32]
0.029667186 0.06771905 0.021770889 0.07517339 0.041487634 0.07297343 0.06849527 0.03701608
0.03449168 0.050530832 0.026051722 0.015493675 0.026854217 0.044141937 0.048204057 0.0097594755
0.046863735 0.04807547 0.01274406 0.063500725 0.07481611 0.030375164 0.03271732 0.07475144
0.01475094 0.043925058 0.0342636 0.05003571 0.06508709 0.03658992 0.084200084 0.050208166
00000000: 9908 f33c 49b0 8a3d dd58 b23c 82f4 993d
00000010: f0ee 293d 1873 953d 4047 8c3d 2c9e 173d
00000020: 2647 0d3d 6bf9 4e3d 6c6a d53c 2fd9 7d3c
00000030: 60fd db3c 2dce 343d 9e71 453d 35e6 1f3c
00000040: 30f4 3f3d c9ea 443d 76cc 503c ab0c 823d
00000050: 3039 993d 56d5 f83c 9902 063d 4817 993d
00000060: edad 713c c3ea 333d fd57 0c3d 3ff2 4c3d
00000070: 614c 853d 50df 153d 1871 ac3d 14a7 4d3d

network.10.weight f4 [32]
0.6868262 0.70527554 0.79586357 0.7697744 0.6684398 0.7979698 0.78233826 0.95568365
0.8928919 0.83470005 0.74566185 0.82102096 0.9067106 0.8495315 0.8753373 0.5756978
0.82772654 0.92278045 0.9137906 0.9234485 0.86309105 0.7044001 0.8633185 0.76441526
0.9029258 0.7087376 0.7734651 0.9052985 0.73846155 0.8347028 0.80096674 0.7854167
00000000: d8d3 2f3f f08c 343f b7bd 4b3f ef0f 453f
00000010: df1e 2b3f c047 4c3f 5247 483f afa7 743f
00000020: 9094 643f e7ae 553f b2e3 3e3f 6e2e 523f
00000030: 301e 683f e57a 593f 1b16 603f ee60 133f
00000040: e3e5 533f 573b 6c3f 2eee 693f 1f67 6c3f
00000050: 89f3 5c3f 9153 343f 7102 5d3f b8b0 433f
00000060: 2526 673f d46f 353f cf01 463f a4c1 673f
00000070: d10b 3d3f 15af 553f 280c 4d3f 1211 493f

network.10.bias f4 [32]
0.23607536 0.03556846 0.14806867 0.041875523 0.18868954 0.048677675 -0.0258693 -0.09451442
-0.098278314 -0.054599207 0.19426064 0.08656909 -0.008847176 0.013984451 -0.060456853 0.081911184
-0.14312193 -0.05814765 0.108410865 -0.13555868 -0.00011621955 0.25502428 -0.006425506 0.014852062
0.031851042 0.20301984 -0.12741527 0.061113432 -0.03748543 -0.008828815 -0.025981955 0.061050776
00000000: bdbd 713e 3cb0 113d 509f 173e ab85 2b3d
00000010: d537 413e 3e62 473d dbeb d3bc c790 c1bd
00000020: 2446 c9bd 6ba3 5fbd 43ec 463e 234b b13d
00000030: bff3 10bc 0a1f 653c 9ba1 77bd 0dc1 a73d
00000040: 8e8e 12be 3b2c 6ebd 8406 de3d e5cf 0abe
00000050: e5ba f3b8 8b92 823e 0d8d d2bb 1056 733c
00000060: 3d76 023d 6fe4 4f3e 2679 02be 1452 7a3d
00000070: 528a 19bd bca6 10bc 1cd8 d4bc 6110 7a3d

network.10.running_mean f4 [32]
0.04514566 0.07253089 0.03634136 0.08024437 0.065271825 0.08353865 0.068436705 0.042964023
0.040036183 0.048203412 0.039880812 0.030779483 0.03865937 0.053404015 0.047161724 0.022575404
0.053442195 0.05791552 0.030296467 0.05841913 0.09016664 0.044143565 0.044659972 0.07639518
0.037626162 0.06986363 0.04903841 0.054899294 0.070216835 0.041117847 0.07864856 0.060242876
00000000: a8ea 383d 138b 943d aeda 143d 2957 a43d
00000010: 3cad 853d 5016 ab3d 8b28 8c3d 0bfb 2f3d
00000020: fbfc 233d f170 453d 105a 233d 4125 fc3c
00000030: 4a59 1e3d 2bbe 5a3d a72c 413d 0ef0 b83c
00000040: 34e6 5a3d d338 6d3d 4c30 f83c e648 6f3d
00000050: 4aa9 b83d e2cf 343d 60ed 363d 1375 9c3d
00000060: e41d 1a3d aa14 8f3d 80dc 483d 15de 603d
00000070: d8cd 8f3d 306b 283d 7f12 a13d 3cc1 763d

network.10.running_var f4 [32]
0.0029662207 0.0049637877 0.0022509317 0.0062521645 0.0052863383 0.006135009 0.006227397 0.0033271348
0.0027736768 0.0027096248 0.0022199657 0.0018324904 0.0027195946 0.0030118667 0.0026303967 0.0012405656
0.004324292 0.0032477994 0.0017971214 0.00454108 0.0065510864 0.0037901322 0.002405264 0.005776192
0.0027943153 0.005194559 0.0030812835 0.0033456055 0.0051034796 0.0020343228 0.0052662017 0.003895891
00000000: ed64 423b 45a7 a23b 5e84 133b f5de cc3b
00000010: 0539 ad3b 3008 c93b 310f cc3b 0f0c 5a3b
00000020: 93c6 353b f693 313b d87c 113b 2d30 f03a
00000030: 3a3b 323b bd62 453b bc62 2c3b 799a a23a
00000040: cab2 8d3b 08d9 543b 638d eb3a 57cd 943b
00000050: 7faa d63b de63 783b a2a1 1d3b 3646 bd3b
00000060: d520 373b 1f37 aa3b 5cef 493b f241 5b3b
00000070: 173b a73b 4652 053b 1a90 ac3b 3452 7f3b
