models/NB_best_mlp_multiclass_20250911_120415.pth (torch, 82357 bytes, 21 tensors)

network.0.weight f4 [128, 48]
00000000: afcd 163b 1224 80bb 02ee c03b fcd4 2c3c
00000010: c0fc e9bb 27f7 d5ba a405 d8bb dd6d e73c
00000020: e72f 1e3b b250 75bc bf98 7fbc a962 17bc
00000030: 63d5 f23b ed59 2fbc cfb1 aebc 5512 96bb
00000040: 12f7 38bc 2285 66bb aaa6 a3bc 6e44 883b
00000050: 51b5 95bb dcd5 d2bb 78f1 83bc 6538 db3c
00000060: 0feb 0c3c 8e62 3aba f45b ae3c 0878 0e3d
00000070: b28b 223c 105f cfbb 0f75 45bb 511a ba3c
00000080: ca6a f6ba ab43 023b ff36 523b a7bb 373c
00000090: 7b15 c3ba f2c0 683c 2b2c edbb 070f 29bc
000000a0: 9842 9b3c e053 ca3c 3724 c43c 6203 a23c
000000b0: 159d a1bc 2dda 84bc 17fc 15bc 6a7f 55bb
000000c0: c8c4 2a3c 8689 cdbb 29c4 1c3c 1156 e9ba
000000d0: d2dd 6cbc 7199 683a 20cf 523c a6d7 383c
000000e0: b950 fdb9 160f b0bc 476d ddbb 6d6f c2bc
000000f0: dad5 c53b f938 5ebb 8feb 18b9 8819 77bc
00000100: 942d 1dbb 06b6 f7bb 2a3c f7b9 7ee1 a5bc
00000110: 1c92 c139 1e74 243a 71d7 26ba 564a 613c
00000120: 2b1c 01bc 3339 b9bb abd1 2d3c 97be 243c
00000130: 6204 f03b ec4c bebb 0496 a9ba 80e8 693c
00000140: bc4e 54bc 3727 cb3a 2393 8ebb 09c5 253b
00000150: b790 b3bb 689b 14bb ce6f 47bb 0df4 d03c
00000160: 4554 09bc a7b9 b93b 488a 633b 3d0b c8ba
00000170: a78d 0bbc 6684 c3bb 7b8e d2bc b424 ee3c
00000180: d788 7fbb 0c3c debb 7f51 80bb 1c9d a7bc
00000190: da90 8fbd 6f04 6cbd d015 51bd b337 903c
000001a0: f2fa 3abc dc67 50bd 02ce 7e3a 7234 2abd
000001b0: 93cf 68bc a175 32bc d7ce cdbd 46b2 9bbd
000001c0: 965b 50bc e569 39bd 3f55 8cbd e29f 583d
000001d0: eaa1 8bbb 593c 66bc e7ac e6bb e3eb 563c
000001e0: 2e34 e73b c4d0 ebbc 1a7f 8b3c c9c8 1e3b
000001f0: c9c3 a23b 0e79 3dbc f178 553b 64e0 f53c
00000200: d081 8a3b c854 34bd c610 0cbd 0366 0ebc
00000210: a5ba 74bd d76a 363c 3be0 1abe 9f38 27bc
00000220: a7bd 54bd 6ac0 89bd fcc5 4abd 07cf 2abb
00000230: 636e e1bc 3a8c b3bc 1d16 72bc 874b b13b
00000240: 12f9 15bc cd54 4abb ff77 363c 2677 8fbb
00000250: 2c20 a3bb 5c5e ed3a 8ab2 703a 0f84 0e3c
00000260: 2d85 95ba ef6c b9bb 4c1f 463b 8054 c8ba
00000270: 0fb6 973b 38d1 953a c9e8 843b 7e43 78bb
00000280: 4e45 243a 9c45 eeba 3653 903b fbb8 28bc
00000290: 1844 8c3a 8cb2 00bb c16d f83b d343 89bb
000002a0: b799 98ba 64e8 46bb d8f1 093b 0499 a9bb
000002b0: 7df8 4d3c 0d77 bcba 4d4e c63b d0a6 023b
000002c0: 67e2 e5bb 296f a73a 89b3 a3bb 5643 15ba
000002d0: 18ba 5bbb 233f 28bb 5f50 3f3b 58e9 103c
000002e0: 88a1 d43b 4b68 003b 3d2a 0e3b a242 38bb
000002f0: b10a 28bc f87d 15bc 0f99 16bc 8c1c 473c
00000300: 8721 9dbc 54b6 163b cdf8 1e3d c5ef 8a3b
00000310: 4599 bebc 16fb 27bd fc21 7b3c 7606 28bd
00000320: c911 493c 4ff5 63bd 1b63 c7bc 82b2 38bb
00000330: b09e da3c 2f99 c5b9 20d8 ff3c e6f2 17bd
00000340: 3ced debb 2e40 02bb c88e e4bc fc02 46bc
00000350: 0db3 74bb 6ddb 0c3c 079a c1bc e37d 82bc
00000360: f8d7 11bc 9e6a 35bb 5d5a 86bd 1cfe e6bc
00000370: 44c7 e9bc 5ae9 9ebc 03df f53c a377 82bd
00000380: c650 973d 3059 51bd 7122 fb3b 7d62 203b
00000390: 3542 f9ba ed9e 06bc 7a7e d83c 1a8b 663d
000003a0: 690e 07bd 1071 9b3d ad74 443d 3706 50bd
000003b0: 1272 b53a 59e8 0cbc f2df 44bc 69fe 1fbc
000003c0: 07e6 653c 30ca 063c 335e bfbb c17d 343a
000003d0: 8f0f fb3b 31b9 e83b c877 9d3b bc0a 3f3a
000003e0: 0e15 e63b b1ae 423c 2428 2e3c c55a 873b
000003f0: 35cc 23bb 0703 b33b bc6c 51bb 838e 593a
0.002301078 -0.00391055 0.0058877477 0.010548826 -0.007140726 -0.0016324267 -0.0065924693 0.02825063
0.0024137439 -0.014972853 -0.015600382 -0.009239831 0.0074106916 -0.010702592 -0.02132502 -0.004579822
-0.011289375 -0.0035174568 -0.019976933 0.004158548 -0.0045687337 -0.0064341854 -0.016106352 0.02676029
0.008600964 -0.00071100227 0.021284081 0.03478244 0.009921001 -0.006328471 -0.0030129587 0.022717627
-0.0018800136 0.001987676 0.0032076237 0.011214173 -0.0014883721 0.014206158 -0.0072379312 -0.010318524
0.018952653 0.024698198 0.02394305 0.019777004 -0.019728223 -0.016217316 -0.009154341 -0.0032577165
0.010422893 -0.0062724976 0.009568253 -0.0017802139 -0.014457183 0.0008872962 0.012866765 0.011281883
-0.00048316063 -0.021491569 -0.0067574116 -0.023734773 0.006037456 -0.003390847 -0.00014583602 -0.015081771
-0.0023983466 -0.0075595407 -0.00047156337 -0.020249125 0.0003692069 0.00062734063 -0.0006364501 0.013750633
-0.007880251 -0.0056525706 0.010609071 0.010055206 0.007324741 -0.0058075096 -0.0012938385 0.014276624
-0.012958225 0.0015499358 -0.004351036 0.0025294444 -0.005479898 -0.0022675637 -0.003043163 0.025506997
-0.008381908 0.0056678834 0.0034719873 -0.0015262138 -0.008517659 -0.005966711 -0.025702706 0.029070236
-0.0038991475 -0.0067820605 -0.003915965 -0.020460658 -0.0701005 -0.057621416 -0.051046193 0.017604684
-0.011412369 -0.050880298 0.00097200286 -0.041553922 -0.014209646 -0.010892303 -0.10049217 -0.07602362
-0.012717148 -0.045267005 -0.06852197 0.05288685 -0.004261245 -0.014052474 -0.0070396545 0.013117763
0.007055781 -0.02878607 0.01702838 0.0024228564 0.004967187 -0.011564506 0.0032573307 0.030014224
0.0042269006 -0.044026166 -0.034195684 -0.008691314 -0.05974831 0.011133871 -0.151246 -0.010206371
-0.05193868 -0.06726153 -0.04950522 -0.002606334 -0.027518457 -0.021917451 -0.01477578 0.005410615
-0.009153621 -0.00308733 0.011137008 -0.0043782173 -0.0049782004 0.0018109786 0.0009181878 0.008698477
-0.0011407487 -0.005658738 0.0030231057 -0.0015283972 0.0046298574 0.001143015 0.0040560705 -0.0037882025
0.0006266431 -0.0018178704 0.0044044508 -0.010298009 0.0010701446 -0.0019637672 0.007581443 -0.0041889935
-0.001164249 -0.0030350918 0.002104869 -0.0051757116 0.012571451 -0.0014378742 0.0060518146 0.0019935854
-0.0070155147 0.0012774217 -0.0049957675 -0.0005693933 -0.0033527669 -0.0025672398 0.0029192192 0.008844696
0.0064889826 0.0019593413 0.0021692656 -0.0028115888 -0.010256455 -0.009124272 -0.009191765 0.012152802
-0.019181026 0.002299686 0.038811494 0.0042400085 -0.023266444 -0.04101094 0.015327927 -0.041021787
0.012272307 -0.055653866 -0.02433925 -0.002818257 0.026686996 -0.000376889 0.031230986 -0.03709688
-0.006803183 -0.001987468 -0.027900115 -0.0120856725 -0.0037338168 0.008597237 -0.023633016 -0.015929168
-0.008901589 -0.0027681957 -0.06560204 -0.02819734 -0.0285374 -0.01939838 0.030013567 -0.06370475
0.07388453 -0.051110446 0.007664018 0.0024472766 -0.0019016924 -0.008216602 0.026427496 0.056285
-0.032972727 0.07589924 0.047962833 -0.050787177 0.00138432 -0.008600318 -0.012016283 -0.009765246
0.014031894 0.008226916 -0.005840087 0.0006885194 0.007661767 0.0071021547 0.004805539 0.00072876713
0.007021553 0.01188247 0.010629687 0.0041306936 -0.0024993543 0.0054630074 -0.003195568 0.0008299129

network.0.bias f4 [128]
00000000: 716c a7bc 4fed be3a cb3e 47bd a3f2 113c
00000010: 2c99 b03c 719d bf3a 6988 0f3d 97f8 43bc
00000020: cbfa 88bb afc8 57bb 904f 003a fd9f 79bb
00000030: 1e44 d43c 3719 abba 2e9c fbba 888a d23a
00000040: c850 90bb 5107 a3ba 25f6 adba 73e9 15bb
00000050: 97f2 c0bb 541f 48bc fc33 ff3a 031c 103a
00000060: 0a82 f4ba 90e2 813c 4219 233c f86e 00bb
00000070: a681 a2bc 5a9f 6bbb 9165 c1bb 8320 33bc
00000080: 2d23 d53a 335f 24bb 7c43 c23a 5c43 6a3b
00000090: bcdc 65bc 00b6 9d3b 259a 34bb f0fa bbb9
000000a0: de73 ab3c 53e5 013c 13ae 053c 4636 9ebc
000000b0: fca5 03bc 300b 483c b6f9 a23d e2a0 2a3d
000000c0: 9a2f 433b 00a6 d0bb 1d86 09bc 55ea 7abc
000000d0: 3575 ee3d c54d d93a 7c13 063d f120 86ba
000000e0: 6806 4db9 2b42 05b9 4b42 47ba d003 14be
000000f0: 620b 1b3c ddd3 813c 521c dabc a931 4fbb
00000100: 7a03 23bc 3c51 003c a2b9 21bd 27cd 313c
00000110: b1d4 52bb 66c3 613d 519d 193c 8f61 92bb
00000120: cebf ab3b 9c53 e93b 3e6e a0ba accd 863a
00000130: df5a bd3b 9e81 743d ed45 84bb f41b 89bb
00000140: d241 eb3b e742 bf3c 0be6 febd 963a 51bc
00000150: 4370 fabb 1922 bdbd 824b adba 7f7a 32bc
00000160: 78f9 96bc 95fc 223d 7060 4ebb 8b38 6b3d
00000170: b0be e4bd 31a3 493d 6a5e 803d 4372 97bd
00000180: ac7b 2c3b f29e 443c d523 bc3b fc7f 6b3b
00000190: cce8 133c 0b5f 5a3d 06c3 0e3b 55d5 f73d
000001a0: 632b cbbc cb9d 933d 930a 553d 7c14 6cb9
000001b0: d301 1b3c 6618 fabb 0827 90bb df54 21bc
000001c0: c56e 693b be2c d8bd 3a00 0dbc 30c4 c53b
000001d0: d718 f9bb 35d5 2b3c b8b8 a4bc 28e8 f7ba
000001e0: 9287 b8ba 5e3b f339 31c0 063a dec3 963d
000001f0: cb54 673d 2307 c53c 4de7 d3bc fb9f aeb9
-0.020437451 0.0014566573 -0.04864387 0.008907947 0.021557413 0.0014619065 0.0350422 -0.011961124
-0.0041802875 -0.0032926013 0.0004894668 -0.0038089745 0.025911387 -0.0013053779 -0.0019196325 0.0016063014
-0.004404161 -0.0012438094 -0.0013272209 -0.0022874742 -0.005888294 -0.0122145 0.0019470449 0.0005497338
-0.0018654477 0.015855104 0.009954752 -0.0019597393 -0.019837212 -0.0035953135 -0.0059020002 -0.010933044
0.0016261094 -0.0025081157 0.0014821137 0.0035745716 -0.014029678 0.004812956 -0.0027557698 -0.00035854382
0.020929273 0.00792821 0.008159178 -0.019312989 -0.008035179 0.012209699 0.07957785 0.041657336
0.0029783011 -0.006367445 -0.0083937915 -0.015314658 0.11643449 0.0016578963 0.032733425 -0.0010233206
-0.0001955271 -0.00012708518 -0.0007601126 -0.1445458 0.009463163 0.015848095 -0.026624832 -0.0031615293
-0.009949559 0.007831868 -0.039483674 0.010852135 -0.003217023 0.055117987 0.009375886 -0.0044671963
0.0052413708 0.0071205627 -0.0012239886 0.0010284684 0.005778655 0.059693925 -0.004036656 -0.0041842405
0.0071794773 0.023347331 -0.12446221 -0.012770316 -0.007642777 -0.09235019 -0.0013221356 -0.010893463
-0.018429503 0.039791662 -0.0031490587 0.05742697 -0.11169183 0.049227897 0.06268008 -0.073948406
0.0026318831 0.012000786 0.005741576 0.003593444 0.009027671 0.053313296 0.0021783723 0.12101237
-0.024800962 0.07207831 0.052012037 -0.00022514345 0.009460884 -0.007632303 -0.004399184 -0.009846895
0.0035619002 -0.10555409 -0.008606011 0.0060353503 -0.007601838 0.010487844 -0.020107612 -0.0018913792
-0.0014078489 0.00046392804 0.0005140333 0.073615775 0.05647735 0.024051255 -0.025867129 -0.0003330706

network.2.weight f4 [128]
00000000: 7bd2 85bc 86a7 613a 2749 953d 02ea 0ab9
00000010: 6964 fe3d f112 4c3a b8c0 cd3d f325 093c
00000020: 8f5f 933c e13e 65bc 616f 283c c759 35bb
00000030: 68e7 633c b4c2 6f3b a35c c23a 2db0 03ba
00000040: b743 4fba f04d 183b 5e69 d6bc 392d b539
00000050: d696 bfbb 2543 a23b 8e1c e4ba 5ef3 693d
00000060: 3a0b 323c 2029 843c 87cc 5dbc 1400 3d3c
00000070: b525 b43d adc3 3dbc f743 5cbb 26bb 50bb
00000080: ce45 9f3b ee4c 403a 5cf0 1abb 8d9c e83b
00000090: da9d a2bb fedb 873c d19b 6abc 9eaf 40bc
000000a0: 3b4c 9238 2013 f53b 3d5d 5a3a f86a 8f3c
000000b0: 3f9b 06bb d060 b63c fa43 1d3e 0401 253d
000000c0: 3879 40bd f3e3 923d 5500 dc3b e2f8 5f3c
000000d0: 32f4 0e3e b471 0d3b cd65 5b3d 1fdc 5239
000000e0: 1f20 b63b 423e 5bbb 6a47 e1ba 9c57 063e
000000f0: 3428 30bb e774 013e 8e3b b43d 23fe 433c
00000100: 0e62 baba 8246 ab3b 6ed6 a23d 98a5 0c3b
00000110: 22bc efba a95e cc3d 29db 48bc 2693 1d39
00000120: 9b5a 78bc 3d1d 643c 88a4 0c3a 2a46 da3b
00000130: a561 6abc fdff e83d a2cd cdbb 99df bc3b
00000140: fbaf 853c 07a3 833d 0b04 1d3e dca3 e33b
00000150: dd22 233c 8eee 133e 653d cbbb fbaf 85bb
00000160: 346d 70bc 618e 8c3d 965c a73a e6d0 0dbe
00000170: fc9a 003e fa23 2a3d 30ee 053e fadd b33d
00000180: 3759 08bb aca2 43bc b942 b53d a323 18bc
00000190: 6471 333c cd85 d63d 2938 c3bc e576 2d3e
000001a0: fea4 6dbc 32b2 073e 1945 103e d2fe 083c
000001b0: 4afb 50bb b673 f73c 356f 73ba d497 a83b
000001c0: f40d 393c 49cc c03d f7e4 e13b 20d7 d73c
000001d0: c6cd ecbb 46ee 9a3c 0def d43d 0cee 6db7
000001e0: 3896 36bc 047d 60bb 76bf 87bc 767c 0f3e
000001f0: 0729 843d 7dfa 023e 24e8 8f3d 487e 7bbc
-0.016335716 0.0008608032 0.07289343 -0.0001324788 0.124214955 0.0007784805 0.10046524 0.008370864
0.017989902 -0.013992042 0.010280461 -0.002767192 0.013910152 0.0036584558 0.0014828633 -0.00050235057
-0.00079065136 0.0023239814 -0.02617329 0.00034556704 -0.0058468385 0.004951852 -0.001740353 0.05711686
0.010866934 0.016132891 -0.013537533 0.011535663 0.087962545 -0.011582297 -0.0033609846 -0.003184983
0.0048606163 0.0007335682 -0.00236418 0.0070987404 -0.004962665 0.016584393 -0.014319376 -0.01176062
6.9760215e-05 0.0074790865 0.00083299336 0.017507061 -0.0020539311 0.02226296 0.15357962 0.04028417
-0.046990603 0.07172384 0.006713907 0.013670178 0.1396034 0.0021582665 0.05356388 0.00020109162
0.0055580284 -0.0033453857 -0.0017187421 0.13119358 -0.0026879432 0.12642251 0.08800422 0.011962446
-0.0014219896 0.005226911 0.079510555 0.0021461006 -0.0018290321 0.099789925 -0.012259283 0.00015027504
-0.015158321 0.013922987 0.0005365093 0.0066611962 -0.014305507 0.11376951 -0.006280617 0.0057639596
0.016319266 0.064275794 0.15333574 0.006947024 0.0099570425 0.1444647 -0.006202387 -0.0040798164
-0.014674474 0.06863094 0.0012768682 -0.1384922 0.12559122 0.041538216 0.13079143 0.08782573
-0.002080513 -0.0119406395 0.08850617 -0.00928584 0.010952327 0.10474739 -0.02383049 0.16939886
-0.014504669 0.1325157 0.14088859 0.008361535 -0.0031888061 0.030206542 -0.00092862855 0.0051450524
0.011294831 0.09413964 0.00689375 0.026347697 -0.0072266785 0.018912446 0.10397158 -1.4181725e-05
-0.011144213 -0.0034254203 -0.016570788 0.14012322 0.06453138 0.12790866 0.07026699 -0.015349932

network.2.bias f4 [128]
00000000: cda2 4fbb 0047 ad3b 1c29 9abd ee6c 7fba
00000010: a95f 603d 0555 c33a 3747 a23d dd78 943b
00000020: 528a 8e3a 8647 c0bb 4491 0c3b a56b 80bb
00000030: 0d36 88bd 18f9 233b 8bf6 67ba 4e83 ebb7
00000040: c7a5 12ba ff37 39ba b809 a3bb 77e4 4a3a
00000050: 0b5f 12bb a974 90ba 4055 2c3b 354b 76bd
00000060: 870b c93b a728 48bb 111e b2bb 51aa 9e3a
00000070: bffc dcbd ff40 bfbb 0f7e 72bb c830 4d3c
00000080: 0921 a7ba 3597 4cbb 11a6 063b 7b25 9bbb
00000090: e237 be3b 7687 763c c282 be3a 1503 f4bb
000000a0: 4310 cabb 8b99 30bc 0497 69bb ff6c 533c
000000b0: a080 8db9 6464 4dbd 740b 103e 2d6c 9cbd
000000c0: 611f d33b a939 48bd 7072 8b3b 33b8 98bb
000000d0: 1360 053e 60eb 073b 8020 cebd 469b a5bb
000000e0: ccf4 3abb 5598 8c3b 633b 3f3b 8a9e d1bc
000000f0: 46b3 163b 7a76 a73d 963c 38bd 5bd1 d3ba
00000100: 866c b13b 7f8c 62bc a43f 5bbd b944 b83a
00000110: 0cbf feb9 5d96 b63d 4728 81bc 2e28 fbba
00000120: 4287 0c3c aa95 0abc 248c 8a3a 116c 1cbc
00000130: b799 84bc 02f1 ec3d cbef 8139 9961 e93b
00000140: ac19 23bb 0038 c2bd 212e 183d 9752 373a
00000150: 9c90 b2bb 06d7 c53c 7b1b 05bb 0ba4 b3b9
00000160: 45cc a7ba cc90 aebd 8a9d 58b9 3cfd b7bd
00000170: ce66 6fbc 9ab7 cfbd c837 193e f88d 8d3a
00000180: 1dc0 153a c7d3 79ba a6df 39bd 4278 a8ba
00000190: 6066 02bc f5c3 df3d a52d 3d3c 79f5 1a3e
000001a0: 0d78 343c 8029 103e 387a 133e 689d 27bc
000001b0: 7428 28bc a0e7 d03b 01a9 da3a a54b 233b
000001c0: e448 5abc 2cc1 65bd e182 ba3b 69ef b03b
000001d0: 5600 c3bb 2636 91bc 56df fe3c fd21 763b
000001e0: b3a2 f13a cb86 41ba 4fc7 6abc 9af5 fe3d
000001f0: 342c f4bd f993 6e3d 67ed 093c b5ab e7b9
-0.003168273 0.005288005 -0.07527372 -0.000974371 0.05477873 0.0014902657 0.079237394 0.0045310096
0.0010874963 -0.0058679013 0.002144889 -0.003919082 -0.06650934 0.0025020298 -0.00088486884 -2.8075327e-05
-0.0005594161 -0.0007065534 -0.004975524 0.00077397324 -0.0022334482 -0.0011021096 0.002629593 -0.060130317
0.0061354074 -0.0030541809 -0.005435713 0.0012105202 -0.10790395 -0.0058366056 -0.0037001406 0.012523837
-0.0012750934 -0.0031218056 0.002054576 -0.0047346926 0.0058050016 0.015046945 0.0014534818 -0.0074466565
-0.0061664893 -0.010778795 -0.003564299 0.012904405 -0.0002698945 -0.050144568 0.14066869 -0.076378204
0.0064429496 -0.048883114 0.0042555854 -0.00466063 0.1302493 0.002073966 -0.10064793 -0.0050539104
-0.0028527258 0.0042906203 0.0029179684 -0.025588293 0.002299504 0.081768945 -0.044979654 -0.0016160415
0.0054145483 -0.013827442 -0.05352749 0.0014058567 -0.00048588996 0.08915398 -0.015766276 -0.0019161755
0.00857717 -0.008458534 0.001057033 -0.009547249 -0.016186578 0.11569406 0.00024783457 0.0071222303
-0.0024887128 -0.094833374 0.037153367 0.0006993203 -0.0054493677 0.024150383 -0.002031057 -0.00034263762
-0.0012801966 -0.085237116 -0.00020658053 -0.089838475 -0.014611913 -0.10142441 0.14962685 0.0010799756
0.0005712526 -0.00095301535 -0.045379303 -0.0012853222 -0.007958978 0.10926048 0.011546527 0.15132703
0.01101495 0.14078331 0.14402092 -0.0102304 -0.010263551 0.006375268 0.0016682447 0.0024916914
-0.013323043 -0.056092426 0.0056918715 0.0053996337 -0.005950968 -0.017726015 0.031112354 0.003755688
0.0018435329 -0.00073824514 -0.014329745 0.124491885 -0.119224936 0.058246586 0.008418418 -0.00044187685

network.2.running_mean f4 [128]
00000000: 9ad2 1d3d abda 463d 1c50 953d 3353 053d
00000010: 2586 d13d e6b9 d83c 1ec0 fa3d 9569 b03c
00000020: 6291 0f3d c79c 213d d9ee da3c ddfd a03c
00000030: 4412 ef3d 7466 c03c 6e85 fc3c a412 363c
00000040: 2c79 fb3b d3b4 913c d6c4 523d 5151 093b
00000050: d183 d73c 1e4c 803c 7bc6 523c e1e5 043e
00000060: 5e60 fc3c 074e 983d 2727 173d 96c1 cc3c
00000070: 4499 e73d 560c 2e3d c2a2 0b3c be66 a33c
00000080: cb15 573c 1cb6 903c 0252 bd3c 5db0 7c3d
00000090: 339a 123d 840a 283d bb47 a23c 4178 1b3d
000000a0: abb5 953d 6a4a 0c3d 5e55 bf3c 22ca ff3c
000000b0: 77b3 573b f3a1 9a3d b9de 133e d75f 013e
000000c0: add4 963d 1b0a f43d ecbf b03c 81e9 153d
000000d0: 518a 443e 552b 913c edbc 5d3e eb5b 4b3c
000000e0: f8ee c63c 4e2c 443c bed0 303c 6300 9a3d
000000f0: f54b f63c d31e fb3d c426 e93d 272d 273d
00000100: 1827 c23b bf5d 573d f8cd 6b3d f80d ee3c
00000110: 94e8 833b 439c fd3d 0992 f43c 21ba a03c
00000120: 09f0 1f3d b475 2c3d fd41 1b3c 0c78 293d
00000130: acfc 223d 73ca 0b3e 9959 e33c b2b4 d43c
00000140: 9fb8 423d c7d4 193e ea4c 133d 5440 0d3d
00000150: 7f26 163d 2edb 893d 49b4 9b3c 3c54 8a3c
00000160: 805f 8d3c 6a64 4b3e 309e ed3b 6101 113e
00000170: b98c be3d cb23 053e aa42 fc3d aa0f 9e3d
00000180: 69fd e83c 26f2 983d 2f53 0e3e 51bd 063d
00000190: d4a3 433d fdba ec3d c82a 4a3d 05df 363e
000001a0: 1622 de3c eee6 273e 41f3 0f3e 4e11 1f3d
000001b0: fbdd cc3c 0c34 3d3d fb8f 853b 5221 493d
000001c0: a7e8 633d 7ef2 3d3d a7c6 fb3c ec50 8e3d
000001d0: dfb0 0c3d de7e 913d f07f b23d ad60 033d
000001e0: 8a5d d83c 4b45 753c d62f 373d d3ff 153e
000001f0: 6871 463e 98ef f73d 0575 a13d 5dfc 1a3d
0.038530923 0.04854838 0.0729067 0.032550048 0.10230664 0.02645583 0.12243675 0.02153472
0.035050757 0.039456155 0.02672522 0.019652301 0.11673406 0.023486353 0.030825343 0.011112843
0.007674357 0.017786419 0.05145725 0.002095301 0.026307972 0.015661296 0.012864704 0.12978317
0.03080767 0.074367575 0.036902573 0.024994653 0.1130853 0.042492233 0.008522691 0.019946452
0.013127754 0.017664962 0.023110393 0.06169163 0.035791587 0.041025653 0.019809594 0.03795648
0.07310041 0.034250654 0.023356136 0.031224314 0.0032913366 0.075504206 0.1444043 0.12634216
0.073647834 0.1191599 0.02157589 0.03659964 0.19193389 0.017720858 0.216541 0.012412052
0.024283871 0.011973454 0.0107919555 0.07519605 0.030065516 0.12261739 0.11384347 0.040814545
0.0059250705 0.052579638 0.057569474 0.029059395 0.004025528 0.1238332 0.029854791 0.019620003
0.039047275 0.042104438 0.009476182 0.04137425 0.039791748 0.13651447 0.027752684 0.025965068
0.04753935 0.15022574 0.035962023 0.034485176 0.036657806 0.06731258 0.019006865 0.01688587
0.017257452 0.19862524 0.0072515234 0.14160682 0.093041845 0.13001935 0.12317403 0.077178314
0.028441148 0.07468061 0.1389892 0.03289539 0.04776366 0.11559103 0.049357206 0.17858513
0.027115863 0.16396686 0.14057638 0.038834862 0.025008192 0.046192214 0.0040760017 0.049104042
0.055641796 0.046373837 0.030734373 0.069490284 0.034348365 0.07104276 0.087158084 0.03207462
0.02641179 0.014970134 0.044723354 0.1464837 0.19379199 0.12106246 0.07883648 0.03783833

network.2.running_var f4 [128]
00000000: e9f1 3f3c d49b dc3b 48cf 1b3c fd87 133b
00000010: 9fd3 833c ef27 c13b a293 593c cc3e b33b
00000020: d07c 5b3b 6a22 c03b 4044 303b 1dd2 eb3a
00000030: f8b3 d03c c1ca ca3a cc86 743b 62d0 d239
00000040: dc78 ee39 bf19 0b3b 343c 803c 0b48 7337
00000050: 175c 363b 04cc 8f3b 193c bb39 76e5 353d
00000060: 81ee 0f3b d7a3 143c b666 913b 27aa a63b
00000070: 3871 b73c 72a5 053c 2a2e 1a3b 14f6 843b
00000080: ca67 073a 4502 033a 9a62 6d3b aeb4 4c3c
00000090: 2977 833b c12b 793c 4c0a c53a 9c86 533b
000000a0: 84ef 013c c61b 363b 0a07 a43a 87ab 9c3b
000000b0: cf20 9938 8bdf 8e3c 38fe 713c fea3 0b3d
000000c0: 2101 713c 15f3 d03c 44f6 593b 60ee 873c
000000d0: 8291 ba3c 1fd9 843a f560 8c3d ec76 353a
000000e0: 4db3 203b 2637 c339 8d4f 9d39 ce09 ed3b
000000f0: 3e50 cd3a 2fd4 cb3c d578 493c d707 3f3c
00000100: 580b 1839 ded9 b13b c5a6 203c f32e 8d3a
00000110: 647f 0f39 0a2f 8a3c 6852 f03a 7fa5 e53a
00000120: ae95 2a3c 2a78 f63b ea1e 5e39 1d0c 4c3b
00000130: 752c d83b 84e8 653c 8b26 d43a 4ea3 023b
00000140: 63c0 4d3b 787a 143d 6fe1 1e3c a9b2 183b
00000150: 533c 363c 6abc 053c f823 c73a 94bb c33a
00000160: e316 913b 8096 4a3d 3d9d 173a 1a7c 843c
00000170: d1e1 893c 8224 063d dd45 4f3c 660d db3c
00000180: 8120 b53a 9739 b53c 3e5d b93c 0a13 693b
00000190: 9f00 cf3b e274 4b3c 4d90 9b3c 8786 fa3c
000001a0: c888 a63b 15b0 f03c 81d1 6b3c 368d 143c
000001b0: f4f9 193a dd35 023c d061 1939 bafa ca3b
000001c0: 1cdd bf3b c070 723c 5288 eb3b 713a 333c
000001d0: 5a9f 983b 3853 6d3c 975b 9b3c f9af 713b
000001e0: 16ac 3f3b 927d 723a 9c9c 1f3c 891e 763c
000001f0: e451 2d3d bd1d ca3c 3150 4d3c f01c 3c3c
0.011715391 0.0067324433 0.009509869 0.0022511475 0.01609212 0.005894653 0.013279827 0.0054701325
0.0033491142 0.0058634775 0.002689615 0.0017991696 0.02547644 0.0015471802 0.003731179 0.0004020958
0.00045484945 0.0021225063 0.015653707 1.45007025e-05 0.0027825886 0.004388334 0.00035712196 0.044408284
0.0021962228 0.009072266 0.004437293 0.0050862017 0.022392854 0.008157121 0.002352605 0.004057655
0.0005165307 0.00049975916 0.0036222101 0.012494249 0.0040120077 0.015208186 0.0015032976 0.0032276278
0.00793064 0.002778755 0.0012514305 0.00478119 7.3017196e-05 0.017440578 0.014770083 0.034091942
0.014709742 0.025506536 0.0033258358 0.016593158 0.022774462 0.0010135508 0.068544306 0.0006922323
0.0024520934 0.00037234387 0.00030004643 0.007233835 0.0015664173 0.02488145 0.012296875 0.011659584
0.00014500075 0.005427583 0.009805386 0.0010771438 0.00013685 0.016868133 0.0018335106 0.0017520635
0.010411663 0.007521649 0.00021183086 0.003113515 0.0065970966 0.014032487 0.0016185803 0.0019933763
0.003139519 0.036249608 0.009697302 0.002329985 0.011122781 0.008162597 0.0015193215 0.0014933222
0.004427777 0.049459934 0.0005783623 0.016172457 0.01683131 0.03274966 0.012650934 0.026739787
0.0013818891 0.022122188 0.02262747 0.0035564327 0.0063172127 0.012418004 0.018989706 0.030581726
0.0050822236 0.029380837 0.014393211 0.00906687 0.0005873733 0.007947412 0.00014627655 0.0061944397
0.0058552157 0.0147973895 0.0071878815 0.0109392265 0.004657668 0.014485173 0.018964572 0.003687857
0.0029246858 0.0009250279 0.009741928 0.015021929 0.042314425 0.024672383 0.012531326 0.011481509

network.4.weight f4 [64, 128]
00000000: ba56 94bc 646f 50bb 28cf 9a3c c0ef 0d3b
00000010: 425d 6cbd 1ff3 97bb fdff b7bc f2a1 513b
00000020: 7971 7cbb d17e 123c 84e5 74bc 9dd0 c9b9
00000030: fd5b a03c 3542 80bc 7a53 ec3b 612f b6bb
00000040: b2a9 b63b d342 883b 36cb 1f3c 3442 1dbb
00000050: c8f5 c43b 00e7 eb3b b453 f53b bf71 c53c
00000060: d38d cc3b 714f 11bc 252e 40bb 59fc 9cbc
00000070: 4e46 fd3c 0add d6bc f167 763b 90f4 9e3c
00000080: f568 1f3b 1089 5f39 6a5f 11bb 32e4 ba3c
00000090: eee1 61bc 6971 b73b 0d07 d5b9 a58b 4f3c
000000a0: 82dc 123c 5a48 363c d7b4 1dbc 2c90 5b3a
000000b0: 7efe acba e462 ff3c 8767 57bd cd9d 343d
000000c0: d5a7 323d 3c3f cf3c 5b44 edba 41bb d6bb
000000d0: faaa 04bd 6628 adbb f883 d43c 0640 2dbb
000000e0: e50b 34bc 79fd 1d3b e973 5cbb 3936 5abc
000000f0: 0915 afbb 695d 04bd f98e 07bc da55 263c
00000100: 383e db3b b67a b03c 889c d63c 7dc2 f9ba
00000110: 111c 8dbb cc1e 21bd d54e 7fbb a064 2dbc
00000120: 305f 863b f2bc 853c ff33 a7ba b9b5 48bb
00000130: 58e1 1fbc 0202 efbc d859 513c 4e92 74bc
00000140: 883e fd3b 0072 9d3c 6ad4 243c 5702 fa3b
00000150: c36c bbbb 79e6 433a ff5a 9abb 7cec fe3b
00000160: a2b1 71bb f12f d23c ae97 82ba b689 d73c
00000170: dc58 fe3b 63dc 0d3d 4aa7 cdbc 236e c03b
00000180: d0f2 843b 4d12 f7bc 9244 193d 24e8 803c
00000190: 3780 f13a 927c 76bc 086f 173d 219f 5dbd
000001a0: 2f75 ed3c e7fa e9bc c90a 2fbd 586e 6f3c
000001b0: da23 45bb 516c 3ebc 17f9 48bb a026 99bb
000001c0: ac17 52bb 7834 993b f7d7 9ebb 3104 4c3d
000001d0: 1185 0a3b 6a31 ea3c 945c 3dbc d3a9 253c
000001e0: 1eea 453b c9d8 a73b d578 ab3b 0f7f 4cbd
000001f0: 2348 4e3c b2bb 80bd a32f 58bc e531 5c3c
00000200: c2fc 2e89 90d9 5287 a2b5 cf8a 2225 2408
00000210: b7ac 54aa f2df 2c08 3eca 038c adda 8d09
00000220: daf9 0309 950c 4c09 9831 8789 2f3e a289
00000230: ac88 e189 472c 138a 99f9 6008 2491 3009
00000240: 6a5a 6809 7ed9 dc89 dc7a c389 b668 7388
00000250: f0ba 7c87 faf6 0b89 8a93 2d06 c287 e10c
00000260: 36cb 9b08 42c8 7d88 8146 b089 3613 da88
00000270: 9eff 6989 e04b 4b89 2c5f f888 9a47 9f89
00000280: c868 9709 ffe4 a408 e87f 4a88 fcc3 978a
00000290: 8a27 7208 577e 1b89 f046 0d08 c2ba f209
000002a0: 353a ba09 ceb0 9288 06d4 fe88 585c c608
000002b0: 8018 f287 e441 8a0a 3006 3eaa 94e4 9c8a
000002c0: 89e8 c309 cf1e 250f a843 6009 b640 8089
000002d0: 22c0 daa5 907b fc08 d90a 0c9c 5af0 3709
000002e0: c689 0309 46e8 3a08 ce3f 3809 5c49 a211
000002f0: 6512 9d08 7426 49ac 1e31 ca09 5efc 8708
00000300: 0a00 b708 3cf0 cd08 8850 12a3 ec78 e087
00000310: 86c4 f908 82c1 4a09 8466 8e89 7c43 da89
00000320: 66a9 c689 d030 cb89 683f 6186 3ee8 4e89
00000330: 606d b289 c188 7c16 767b 110a 84a4 7287
00000340: bbfd 5c89 a682 e90c 7b75 d3ab 27a9 cf08
00000350: 3cee 9109 5f2b c0ae b9d6 d809 11b1 9508
00000360: a358 1708 9ba4 2f27 a7ca 0688 9ce1 3531
00000370: 7e73 8b8a 811b 2a0b a648 cf88 6249 cc15
00000380: 66d8 4289 62c3 1e0a 569f 510a 5a1d 1808
00000390: b7f1 7009 d4fc ee89 867f 7f09 6261 f78d
000003a0: 68ef 4609 1ef4 609d 1f70 bc94 6812 eb07
000003b0: 8f9a e989 2e24 9109 087e 1007 c26e 3208
000003c0: 7633 0d8a ab72 8c0a 2d6e a008 92e8 9e09
000003d0: f221 c886 971e be89 697d 12aa 24db 7e88
000003e0: b2e8 6409 40df 4789 4b98 a009 7979 e39d
000003f0: 82dd 5b89 ef55 518d 534e 249b 283c 3786
-0.01810776 -0.0031804675 0.018897608 0.0021657795 -0.057706125 -0.0046371366 -0.022460932 0.0031987396
-0.0038519783 0.008941368 -0.014947299 -0.00038493137 0.019575113 -0.01565657 0.0072120996 -0.005559847
0.0055744285 0.0041583567 0.009753039 -0.002399576 0.0060107447 0.007199168 0.007486785 0.02410209
0.0062424927 -0.008869038 -0.002932438 -0.019163297 0.030917313 -0.026228447 0.0037598575 0.019403726
0.0024324034 0.00021317997 -0.0022182115 0.02281389 -0.013786776 0.0055982363 -0.0004063178 0.012667571
0.008963706 0.011125648 -0.009625635 0.00083756703 -0.0013198403 0.031175084 -0.052588966 0.044095803
0.04361709 0.025298707 -0.0018102037 -0.006553084 -0.03238962 -0.005284357 0.025941834 -0.0026435866
-0.010989164 0.002410738 -0.0033638424 -0.013318592 -0.0053430838 -0.032315645 -0.008273833 0.010152305
0.0066907667 0.021542888 0.026197687 -0.0019055154 -0.0043063243 -0.03933601 -0.00389569 -0.010583073
0.0041007027 0.016325448 -0.0012756585 -0.0030625893 -0.009758316 -0.029175762 0.012777768 -0.01492746
0.0077284016 0.019219398 0.010060409 0.0076296735 -0.0057197525 0.0007473003 -0.0047105546 0.007779656
-0.003687956 0.025657626 -0.0009963417 0.026310783 0.0077620577 0.034634005 -0.025104184 0.0058725043
0.004057266 -0.030160094 0.03741891 0.015735693 0.0018425052 -0.015044348 0.036971122 -0.054106835
0.028986542 -0.028562022 -0.042734895 0.01461371 -0.0030081184 -0.011622504 -0.0030666047 -0.004673794
-0.0032057567 0.004675444 -0.0048475224 0.049808685 0.0021136443 0.028588016 -0.011557717 0.01011129
0.003019936 0.0051222784 0.00523291 -0.04992586 0.012590441 -0.062858 -0.013194951 0.01343963
-2.1063334e-33 -1.586258e-34 -2.0001698e-32 4.9395604e-34 -1.8889305e-13 5.2022614e-34 -1.0152733e-31 3.4150157e-33
1.5886031e-33 2.4561523e-33 -3.2546706e-33 -3.905856e-33 -5.4295305e-33 -7.08612e-33 6.770095e-34 2.1253474e-33
2.7968497e-33 -5.3167602e-33 -4.706008e-33 -7.324824e-34 -1.9013309e-34 -1.6847644e-33 3.2646078e-35 3.4748445e-31
9.376498e-34 -7.636982e-34 -4.243676e-33 -1.3124914e-33 -2.8166545e-33 -2.4470912e-33 -1.4948332e-33 -3.834519e-33
3.6450464e-33 9.924228e-34 -6.0937517e-34 -1.4614492e-32 7.2870704e-34 -1.8716851e-33 4.251403e-34 5.8435007e-33
4.483261e-33 -8.828622e-34 -1.5336915e-33 1.1938401e-33 -3.6426513e-34 1.3313702e-32 -1.6877537e-13 -1.5108235e-32
4.7163217e-33 8.1410616e-30 2.6994831e-33 -3.0875733e-33 -3.7947166e-16 1.5195748e-33 -4.6336135e-22 2.2140837e-33
1.5833332e-33 5.6245375e-34 2.2178195e-33 2.5604305e-28 9.453418e-34 -2.8585164e-12 4.867592e-33 8.184348e-34
1.1013921e-33 1.23944675e-33 -7.931729e-18 -3.3774846e-34 1.5032345e-33 2.4405852e-33 -3.428166e-33 -5.2545053e-33
-4.7826068e-33 -4.8916375e-33 -4.236438e-35 -2.4905548e-33 -4.2954797e-33 2.039955e-25 7.0047165e-33 -1.8254403e-34
-2.660084e-33 3.5977965e-31 -1.5025059e-12 1.2498127e-33 3.5131515e-33 -8.7388534e-11 5.2202033e-33 9.009239e-34
4.55441e-34 2.4375361e-15 -4.0562375e-34 2.646721e-09 -1.3428656e-32 3.27615e-32 -1.2475439e-33 8.251072e-26
-2.345365e-33 7.644171e-33 1.0092952e-32 4.577534e-34 2.9002603e-33 -5.7534174e-33 3.075447e-33 -1.5245994e-30
2.3945951e-33 -2.9772359e-21 -1.9027373e-26 3.5369688e-34 -5.6238056e-33 3.4941503e-33 1.0870393e-34 5.369512e-34
-6.798582e-33 1.3524643e-32 9.655552e-34 3.8255824e-33 -7.5281517e-35 -4.5769603e-33 -1.3010915e-13 -7.6692943e-34
2.7553915e-33 -2.4058725e-33 3.8661815e-33 -6.0212e-21 -2.6465319e-33 -6.4506536e-31 -1.359107e-22 -3.446267e-35

network.4.bias f4 [64]
00000000: 3bbd bd3c b048 f9b8 63b5 87bd db28 383c
00000010: 2b0a e23b f131 e7bc d806 903b 725f a4b5
00000020: 751f cbbb 3e4b 26bc 46c5 f1bb 28af 153b
00000030: 6fb3 67ba d22b 2d3c 976f 15bd 74ff a2bc
00000040: 1fcf 3abd 0378 94bc 6afc 37ab ee28 35bc
00000050: 3627 2abc b940 23ae 4917 1399 6bb7 e6b2
00000060: 0f23 53bb 34b2 a1bd 2e3a 47bc 6b26 0abd
00000070: 51d1 feab 3464 9ebc b1c6 6bb2 c751 51bd
00000080: 50bd e7ba 889c 0bbd ef3e 71bd e0a1 ddbc
00000090: c018 903b 1fe1 23bd 10b4 71bd 984b 143d
000000a0: d602 97bd 2550 80bd 763f 10bb b41e 0bbd
000000b0: 3e2d 4eb5 1fa5 f0bb 6250 5dbd e339 7bbd
000000c0: 13b7 4bbc 2ce0 64bc b133 18ad a8be 94a0
000000d0: a954 77bd 1608 03bd 8601 aabc 9d20 9e3c
000000e0: 16c5 9d9d 00c6 11bd d1df 2bbd e907 e1bb
000000f0: a4ef 7faf 5180 67bd fdb3 20bb b676 1fbc
0.023161521 -0.00011886784 -0.06626394 0.011240209 0.006898185 -0.028222056 0.004395347 -1.224673e-06
-0.0061988183 -0.010149775 -0.007378253 0.0022839997 -0.00088386884 0.01056953 -0.036483373 -0.0198972
-0.045607682 -0.018123632 -6.5364955e-13 -0.011057122 -0.010385325 -3.7119394e-11 -7.604424e-24 -2.6858933e-08
-0.0032216941 -0.07895318 -0.012159867 -0.033728044 -1.8105882e-12 -0.01933489 -1.37239775e-08 -0.05110338
-0.0017680321 -0.034084827 -0.05889791 -0.027054727 0.0043974817 -0.040009614 -0.05900961 0.036204904
-0.07373588 -0.06265286 -0.0022010482 -0.033964828 -7.6806816e-07 -0.0073439027 -0.054031737 -0.061334502
-0.012433785 -0.013969462 -8.6516775e-12 -2.519834e-19 -0.060383473 -0.031990133 -0.02075268 0.01930266
-4.1761336e-21 -0.03558922 -0.041961495 -0.006867398 -2.3277252e-10 -0.056518856 -0.0024521344 -0.009732893

network.6.weight f4 [64]
00000000: 0517 81bd f396 9b37 b825 17be 05ee 8dbb
00000010: 3c51 abb9 9ab2 ad3d 4476 9c3d f534 ec38
00000020: 775a 0e3b b9c2 66ba 1443 8739 5a06 88bd
00000030: 973c 163c d2a2 983b 75e4 cdbc be7c 05be
00000040: 9919 6cbd a6ce 8239 125c c62b 1305 f63c
00000050: 1f78 0dbb 6a88 d7b7 c4b2 0c80 4aac 40b8
00000060: e30b 173a 8eb6 633e ff11 d23d 9b1b 933d
00000070: fdf2 a8b5 9b21 103d a3d7 09b4 3002 ba3d
00000080: 5fea baba 9a89 0bbe 3901 fbbd 58f7 a03d
00000090: 472f 923d 9f73 d53d 61f2 033e a6ac 903d
000000a0: be91 223e ada8 343e dbe2 1b38 c3a3 02be
000000b0: c44f 30b8 8452 d8ba 5738 023e cacd fd3d
000000c0: dd33 c03b 37d1 b7bd a7a2 72b8 6ba3 18b6
000000d0: 68da 3fbe 3a90 e3bd 0601 833d a1bb 2fbc
000000e0: e1da 5535 6ba5 87bd b3e6 053e d0cd 283b
000000f0: d77f 86ac c050 383e 7460 1bbd 1da9 e8bd
-0.06303219 1.8547731e-05 -0.14760482 -0.0043313527 -0.00032676186 0.08481331 0.07639745 0.00011263221
0.0021721402 -0.00088028196 0.00025799184 -0.066418365 0.009169719 0.0046580816 -0.02513335 -0.13035867
-0.0576416 0.00024949497 1.4094301e-12 0.030031716 -0.002158649 -2.569352e-05 -1.166155e-39 -4.5936824e-05
0.0005761964 0.22237608 0.10257339 0.07183 -1.2587694e-06 0.0351883 -1.2837567e-07 0.090824485
-0.0014260522 -0.1362671 -0.122560926 0.07859677 0.07137924 0.104224436 0.12885429 0.0706418
0.15875909 0.1764247 3.7166155e-05 -0.12757783 -4.2035957e-05 -0.0016504084 0.12716804 0.12392767
0.0058655576 -0.089754514 -5.7848778e-05 -2.2744887e-06 -0.18735659 -0.111114934 0.063966796 -0.010725887
7.9667194e-07 -0.06623348 0.13076286 0.002575744 -3.822702e-12 0.17999554 -0.03793378 -0.11360381

network.6.bias f4 [64]
00000000: eb54 4d3b a016 c238 1494 14bc d004 ce3b
00000010: b60e 3abb d5e9 4e3b 17ab 23ba 4af4 16ba
00000020: 4e79 983b cb0a 513a f76b 263b f6d0 ff3c
00000030: 94c3 8b3b 5238 7e3b 106c 703c f315 5a3c
00000040: ac94 c03a 7054 f3ba ee21 cf38 7b4f e339
00000050: 0d6f 103b 5c06 85bb ee21 3e3a dd92 3eb9
00000060: 47ef 943a e35c 35bb bdb0 26bb 664b 0a3c
00000070: 19ff 20bb 957e f93b 6cda 83ba 5b6d 963b
00000080: 6e69 c2b9 9c25 e33b 8c1e 003c 53a7 8d3a
00000090: d3b7 843b a72f 7dbb 2105 f63b 5877 5a3a
000000a0: 5344 fcbb 27d7 10bc 2a7d 303b 6240 c03c
000000b0: 5110 bfb9 e04d 0a3a 98bb 943a 1072 8abb
000000c0: 0aef 86ba 983b 15ba c52b 3f3b e2a6 e0ba
000000d0: 34f4 7b3c 26c3 d03a a3b6 93ba 7320 e5ba
000000e0: d094 17bb a1c5 683c ec43 e5bb 4891 3439
000000f0: c4b5 e0ba df9e 61bc 55c1 ad3a 3996 ae39
0.0031331133 9.254855e-05 -0.009068508 0.006287195 -0.0028390116 0.003157248 -0.0006243451 -0.0005758448
0.0046531325 0.00079743256 0.0025393942 0.03122757 0.004265258 0.0038790894 0.014674202 0.013310897
0.0014692745 -0.0018564593 9.876849e-05 0.00043356032 0.0022038848 -0.004059596 0.0007252981 -0.00018174523
0.0011362814 -0.0027673773 -0.0025434934 0.008440828 -0.0024566113 0.0076139667 -0.0010059602 0.004590673
-0.00037081115 0.0069319736 0.007819783 0.0010807313 0.004050234 -0.003863314 0.0075079356 0.00083338236
-0.0076985746 -0.008840359 0.0026930072 0.0234682 -0.00036442516 0.00052758865 0.0011347411 -0.004225023
-0.0010294628 -0.0005692779 0.0029170376 -0.0017139579 0.015378047 0.0015927299 -0.001126964 -0.0017480984
-0.002312947 0.014207275 -0.0069966223 0.00017220259 -0.0017144014 -0.013770788 0.001325647 0.0003329979

network.6.running_mean f4 [64]
00000000: 1d85 063b 0400 0000 2b20 2d05 0d50 af3c
00000010: 8d7d 643b e030 6e3a 7125 063b 0400 0000
00000020: 0400 0000 ac43 8c35 0400 0000 12d2 ec3b
00000030: 12eb 6e3b 1ef3 843c f7a3 a933 627a 733a
00000040: 79d2 2639 8f4e 5217 0400 0000 4980 6239
00000050: 0400 0000 0400 0000 0400 0000 0400 0000
00000060: 3bbb 5805 eed1 283a eb34 f839 3d67 733a
00000070: 0400 0000 1fc7 973a 0400 0000 9ef7 6833
00000080: 0400 0000 a39f 2a3a 7816 7236 db00 ab3a
00000090: bcee a53a 3008 d239 c064 1239 a579 403b
000000a0: 414a c936 e9ad ec36 3e04 0000 4d1a ec39
000000b0: 0400 0000 0400 0000 76f9 2036 7458 3939
000000c0: 0400 0000 ca25 ba3a 0400 0000 0400 0000
000000d0: 7088 1e38 cbde a439 3070 c93b 711a 3e3b
000000e0: 0400 0000 b155 823b 8b14 6a3a 0400 0000
000000f0: 83d9 2a2a e68d 2439 0746 733a a72f a83a
0.002052612 6e-45 8.140329e-36 0.021400476 0.0034864873 0.00090862624 0.0020469094 6e-45
6e-45 1.0450508e-06 6e-45 0.007227191 0.003645603 0.016229209 7.899501e-08 0.0009287951
0.00015909401 6.7953815e-25 6e-45 0.0002160083 6e-45 6e-45 6e-45 6e-45
1.019066e-35 0.00064399734 0.00047341673 0.0009285098 6e-45 0.0011579728 6e-45 5.4241916e-08
6e-45 0.0006508773 3.6073889e-06 0.001304652 0.0012659649 0.0004006042 0.00013961177 0.002936938
5.998911e-06 7.053594e-06 1.522e-42 0.00045033023 6e-45 6e-45 2.3987063e-06 0.00017675926
6e-45 0.0014201936 6e-45 6e-45 3.7797203e-05 0.0003144651 0.006147407 0.002900746
6e-45 0.0039775004 0.0008929453 6e-45 1.5174498e-13 0.0001569312 0.0009280149 0.0012831584

network.6.running_var f4 [64]
00000000: 7690 d138 0400 0000 6a4f 0b00 cf22 ee38
00000010: 6023 3738 d8d4 9f38 eb08 e438 0400 0000
00000020: 0400 0000 141b 3032 0400 0000 9832 fe39
00000030: 6821 7d38 d8b1 d938 75f7 3e30 e559 1f38
00000040: b69f e136 6983 a513 0400 0000 2492 da36
00000050: 0400 0000 0400 0000 0400 0000 0400 0000
00000060: ffd2 3200 33e2 9438 2b58 4437 6906 6a38
00000070: 0400 0000 9147 6638 0400 0000 6581 5d2f
00000080: 0400 0000 bb70 b337 7195 9a33 be5f c838
00000090: 4310 4938 df6e f137 b8e9 be36 7ec0 3f39
000000a0: ed72 9b33 cfcf 6334 0400 0000 685f 4337
000000b0: 0400 0000 0400 0000 5eb1 b132 af09 0637
000000c0: 0400 0000 c94c bc38 0400 0000 0400 0000
000000d0: 65c0 9335 b653 3937 2995 7b39 97ae 8d38
000000e0: 0400 0000 af2f bb39 283c de38 0400 0000
000000f0: 4791 7219 df4b af36 507f 0138 dff0 8c38
9.9928046e-05 6e-45 1.038679e-39 0.00011355208 4.3663546e-05 7.621356e-05 0.00010873548 6e-45
6e-45 1.0250705e-08 6e-45 0.0004848435 6.0351013e-05 0.00010380492 6.9473255e-10 3.7992275e-05
6.7241153e-06 4.1781436e-27 6e-45 6.5139193e-06 6e-45 6e-45 6e-45 6e-45
4.667466e-39 7.099323e-05 1.1703039e-05 5.5795917e-05 6e-45 5.4902925e-05 6e-45 2.0145803e-10
6e-45 2.1390957e-05 7.198367e-08 9.5545765e-05 4.793728e-05 2.8781067e-05 5.6896497e-06 0.00018286888
7.238655e-08 2.1216623e-07 6e-45 1.1645119e-05 6e-45 6e-45 2.068617e-08 7.989277e-06
6e-45 8.978841e-05 6e-45 6e-45 1.1008348e-06 1.104635e-05 0.00023992792 6.755924e-05
6e-45 0.00035702946 0.0001059699 6e-45 1.2540445e-23 5.224239e-06 3.0874566e-05 6.720586e-05

network.8.weight f4 [32, 64]
00000000: d7e7 0cbd b282 ddb9 a73f 893d fbce 84bc
00000010: ccea d13b 831e be3d 9f38 d33c 6d56 a23a
00000020: 6f1a 203c 6e01 18bc 1874 7b3b 8fc7 973c
00000030: b15a a2bb 8680 d73b adb5 c73b 1690 763d
00000040: a683 38bd 7f16 823b 1a6c 8ebb 1df8 aabc
00000050: 0108 29bc d55e 23b9 8398 dbba bd5f 9fba
00000060: 2358 9b3b 7584 bd3d b8ee 9dbc b2cb e53c
00000070: 4797 97bb d678 d23c 2564 8d3b 3ca8 893b
00000080: ebc0 d63a 6d39 c63c 83bb cbbc 3529 1a3c
00000090: 29cb dd3b f991 0d3d a289 b73d b4e1 563b
000000a0: 4abf b8bc 3895 023d 08fe ddbb 1565 aa3d
000000b0: 5c5e 1b3b f55d 14bb 1b3a 2cbd 49f9 a13d
000000c0: 2ce4 e93b cbaa 823b c0a1 183b c8d4 9f3a
000000d0: 17be a7bc 87ee 6ebd 9ae0 293d 8566 2dbb
000000e0: 019a c83b 144d d3bc 7663 933d 69f0 843a
000000f0: 8fef f03b 1ffb ea3c 6614 f23b 2af3 653c
00000100: 368a 4cbc d07f 6f39 83af 17bd 8d98 53bb
00000110: aa86 cb3b 4673 b9bc d596 d0bc 950b 02bb
00000120: de14 10bb 1c48 0cbb 0680 5b3a 7bce ab3a
00000130: 9470 1ebc a2ef 17bc 5681 f8bb 671d 41bd
00000140: 6460 483d 8f9b 783b 8e10 09ba 267f 4b3d
00000150: ef34 d0bb d040 55bb 3bcc 963b 6d1b 5fba
00000160: 8e34 83ba 2475 95bd 6a3f 623d 9211 92bd
00000170: 58d5 b83b 6e76 64bd 0396 e43b ce59 6c3c
00000180: 2a7f c6ba a080 bebc a44d dbbb 114f e9bc
00000190: a0d2 ed3b 0160 54bc 90b1 663d 11a9 e33c
000001a0: 514b be3d bf8c 113c 1223 6c3a 63f4 34bd
000001b0: 34c0 943a b44d db3a 068f ec3d 0ce8 253c
000001c0: 7a78 aa3a 2a25 913c 2576 8dba 763e 483b
000001d0: 09bf 263c c67e e7bc fd0b 583d 779f c33a
000001e0: 20f8 b8b8 15dd 783d 3a7e 2f3d 41a5 2ebb
000001f0: eac5 d33a 90c2 693a df18 7cbb 6e9b d0bc
00000200: 418d 933c 8e6c eb3a beea 5f3d 566b e1bb
00000210: 35c7 b23a 6fe8 67bd 4abb b3bc 0865 843b
00000220: 22ee 863b d5d9 c7ba 7bbc 003c 5fdd 9abb
00000230: e125 aaba 867e 18bc 8195 ac3c a9d7 533d
00000240: 5c0a 163d ab39 973b 8e23 af3a 977e 063d
00000250: fa8c eaba e11c d0bb 4f8a 243b e718 ed3a
00000260: f906 df3a ad21 22bd c15c a1bd 9bcf 323c
00000270: 846f ac3b 91ed bcbc 9ad7 23bb 6c9f f53c
00000280: cc6b 613b c913 8b3d b8e8 2aba 5593 e33c
00000290: 4c21 a6bc 56cd 1fbd 87df 75bd 3a3e 0a3d
000002a0: 0d5f be3c bfa9 be3b 0ab7 45bb 3e8c 703c
000002b0: 38ff 18ba 714e afb8 b30c 223d 2cce 44bd
000002c0: 7a1f e2bb ba45 24bd dcae dabb db7f a5b9
000002d0: 6c20 343c fef1 143d 30a8 a9bc 00e9 613c
000002e0: 5467 c4ba d5d4 84bc b130 20bd 0ba6 5c39
000002f0: 11df 1bbb b482 11bb 9216 aa3c c248 a03d
00000300: 3846 66bd 04de 80bb e59d d3bc ae97 943c
00000310: 72ff ec3b ecda ae3a d237 843d 8789 faba
00000320: 5bf6 703b 5506 32bb ebd5 13bb acdb 20bc
00000330: f82b 953c 1de7 e9bb 030d bcbb 61cd ecbc
00000340: ff98 82bd 43d0 56bb ee25 123a 2030 033c
00000350: ea47 133c 9232 9239 a08a 113b 1b66 a43a
00000360: d754 8fbb 983d a43c 9735 f03c 735c f73a
00000370: b844 89bb 3585 0f3d 1731 9239 d151 283d
00000380: 9175 413b e2f6 9abc 7d88 3a3d 5b09 c43c
00000390: f1a1 b73d 428d 4b3d 772b 52bd 6f92 de3c
000003a0: 8107 fd3b 906e 6dbd 9707 2cbb e4c4 083c
000003b0: 5986 aa3a 5c32 b738 5983 e3bc 2bf8 92bc
000003c0: 4e0a a139 5997 033a f9ff 063c 704a f53a
000003d0: acac 393d f7cf d03b dbc5 6dbd 5086 5abc
000003e0: 1bc3 c03a c934 273d e445 ad3a 17aa 153a
000003f0: e4cc 86ba e2ec aebd fe33 9bbc 21ad 60bc
-0.034400787 -0.0004224978 0.06701594 -0.016211977 0.006406164 0.092831634 0.025783835 0.0012385376
0.009771927 -0.009277685 0.0038368758 0.018527774 -0.004954659 0.0065766005 0.0060946555 0.060196005
-0.045047425 0.003969967 -0.004346383 -0.020870263 -0.01031685 -0.00015580219 -0.0016753826 -0.001215927
0.0047407313 0.0925378 -0.019278869 0.028051231 -0.004626188 0.025692385 0.0043149167 0.0042009633
0.0016384398 0.024197305 -0.024869686 0.009409239 0.0067686033 0.03456304 0.08961798 0.0032788338
-0.022552151 0.031880587 -0.0067746677 0.08320061 0.0023707366 -0.002263901 -0.0420476 0.079088755
0.007137796 0.0039876453 0.002328977 0.0012194151 -0.020476384 -0.058332946 0.041473962 -0.0026458811
0.0061218743 -0.02579359 0.07196705 0.0010142449 0.0073527764 0.028684197 0.0073876856 0.014035026
-0.012484124 0.0002284043 -0.037032615 -0.0032286972 0.0062111216 -0.022637974 -0.025462547 -0.001984333
-0.0021985094 -0.0021405285 0.0008373264 0.0013107801 -0.009670395 -0.0092734415 -0.0075837774 -0.04714718
0.04892005 0.0037934517 -0.0005228602 0.049681805 -0.0063539664 -0.0032539852 0.004601983 -0.00085108617
-0.0010010169 -0.072977334 0.055236258 -0.071322575 0.005640667 -0.055777006 0.0069758906 0.014425708
-0.0015144099 -0.023254693 -0.006692605 -0.028480085 0.0072577745 -0.012962342 0.05632168 0.027790578
0.09291709 0.008883654 0.00090079114 -0.044178378 0.0011348785 0.0016731531 0.11550717 0.010126125
0.0013005876 0.017717917 -0.0010792656 0.0030554808 0.010177382 -0.028258692 0.052745808 0.0014924844
-8.8200206e-05 0.060757715 0.04284499 -0.0026648792 0.0016157005 0.00089172367 -0.0038466973 -0.02546474
0.018011691 0.0017961429 0.054667227 -0.0068792505 0.0013639691 -0.05661815 -0.021939892 0.004040364
0.004117743 -0.0015247414 0.007857437 -0.0047260965 -0.001298126 -0.009307509 0.021067383 0.05171934
0.036630973 0.004615029 0.0013362037 0.03283557 -0.0017894797 -0.006351099 0.0025106852 0.0018089087
0.0017015628 -0.039582897 -0.078790195 0.010913755 0.005262317 -0.0230625 -0.0025000335 0.029983245
0.0034396527 0.06790883 -0.0006519663 0.027780214 -0.020279549 -0.039014183 -0.060027625 0.03375075
0.023238683 0.005818575 -0.0030168914 0.014681874 -0.00058363704 -8.359261e-05 0.039562892 -0.048048183
-0.006900725 -0.04010556 -0.006673677 -0.00031566512 0.010994058 0.036363594 -0.02071008 0.013788462
-0.0014984407 -0.016214767 -0.039108936 0.00021042691 -0.002378408 -0.002220315 0.020762715 0.078263775
-0.05621931 -0.0039327163 -0.025832126 0.018138733 0.0072326 0.001334039 0.064559594 -0.0019114473
0.0036767933 -0.0027164419 -0.0022557925 -0.009817999 0.018209442 -0.0071381466 -0.005738856 -0.028906526
-0.06376838 -0.0032777942 0.000557511 0.008007079 0.008989314 0.00027884968 0.002220787 0.0012542637
-0.0043741274 0.020048901 0.029322429 0.0018872157 -0.0041891 0.035039145 0.00027883865 0.04109365
0.0029519538 -0.018916551 0.04554032 0.023930242 0.08966435 0.04969526 -0.051310983 0.027169434
0.007721842 -0.05796677 -0.002624964 0.008347724 0.001301001 8.7355e-05 -0.027772592 -0.017940601
0.0003071599 0.0005019806 0.00823974 0.0018714201 0.04533069 0.0063724476 -0.058050018 -0.013337687
0.0014706583 0.040821824 0.0013219682 0.0005709244 -0.0010284451 -0.085412756 -0.01894569 -0.013713152

network.8.bias f4 [32]
00000000: c9f3 1f3d 1b71 ea3c d3b3 7a3d eb48 913d
00000010: e456 b43c 4395 ca3c 803b 1b3d 2eb7 3c3d
00000020: 743e c93c d5e1 d93c d13d b23d e4ab 10bc
00000030: 6e60 1c3d 7235 cd3d 51b2 943c b231 163d
00000040: 37a6 003d 8ccf 073d 0852 923d 2c2d 163d
00000050: 6009 8a3c 9cbb 0b3d 2fba d33d 21ac 543c
00000060: 4e6c 3e3d a9b2 983d 76f0 e93b e680 313d
00000070: 4854 f33c 72d6 ac3c 3b26 d83c 4a9a 38bd
0.03905085 0.028618386 0.06120665 0.07093986 0.022014089 0.024729377 0.03789854 0.04607313
0.024565913 0.026596943 0.08703197 -0.008830044 0.0381779 0.100199595 0.018151434 0.036668487
0.031408515 0.033156916 0.071445525 0.036664173 0.016850173 0.034114465 0.10338246 0.012980492
0.046490006 0.07455952 0.007139261 0.043335818 0.029703274 0.02109835 0.026385417 -0.045069017

network.10.weight f4 [32]
00000000: 1ef3 a43e 0aee 933e 7fd8 b03e ece6 9f3e
00000010: cbc7 093f 96a2 0a3f 855b 013f c314 c03e
00000020: 2204 973e 4c66 063f 9a07 9a3e 531f 3cbd
00000030: 9378 7d3e 66c5 ba3e 3d3c ca3e 4da5 b13e
00000040: 3e94 6c3e 54d1 b93e bcc2 913e d73f 9c3e
00000050: 8d30 a13e 9e0b a33e 791d 813e fc48 a63e
00000060: 2000 9a3e 9d81 a43e eed1 bc3e 733f 9f3e
00000070: 9bd6 8e3e 9a14 063f 46cd 083f 14a6 f73e
0.32216734 0.28892547 0.34540173 0.31230867 0.53820485 0.54154336 0.5053027 0.3751584
0.2949534 0.5249984 0.30083925 -0.04592831 0.24753027 0.36478728 0.39499083 0.34696427
0.23103425 0.36292517 0.28468883 0.30517456 0.31482354 0.318448 0.25217798 0.32477558
0.3007822 0.32130137 0.36878914 0.31103095 0.27898106 0.52375185 0.5343822 0.48368895

network.10.bias f4 [32]
00000000: 5262 5dbe 4613 c9be 0d59 ce3e bf78 bebe
00000010: 8a96 2b3f 34aa 2a3f ebd4 1c3f fa7a b2be
00000020: 1e83 cbbb b52d 2a3f 4c09 fdbe 9f17 91be
00000030: 562c ea3d 83d4 d8be 1d3d 1d3f b518 dabc
00000040: 81a4 cabe 611c 08bf cd97 c63e 627a ecbe
00000050: 7468 db3c 2d8e 2abe 3b38 ba3e bd30 00bf
00000060: 4f3e 063f 07ee ddbe 0561 d2be 2350 84be
00000070: 5c73 093f 925b 2f3f 2059 2d3f ed09 b5be
-0.21619537 -0.39272517 0.40302315 -0.37201497 0.6702658 0.6666596 0.6126239 -0.3485945
-0.0062106987 0.66475993 -0.49421155 -0.28338334 0.11434238 -0.42349634 0.61421376 -0.02662311
-0.39578632 -0.531683 0.3878769 -0.4618712 0.026783206 -0.16655798 0.36371025 -0.5007437
0.52438825 -0.43345663 -0.41089645 -0.2584239 0.5369165 0.684991 0.6771412 -0.35359135

network.10.running_mean f4 [32]
00000000: abb4 2a3d ddb6 d63c 44e2 843d 2e38 973d
00000010: a62f e23c a278 e83c fb0a 2f3d 9a50 523d
00000020: 8468 f53c 0b3d fa3c bc7b b63d fbc0 b03a
00000030: 8d7d 1c3d 64b5 ca3d 73b2 c93c 0d2e 2c3d
00000040: fb6e 0c3d 2526 d63c 3c6d 9e3d 2577 0c3d
00000050: 4350 a83c b19a 1f3d 46f7 d53d e0d0 513c
00000060: ed1a 423d a645 9a3d 3732 363c c23a 3d3d
00000070: 1a9e f93c eabe c93c e3e9 fc3c e4ea 4139
0.041676205 0.026210243 0.06488469 0.07383762 0.027610611 0.028377835 0.04273508 0.0513464
0.029957063 0.030546686 0.08910319 0.0013485247 0.038205672 0.09897879 0.024621224 0.042036105
0.034285527 0.026141236 0.077356786 0.034293313 0.020546084 0.038965885 0.10447554 0.012806147
0.04738896 0.07532816 0.011120371 0.046198614 0.030470897 0.024627168 0.030873245 0.00018493418

network.10.running_var f4 [32]
00000000: cebe 523a 3ea1 7a39 c30f 4c39 8d12 d539
00000010: 6770 6238 9fe6 6838 8505 0339 cbb6 f039
00000020: c703 1d39 b772 8738 4885 f639 42f2 a038
00000030: 9301 c639 35a7 a939 2051 a538 ade2 0e39
00000040: 5b4a 7b39 0212 183a 043c b039 c151 203a
00000050: a845 1e39 bcbb db39 cb2a a239 9c31 323a
00000060: 73b0 2439 b1ba b439 0b8e 8439 3a6d 4b3a
00000070: b1b3 2839 d540 3738 ab37 8938 d5dd ac37
0.00080392964 0.00023901925 0.00019460828 0.00040640347 5.398728e-05 5.5527893e-05 0.0001249519 0.0004591256
0.00014974094 6.458669e-05 0.0004702008 7.6745186e-05 0.00037766676 0.0003235877 7.882924e-05 0.00013626619
0.00023964925 0.0005801023 0.0003361405 0.0006115698 0.00015094003 0.00041910808 0.0003093093 0.00067975535
0.00015705991 0.0003447137 0.00025282832 0.00077601115 0.00016088669 4.369098e-05 6.543038e-05 2.0607296e-05
