models/TON_best_mlp_multiclass_20250910_234927.pth (torch, 82229 bytes, 21 tensors)

network.0.weight f4 [128, 48]
000000 e3 7e 70 ba 4a 12 0a 3c d7 9b 9d bc 50 c9 8a bb
       -0.0009174181 0.008427212 -0.01923935 -0.004235424
000010 33 7c 0c bb 57 91 0c 3c 38 53 10 3d 3b 9d e0 3c
       -0.0021436333 0.008579574 0.035235614 0.027418723
000020 15 06 25 3b f8 6e fb 3b 2d c3 1c 3c 16 5b cb 3c
       0.0025180627 0.0076731406 0.009568018 0.024823707
000030 ab 69 87 bc 96 bd 44 bc c1 8f 57 bd 68 67 4b 3c
       -0.016529879 -0.012008091 -0.05262733 0.012414791
000040 92 20 b6 ba a3 88 25 3c 97 e2 ca bd 03 22 05 bd
       -0.0013895205 0.0101033775 -0.099065 -0.03250314
000050 26 0f ae 3c e8 43 a5 bc 0d bb 98 bb d7 80 69 bb
       0.021247458 -0.020173982 -0.00466097 -0.0035629773
000060 71 45 a5 3c a2 bf 09 bc 67 c7 71 3d fd f7 9b bc
       0.020174714 -0.008407505 0.059028056 -0.019039148
000070 01 c9 52 bc e4 ed 7b bc 5c fc 40 bc 22 eb 7d 3d
       -0.012865306 -0.015376542 -0.011778917 0.06199182
000080 34 51 ca bc a0 bd f8 3b 1b b2 ec ba d5 77 74 3a
       -0.024696924 0.0075909644 -0.0018058451 0.00093257177
000090 b7 c0 54 3b 01 b3 25 3c 36 bf 6e 3d ec 32 82 3d
       0.00324635 0.010113479 0.05828782 0.06357369
0000a0 89 7c 3f be 3f 5a 0e 3c 91 f2 b2 bd 22 6b fc 3b
       -0.1869985 0.0086885085 -0.08737672 0.007703201
0000b0 67 43 8c 3a 3c 37 48 bc d1 a7 ea 3b f5 5b 4a 3d
       0.001070124 -0.0122202 0.0071611186 0.049404103
0000c0 1e 29 ab bb 99 e2 42 3c 0a 41 e8 3c 42 f4 d9 3c
       -0.0052234074 0.011894845 0.028351326 0.026605729
0000d0 1c 06 32 3b 24 90 e9 3c 31 0b f3 3d 1b 87 2d be
       0.0027164286 0.028511114 0.11867369 -0.1694607
0000e0 bb 29 40 3d 36 85 8d bb 1b 95 a2 3c 12 d1 8e 3d
       0.046914797 -0.0043188585 0.01984649 0.06973471
0000f0 03 57 bc 3c 9e ff 80 bd 1e 04 48 3d 97 e8 b2 bc
       0.02299071 -0.06298755 0.04883205 -0.021839423
000100 f8 f2 17 bd 09 61 9c bd 7f 79 f6 3d 69 95 48 bd
       -0.037096947 -0.076356955 0.12034892 -0.048970614
000110 28 17 e1 3c 06 16 60 3c 73 c8 a1 3d 2d e2 0c be
       0.027476862 0.013677126 0.07899561 -0.13758154
000120 a3 91 80 3c d4 16 02 bc 76 d2 47 bd 7f fa 7b bd
       0.015694445 -0.007940013 -0.048784696 -0.06151819
000130 82 0b 0e bd 6a e2 d8 bc 60 86 4a 3c 83 4e 92 bd
       -0.034678943 -0.02647515 0.012361139 -0.07143881
000140 67 8e ae bc d9 11 bc 3c 87 ae 7e 3a 98 72 11 bd
       -0.021308137 0.02295773 0.00097153377 -0.035509676
000150 91 69 29 bc 7d 84 76 3c 80 1f 12 3a 08 48 b7 bd
       -0.01034011 0.015046236 0.0005574152 -0.08949286
000160 87 4b 86 bb 88 28 81 3c 8e 28 14 3c 88 85 ab bc
       -0.004098359 0.015766397 0.009042872 -0.020937696
000170 5e 16 b1 3c 02 03 0c 3c 3a bd af 3c bd 86 a1 ba
       0.02161711 0.008545639 0.021452535 -0.001232348
000180 f8 49 d8 3c d5 dd cc bc a1 68 6c bb 63 46 68 3c
       0.026402459 -0.025008122 -0.0036073106 0.014176938
000190 22 9e 57 bc 86 57 3c 3c 25 d5 b5 3c 0b 16 c1 bc
       -0.01316026 0.011495477 0.022196362 -0.023570081
0001a0 65 81 58 ba e2 3a f4 bb 79 c9 18 3c 53 b6 b5 3c
       -0.00082590274 -0.0074533084 0.009325379 0.022181666
0001b0 e1 8d 39 bc 38 7e b2 3c d4 c9 8c 3a 3c 39 93 bb
       -0.0113253305 0.021788701 0.0010741302 -0.004492907
0001c0 0d 3f b1 bb ec 6e 0a bd f3 45 b0 3d ff fb 09 3c
       -0.0054091276 -0.03379719 0.08607092 0.008421897
0001d0 77 19 9b 3c d6 78 a3 3c b1 75 6e bc d0 82 de bc
       0.018933041 0.01995508 -0.014554427 -0.027161986
0001e0 03 9d 76 3b f5 f1 e6 3b 92 e7 fb bc de d0 8a bd
       0.0037630207 0.0070478865 -0.03075007 -0.067781195
0001f0 d3 2c bf 39 99 ce 06 bd 93 b8 6c bc 93 77 1b bd
       0.00036463756 -0.03291187 -0.014448303 -0.03795583
000200 06 19 7c be df 05 e0 3c 76 aa 50 bc c0 9b b8 bb
       -0.2461892 0.02734655 -0.012735954 -0.005633801
000210 4f 2c f6 bb 66 e3 35 3c 7e 69 9f bd 0d 53 d8 3c
       -0.007512606 0.011101579 -0.07783793 0.02640679
000220 cf 50 4a bd 93 a9 f8 bc b7 54 ac 3b 88 bd 80 bd
       -0.04939347 -0.030354297 0.0052591222 -0.0628615
000230 41 83 40 bb 30 38 80 bb 18 c6 76 bc 30 98 b8 bd
       -0.0029375108 -0.003912948 -0.015061878 -0.090134025
000240 b6 f8 b6 bc fe c5 2f bd 3a 3b 5b 3d db 52 da bb
       -0.022335391 -0.04291343 0.05352328 -0.006662709
000250 4b 79 e6 bc ea 3b 93 bc bf 72 b7 3d 88 72 28 3d
       -0.028134009 -0.017972905 0.08957433 0.04112485
000260 7a 5a 69 3c 50 cf ab 3c 17 40 4f bd 7c 92 ea 3d
       0.014242763 0.020972878 -0.05059823 0.11453721
000270 af e9 86 3d 26 43 17 bd 92 56 ee 3c 88 fe 2d bd
       0.0658754 -0.036929272 0.029094014 -0.042479068
000280 a0 c3 03 bd aa 78 6f bc 0f 7a c5 b9 a4 32 09 bd
       -0.032168984 -0.014616171 -0.0003766571 -0.03349556
000290 9a 8b cc 3b 00 6f 0a 3b 3d 74 07 bd f4 7c d6 bb
       0.0062422277 0.002112329 -0.033069838 -0.0065456573
0002a0 b2 44 bc bc bf 3a 55 3c b0 ef df ba d7 bf 9b bd
       -0.022981975 0.013014494 -0.0017084982 -0.0760495
0002b0 cf 5a 98 3c c4 14 c4 bc 5c 45 74 37 8c 15 01 3c
       0.018597988 -0.023935683 1.4559682e-05 0.007878672
0002c0 3e 90 5e bc f8 a1 a0 bc fe 62 f4 bc e0 2b 26 bc
       -0.013584195 -0.019608483 -0.02983236 -0.010142297
0002d0 0c fc 4d bd a6 21 dd 3b 54 3a 7e be 3c d7 af bc
       -0.0502892 0.006748396 -0.24826938 -0.021464936
0002e0 03 31 a1 bc 24 0b 09 3c 06 88 46 3b a4 a5 89 3c
       -0.01967669 0.008364473 0.0030293479 0.016802616
0002f0 c5 a7 31 bd d7 87 13 bd 58 a9 6c 3c e9 96 fc bb
       -0.043372888 -0.03601822 0.014444672 -0.0077084196
000300 c3 93 2f 38 b0 25 d7 38 89 54 8b ba 07 bf 25 3b
       4.1860865e-05 0.00010259019 -0.0010630052 0.0025290863
000310 fb 31 2f 3a 05 64 b8 3b ec fd f9 3a 40 c2 b1 3b
       0.0006683168 0.0056271576 0.0019072867 0.0054247677
000320 f1 4b a6 3a ff 97 09 bb 1f 94 81 3a 45 35 ac 3a
       0.0012687427 -0.0020995138 0.0009886062 0.0013138434
000330 21 77 8c bb 85 a0 06 bb 9a 06 fd ba 94 40 16 3a
       -0.004286662 -0.0020542454 -0.0019304336 0.0005731669
000340 f5 b7 b2 ba bd 73 06 3a 98 48 b5 3b b0 28 04 39
       -0.0013635146 0.00051289407 0.0055323355 0.00012603658
000350 22 aa 29 bc fb 58 29 3a ed c3 89 3b 1f 36 f5 3b
       -0.010355504 0.00064600975 0.0042042644 0.0074832584
000360 cc 90 05 bb 61 b2 ed 3a c3 2e 3a 3c 49 b8 e9 3b
       -0.0020380495 0.0018134826 0.011363688 0.007132564
000370 cb 96 39 3b f5 b9 b7 ba db db d7 ba 13 c9 4d 3c
       0.002831864 -0.0014017212 -0.001646872 0.012560147
000380 82 e5 8d 3b 5b 49 98 3b 94 e9 a5 3b f1 19 0f 3b
       0.004330338 0.0046474165 0.005063245 0.002183553
000390 d2 12 0c 3b 19 ee 82 bb 57 48 d6 ba 73 af c3 ba
       0.0021373522 -0.0039956686 -0.0016348463 -0.0014929607
0003a0 3f e5 0e bb b7 89 58 3b c3 76 9f 3b be 49 3a 3c
       -0.0021804122 0.0033041069 0.0048664524 0.011370121
0003b0 f6 74 53 3b 1e 74 8b 3b 29 34 a1 3a 54 eb ab ba
       0.003226576 0.0042557856 0.001229887 -0.0013116398
0003c0 70 d6 c7 bc 95 9d 75 bc af 6c d3 bb 11 28 e3 bc
       -0.024394244 -0.014991184 -0.006452165 -0.027729066
0003d0 6b 18 cf bb 8b e2 a7 bc 98 15 35 3d 1c 42 83 3d
       -0.0063200495 -0.020493766 0.044210047 0.06409094
0003e0 7d ef 1a 3b 5d 6a 83 3b 70 48 12 bc 1f c6 1a bd
       0.0023641281 0.004010482 -0.008928403 -0.0377866
0003f0 27 13 87 3c 36 16 8b bc 8c d6 93 3d 09 48 d9 bc
       0.016488625 -0.016978364 0.07218656 -0.026523607

network.0.bias f4 [128]
000000 ea 3c b5 bd 44 e2 2e be 04 2d 2a be 0a b4 80 bc
       -0.08849509 -0.17078501 -0.16618735 -0.01571085
000010 02 42 0f bb c8 a9 a6 bd 3b 99 c9 bd 29 b9 3b 3a
       -0.0021859412 -0.08137852 -0.098436795 0.0007161075
000020 4e 81 80 ba b5 b3 10 bb 9d 78 b8 bd 60 aa 43 be
       -0.0009804161 -0.002207977 -0.0900738 -0.19107962
000030 6e 08 d0 bd 91 b1 1b bd 22 e2 ab bd 16 97 ac 3b
       -0.10157858 -0.038011137 -0.08392741 0.0052670343
000040 3f 55 a0 bd b4 0b 36 bb 0d 48 50 be 48 fa 34 be
       -0.078287594 -0.0027777972 -0.20339985 -0.176736
000050 dc 39 7f ba 59 b7 21 bb b8 5a cc bc 56 23 e2 ba
       -0.00097361 -0.0024675934 -0.024945602 -0.0017252963
000060 2e 2d fb ba ac 3a 0d bb 08 37 a9 bd df 3d e0 3a
       -0.0019163245 -0.0021549864 -0.082624495 0.0017108283
000070 da d3 5b be f2 ba 6c be f8 30 83 ba 11 ca 77 bd
       -0.21467534 -0.23118189 -0.0010009101 -0.06049544
000080 f0 08 71 3a a0 a1 87 bd 6a d6 f2 bd 08 96 9e be
       0.0009194752 -0.066226244 -0.118573025 -0.3097384
000090 0f 0c a4 ba 83 7d f2 bd fb 93 2a bb ef 8a 9d bb
       -0.0012515801 -0.11840346 -0.0026028145 -0.004807822
0000a0 77 f5 07 bc a5 0d 74 bd 40 18 44 bc 80 a8 96 3a
       -0.0082982695 -0.059583325 -0.011968672 0.0011494309
0000b0 4e a9 44 3b ca c8 01 be c2 e4 0d be 64 b9 8b 3b
       0.003000814 -0.12674251 -0.13856795 0.0042640436
0000c0 c7 1a 60 be 31 17 10 be 9b e1 17 3b 5b 32 95 be
       -0.21885215 -0.14071347 0.0023175243 -0.2913998
0000d0 35 fd 50 bb d0 d0 0d be c6 1b e8 bd a5 44 e4 bd
       -0.0031889204 -0.13849187 -0.11333422 -0.111459054
0000e0 15 87 b6 bd 49 9d b6 b9 a4 f3 d8 bd a5 d7 61 be
       -0.089124836 -0.00034830932 -0.10593346 -0.22054918
0000f0 b1 4d 90 3a fc 57 0a bc 2c 15 4f bd 87 e2 f8 bd
       0.0011009482 -0.008443829 -0.0505573 -0.12152582
000100 93 d7 35 be a4 11 99 bd 6a 7a 09 be 1c 80 28 be
       -0.17758016 -0.07474068 -0.13425604 -0.1645512
000110 ee a5 e1 ba 17 93 f3 3c 3f 5c 49 be 70 7d da bd
       -0.0017215589 0.029733224 -0.19664095 -0.106684566
000120 ff da 4e be d1 1c 90 3c e2 7b 0e 3b af dc 83 bb
       -0.20200728 0.017591866 0.002174132 -0.0040241103
000130 49 ae f2 bd 44 de 5f 3c a3 aa e6 ba 36 07 ef 3b
       -0.118496485 0.013663832 -0.0017598461 0.007294561
000140 86 1d d7 bd f2 94 0c bb 41 eb 10 be 6a 75 91 bb
       -0.10503678 -0.0021451083 -0.14152242 -0.0044390457
000150 57 ca 51 be cb 2e 67 be f5 72 cd bd 34 2d a6 bd
       -0.20487343 -0.22576444 -0.10031692 -0.081140906
000160 7e 1a 3a be 93 60 1c be 3c f7 23 be 8f 4b f4 bd
       -0.18174168 -0.15271215 -0.16012281 -0.11928474
000170 86 cd 6d bd d8 8d 22 bc 89 d3 e4 bd 42 8f d1 3a
       -0.05805733 -0.0099215135 -0.1117316 0.0015988129
000180 2b 07 fe bb 15 05 1f be 16 94 74 bb 10 bc b8 39
       -0.0077523193 -0.15529282 -0.0037319711 0.00035235332
000190 a1 5c 23 bb ac cb 33 bd b0 10 2c be cf 2f 2a be
       -0.0024927037 -0.04389541 -0.16803241 -0.166198
0001a0 5b 60 1d be 07 d6 07 be e2 c6 9d bd 1c f6 61 bc
       -0.15368788 -0.13265239 -0.077039495 -0.013791587
0001b0 23 d0 cf bd 5d b3 a0 bb 65 fc 99 be 17 b0 f0 3b
       -0.10147121 -0.0049041943 -0.30075374 0.0073452103
0001c0 53 a4 8d bd 60 84 23 be 5e 99 2f 3a ec 3f ad ba
       -0.06916108 -0.15968466 0.00066985737 -0.0013217903
0001d0 96 c7 b6 bd ae a2 ab bd 94 07 f4 bd 26 55 c9 bd
       -0.08924787 -0.08380638 -0.11915508 -0.09830694
0001e0 c5 25 08 be 57 b1 00 be 50 69 d3 bd ec 8c 02 3a
       -0.13295658 -0.1256765 -0.10322821 0.00049801054
0001f0 b8 56 0b be fb dc c4 b9 95 4e c0 bd f1 f6 eb ba
       -0.136073 -0.00037548676 -0.09389988 -0.0018002671

network.2.weight f4 [128]
000000 9f fd dd 3d 86 f0 dc 3d d4 96 03 3e 2d 4b bb 3d
       0.1083939 0.10788064 0.12850505 0.09145198
000010 36 25 fc 3a 00 56 5e bd b2 a3 ec 3d 1e 82 08 b9
       0.0019237164 -0.054281235 0.1155466 -0.00013018443
000020 2c 3e 3b 3b 8e 42 aa 3a ff 1f 8b 3d 03 93 f3 3d
       0.0028570993 0.0012989806 0.06793212 0.11893275
000030 85 dd c5 3d 2e 1f a0 3d 2c fa fa 3d 81 b9 11 bc
       0.09661392 0.07818447 0.12254748 -0.008894325
000040 69 53 a5 3d 10 aa e8 3d bc b7 1c 3e 9c f8 be bd
       0.0807255 0.11360562 0.15304464 -0.09324762
000050 b9 86 f7 3b d8 02 0c 38 9a af 50 3b 7c 29 19 3b
       0.007553902 3.338125e-05 0.0031842948 0.0023370674
000060 c8 42 6b 3b 49 04 f1 3a 0b 17 8e 3d 04 1b 94 bb
       0.003589796 0.0018388118 0.06937989 -0.004519822
000070 4a bc ed 3d 83 3f f0 3d 81 96 1e bb 75 7b f8 3d
       0.11608179 0.11730864 -0.0024198594 0.121329226
000080 3e 72 84 b9 92 ba f9 3d 0d ce af 3d 54 13 0f 3e
       -0.0002526212 0.121937886 0.08584223 0.13972217
000090 d9 68 11 ba 32 9b f3 3d 3f 09 57 b8 6b f4 f3 ba
       -0.00055469346 0.118948355 -5.1268606e-05 -0.0018612271
0000a0 65 63 0c bc 9b be e3 3d a7 8b 38 bc 7b 1a 95 3b
       -0.008568619 0.111203395 -0.011263764 0.004550276
0000b0 86 bf d0 3c fb aa 05 3e 82 60 c1 3d 5d 49 b8 3b
       0.02548195 0.13053505 0.094422355 0.00562398
0000c0 57 e7 12 3e 61 bc ef 3d 4e b2 8e 3a 12 df 04 3e
       0.14346062 0.11705852 0.0010886879 0.1297572
0000d0 c0 24 44 bc 81 9d bc 3d 6a b7 8b bd 1b 55 da 3d
       -0.0119716525 0.09209729 -0.06822093 0.10660764
0000e0 ea f8 d2 3d d1 13 c3 3a 9b 57 f8 3d 49 e9 0b 3e
       0.10301383 0.0014883225 0.121260844 0.1366321
0000f0 d1 e6 c5 ba e9 b7 0a bb c7 63 b6 3d 67 d4 f0 3d
       -0.0015098696 -0.0021166748 0.0890575 0.117592625
000100 73 b3 f7 3d 41 2f d0 3d 9d fc f6 3d ff 69 e3 3d
       0.12094774 0.10165263 0.12059901 0.111042015
000110 57 b5 3e 3a b0 8c 8b bd e5 b5 04 3e 47 80 f1 3d
       0.00072749465 -0.068139434 0.12960012 0.11792045
000120 fc ce b4 3d a3 d7 73 3d fa 88 95 3a 8d 82 c7 3a
       0.08828542 0.05953182 0.001140862 0.0015221402
000130 10 7b 07 3e eb 9f df 3d b6 9e f1 3a 20 b3 08 bb
       0.13230538 0.10919174 0.001843414 -0.002085872
000140 22 78 f5 3d c9 40 f5 bb b7 d7 d3 3d 5f 35 44 3b
       0.11985804 -0.0074845296 0.10343879 0.0029939038
000150 37 b4 b1 3d 88 40 db 3d df 97 05 3e 84 e9 10 3e
       0.086769514 0.10705668 0.13046215 0.14151579
000160 02 0b e9 3d 16 0a 0b 3e 1c f5 04 3e be 11 a9 3d
       0.11379053 0.13578066 0.12984127 0.08255337
000170 a2 ae e8 3d 55 c9 12 bc cb 74 ee 3d b2 79 00 ba
       0.113614336 -0.008959134 0.1164337 -0.00049009465
000180 d9 ed 31 b9 e7 c7 19 3d 74 ba 40 bb b8 9e b4 ba
       -0.0001696864 0.037544157 -0.002940801 -0.0013780212
000190 ee 98 bd bb 61 f6 a6 bd 5a 1f d9 3d 0c a9 bc 3d
       -0.005786053 -0.08152462 0.10601683 0.09211931
0001a0 66 95 c7 3d 55 b8 f6 3d 49 0c d9 3d 11 3d 2a 3a
       0.09745292 0.12046877 0.10598046 0.0006494085
0001b0 df a4 a9 3d 01 a0 f0 ba 14 fe 30 3e 57 fd d4 bb
       0.082834 -0.0018358232 0.17284423 -0.006499927
0001c0 b2 a5 1d 3e dd 68 b3 3d e3 d2 23 bb 9f ff 21 ba
       0.15395239 0.087602355 -0.0024997524 -0.0006179753
0001d0 e7 d3 1a 3e b3 77 ef 3d 5b bc 9e 3d 01 3c db 3d
       0.15119897 0.11692753 0.0775077 0.10704804
0001e0 22 00 9f 3d ce 09 be bd c1 84 d8 3d 4c 02 4f b8
       0.07763697 -0.09279214 0.10572196 -4.9354785e-05
0001f0 7c 42 dc 3d b4 32 6e ba 7f bf b2 3d 7e 6e 91 bb
       0.107548684 -0.0009086535 0.08727931 -0.0044382205

network.2.bias f4 [128]
000000 c1 83 44 3d b2 a6 60 3c 0a 6c 40 3d f2 bf 18 3d
       0.047977213 0.013711618 0.046978034 0.03729243
000010 fc 0b 6a 3a 5d 5c e3 ba ae d6 05 3d 72 ba f2 38
       0.00089281774 -0.0017346252 0.032675438 0.000115741874
000020 3f 25 44 3b f2 31 b7 b9 42 a9 3b 3c c4 f3 cd bb
       0.0029929427 -0.00034941692 0.011453928 -0.0062851626
000030 6d 27 20 3d f7 b3 21 3b 17 d4 57 3d 0f 9c 2f bc
       0.0391001 0.0024673918 0.0526925 -0.01071836
000040 02 f0 a8 bb 81 e5 22 3d b1 5f 6f 3d 9c 4d 87 bb
       -0.0051555643 0.039769653 0.058440868 -0.004129125
000050 12 8d 01 3c 97 14 e9 ba ee 6c 34 bc f8 29 d8 ba
       0.007907169 -0.0017782626 -0.011012299 -0.0016492
000060 8e a5 fa bb 25 f9 6e ba 86 32 e2 bb 16 91 8b 39
       -0.00764913 -0.0009116105 -0.0069029955 0.00026620243
000070 e0 7d 0d 3c a8 83 79 3c 18 12 00 3a a3 7c 5f 3d
       0.008635968 0.015229143 0.00048855087 0.054562222
000080 82 9f d0 b9 19 68 2e 3d 6b 0a b5 3c b9 34 06 3b
       -0.00039791694 0.042579744 0.022099694 0.0020478202
000090 cd 90 db ba 4b 16 3a 3d ca 10 34 ba fe 2c 54 b8
       -0.0016751528 0.045431416 -0.0006868957 -5.058664e-05
0000a0 64 94 f3 38 0e 01 e9 3c f7 2f 7d 3b 82 8a eb b9
       0.00011614783 0.028442886 0.0038633326 -0.0004492589
0000b0 42 a0 a6 bb 6f b1 00 3d 6e 08 e0 3b 95 84 fa ba
       -0.005085022 0.031419214 0.0068369424 -0.0019112999
0000c0 af f2 29 3d 46 b7 0f 3d 32 d5 27 3b 04 e9 b7 3c
       0.041491207 0.035086893 0.0025609252 0.022449978
0000d0 ef 7e 20 3b 52 a5 38 3c 7e c6 bc 3c 7b 8b 97 3c
       0.002448972 0.011269884 0.023043867 0.018499127
0000e0 60 c2 7b 3c e1 e6 96 3a 63 45 df 3c c5 ad 04 3d
       0.015366167 0.0011512899 0.027254766 0.032392282
0000f0 9d 15 83 ba 86 0c 82 bb 93 eb 8d 3c 2d d4 86 3c
       -0.0010000948 -0.003968778 0.017324245 0.016458595
000100 95 22 94 3c 8a d7 b1 3c 0e af f6 3c 3e 39 c2 3c
       0.018082896 0.021709222 0.03011277 0.023708936
000110 70 92 b8 3a 26 96 dc 3b d0 0b c6 3c 1e 8d 0c 3d
       0.0014081728 0.0067317663 0.024175555 0.034314267
000120 4f 29 71 3c e1 ab 8d bc ae 5b c1 bb 25 90 94 3a
       0.014719321 -0.017293872 -0.0059008216 0.0011334462
000130 23 57 1a 3d cf 2a 1a 3d 65 57 04 bb f4 13 52 ba
       0.037680756 0.03763848 -0.0020193693 -0.00080138375
000140 58 0c be 3c ba c8 3d 3a 9e 78 a9 3c e8 6c 99 bb
       0.023199245 0.00072396884 0.020687398 -0.004682172
000150 b2 2c 01 3b af 98 a3 3c f4 af be 3c 09 6c 29 3d
       0.0019710478 0.019970266 0.02327726 0.041362796
000160 44 7e c8 3c 91 93 3f 3d 27 71 33 3d 2e ea 0c 3c
       0.02447427 0.04677159 0.043809082 0.008600755
000170 d5 ec 3e 3d af d0 3c 3b b4 44 07 3d 4c be 2a ba
       0.04661258 0.0028810909 0.033024505 -0.0006513342
000180 7d df 65 ba 4d a7 3d 3c f8 8f e1 3a 67 eb a5 bb
       -0.0008768959 0.011575532 0.0017209044 -0.0050634625
000190 df 81 68 bb fb 93 14 bb a1 7b 43 3b 31 a5 2b 3c
       -0.00354778 -0.002267121 0.0029828327 0.010476396
0001a0 8e 9f ac bc 8d ea 6a 3d b1 3c 5d 3d 8b 05 63 3a
       -0.021072175 0.05735259 0.054012958 0.0008660189
0001b0 b4 d8 9c 3b 41 89 06 3a 43 46 21 3d 26 29 73 3b
       0.004786575 0.0005132147 0.039373647 0.0037103384
0001c0 46 e3 bb 3d 19 de 67 3c 23 04 6f bb b4 7b 1f bb
       0.09174208 0.014152073 -0.0036470972 -0.0024335207
0001d0 16 b8 bf 3d 6a fa 3a 3d ab 41 bc 3c 53 3e 44 3d
       0.093612835 0.04564897 0.022980532 0.047911
0001e0 1e f9 9c bc 46 e8 a2 bc a2 d6 5f 3d db 8e 99 bb
       -0.019161757 -0.019886147 0.05464805 -0.004686219
0001f0 ce bc a9 3c 8c b9 97 3a e7 a4 e0 ba b9 4b c9 bb
       0.020719912 0.0011575683 -0.0017138988 -0.00614306

network.2.running_mean f4 [128]
000000 88 f7 63 3d bb d3 68 3c 18 bd 21 3d d2 ff a9 3d
       0.055655986 0.014210637 0.039486974 0.08300747
000010 a4 6f ba 3c 71 59 18 3d fa 6e 0d 3d c6 eb cf 3b
       0.022758313 0.037194673 0.034529664 0.006345245
000020 13 e9 56 3c 64 ef d2 3c f3 72 f3 3c 6a 80 24 3d
       0.013117093 0.025748916 0.029717898 0.040161528
000030 0d 8f 3e 3d 31 1d 48 3d af b8 77 3d 45 bb f6 3c
       0.046523143 0.048855964 0.060478862 0.030118594
000040 89 8f c0 3c 2c 47 85 3d 1c 56 2f 3d d9 e2 a6 3c
       0.023505943 0.065077156 0.04280673 0.020371841
000050 62 9b d2 3c 2f cc 71 3b 3e db 26 3c fb 49 30 3c
       0.025708858 0.0036895385 0.010184107 0.010759826
000060 85 e4 29 3d f8 09 a7 3b a7 c7 04 3d fc 9e 84 3c
       0.0414777 0.005097624 0.032416966 0.01618909
000070 09 2f e0 3c 75 7e 17 3d 3f f0 9e 3c 43 1e 8a 3d
       0.027366178 0.036985833 0.019401668 0.06744053
000080 c8 6c f7 3b cf 1d 96 3d 8a dc d0 3c 8c 6a d1 3b
       0.0075508095 0.07329904 0.025495786 0.006390875
000090 36 1c 17 3c 81 dc 4e 3d a8 ed bc 3b 11 86 49 3c
       0.009223035 0.050503258 0.0057656355 0.01230003
0000a0 5e 5e 91 3c ae 23 74 3d 3a 86 7d 3c 1d 93 d5 3c
       0.017745193 0.05960434 0.015473897 0.026071126
0000b0 1a d2 9a 3d 55 89 64 3d b3 a1 00 3d 5e c7 91 3c
       0.07559605 0.055795033 0.03140421 0.017795261
0000c0 b8 64 1a 3d dd 15 3a 3d 2f 19 b5 3c ff e8 af 3c
       0.03769371 0.045431007 0.022106735 0.021473406
0000d0 30 bf cd 3c e8 1e 16 3d 5c 78 07 3d 82 e0 15 3d
       0.02511558 0.03665057 0.033073768 0.03659106
0000e0 2c 0d 0c 3d bc 2f 98 3c d7 8e 2c 3d 7e 82 da 3c
       0.03419225 0.018577449 0.04212841 0.026673552
0000f0 d0 0f 67 3c 6c 1e da 3c 05 af 95 3d 09 90 21 3d
       0.014102891 0.026625834 0.07308773 0.039444003
000100 bf ea 1e 3d bc e4 85 3d c4 1f e9 3c 31 ed 48 3d
       0.03879809 0.06537768 0.02845753 0.04905433
000110 47 21 88 3c fb b1 d4 3d 27 43 97 3c 3d c0 69 3d
       0.01661743 0.103855096 0.018464638 0.0570681
000120 12 50 da 3c a0 cc c1 3d ea 1e b6 3c 90 f2 9f 3c
       0.026649509 0.09462857 0.022231538 0.019524843
000130 e5 9f 50 3d c8 30 d7 3d 4c 60 32 3c c6 d9 78 3c
       0.050933737 0.10507351 0.010887217 0.01518864
000140 46 c7 3a 3d 6d 69 72 3c 04 36 0d 3d 21 c9 e1 3c
       0.0456002 0.014795643 0.03447534 0.027561726
000150 83 72 b1 3c 7c cf 93 3c d1 0f 4b 3d 31 2c 7d 3d
       0.021661049 0.018043272 0.04957563 0.061809722
000160 ef da 9e 3c 9c 80 49 3d 0a 8e 42 3d 6c 1b da 3c
       0.019391505 0.049194917 0.04749874 0.026624404
000170 c2 f8 7b 3d da 08 22 3d 44 d5 43 3d e1 99 0f 3d
       0.06151653 0.039559223 0.047810808 0.03505886
000180 e2 6f 36 3c 18 4f 77 3c 88 86 93 3c e3 2e 9e 3c
       0.011135073 0.015094541 0.018008485 0.019309467
000190 48 29 53 3c ff 08 85 3d 8c e7 a6 3c 0c de 4b 3c
       0.01288826 0.064958565 0.020374082 0.012443077
0001a0 9c d5 bb 3c 23 75 2d 3d 7c 45 90 3d 11 6f ff 3b
       0.022929005 0.04234804 0.07044503 0.0077952226
0001b0 c5 6a ea 3c 2a e6 e9 3c 56 0d e0 3c bd 1e dd 3c
       0.028615365 0.028552134 0.02735011 0.026992196
0001c0 89 c2 96 3d f2 bc 78 3c bb 78 ba 3c 5f 65 b0 3c
       0.073613234 0.015181767 0.022762647 0.021532713
0001d0 aa e2 91 3d 2f 47 91 3d 95 cd af 3c 24 83 65 3d
       0.07123311 0.07093655 0.021460334 0.05603327
0001e0 36 24 e2 3c 7f 9e d9 3c 88 c7 33 3d c0 e9 97 3c
       0.027605157 0.026564835 0.04389146 0.018544078
0001f0 89 1a ee 3c 75 b7 a1 3b e9 19 81 3d d3 e7 38 3d
       0.029065387 0.0049352 0.0630377 0.04514296

network.2.running_var f4 [128]
000000 da eb 34 3c 81 a0 2d 3b d4 11 39 3b 83 d3 04 3c
       0.0110425595 0.0026493373 0.0028239386 0.008107069
000010 cb 90 f7 3a d9 6c 2b 3c a8 59 4f 3b 1a 66 1f 39
       0.0018887756 0.010462963 0.0031639133 0.00015201457
000020 e4 2a 7b 3a f0 77 eb 3a b1 ce 17 3d 2e 52 a6 3b
       0.00095812813 0.0017964821 0.03706235 0.0050757146
000030 24 76 91 3b 74 0d 21 3c 5f 88 e6 3b e9 6f fd 3a
       0.0044391323 0.009829868 0.0070352997 0.001933572
000040 c7 23 23 3b 86 12 fe 3b b2 18 6e 3c 33 dd bc 3a
       0.002489315 0.007753673 0.014532255 0.0014409184
000050 37 17 b0 3b 46 81 05 39 c0 8f 19 3b 4d 3d 37 3a
       0.005373861 0.00012732027 0.002343163 0.00069900305
000060 b0 fa 25 3c 9a 73 ec 38 59 e6 d8 3b b3 2b 30 3a
       0.010130569 0.000112748894 0.0066192565 0.0006720379
000070 58 1c 03 3b 3f 03 95 3b c3 29 f2 3a 8f e4 9b 3c
       0.0020005908 0.004547506 0.0018475581 0.019029884
000080 12 8f b8 38 4a 33 6b 3c 06 be 9f 3b c0 5e da 3a
       8.8004526e-05 0.01435549 0.0048749475 0.0016660318
000090 f7 53 aa 39 89 5b b3 3c 97 5c 2e 39 7c e0 1f 3a
       0.00032487485 0.021894233 0.00016628426 0.00060988194
0000a0 5c 54 ae 3b 1f 3d 25 3c 3c 73 e4 3a 71 e8 0a 3b
       0.005320115 0.010085373 0.0017429362 0.0021195675
0000b0 a1 6b a6 3c 4e ec 63 3c 91 41 22 3b 97 96 59 3a
       0.020314993 0.01391132 0.002475832 0.00083003327
0000c0 1d 17 59 3c ee 31 57 3c 60 d8 2e 3a 62 5d df 3a
       0.01325014 0.013134463 0.00066698156 0.001704138
0000d0 63 e7 45 3b b8 4f d9 3b 6a eb bf 3b e9 4c a4 3b
       0.0030197732 0.0066318177 0.005856921 0.005014051
0000e0 19 6f a7 3b 22 9e 42 3b 64 f9 2b 3d 51 0d 1f 3b
       0.0051096794 0.0029696305 0.041985884 0.0024269412
0000f0 5d a2 91 39 0d 4f 88 3b d8 b4 2c 3c cc b9 a2 3b
       0.00027777525 0.004159814 0.010541163 0.0049659964
000100 28 24 9a 3b 8a 12 fa 3c 89 2f 98 3b 84 c2 ae 3b
       0.004704017 0.030526418 0.0046443385 0.0053332467
000110 bd 6d 58 3a d2 43 54 3c 0d a3 55 3b 9e f8 de 3b
       0.00082560984 0.012955623 0.0032598407 0.00680454
000120 ed 3d f5 3b 85 87 19 3c 62 66 f2 3a 05 a7 e7 3a
       0.007484189 0.009370689 0.0018493647 0.0017673677
000130 e6 4a 98 3b 61 c6 37 3c d6 58 f3 39 4a da 3c 3a
       0.0046476005 0.011216731 0.0004641476 0.00072041585
000140 4c 7f 25 3c 75 21 e1 3a 54 2d a0 3b d0 ec b2 3a
       0.010101151 0.0017176109 0.004888216 0.0013650898
000150 ba 6b 11 3b a0 b4 2e 3b 19 11 d6 3b 0d 17 49 3d
       0.0022189454 0.0026657954 0.0065328 0.04909425
000160 d1 ee 09 3b b9 3a a4 3b 36 ab bd 3c af f0 fe 3a
       0.0021046887 0.005011883 0.023152929 0.0019450391
000170 58 e7 bc 3b f0 49 5f 3c 0c dc b9 3b a0 08 b2 3b
       0.005764883 0.013628468 0.0056719836 0.005433157
000180 64 e5 61 3a cd 19 f1 3b 5d 54 38 3b fb 07 32 3b
       0.0008617251 0.007357812 0.0028126456 0.0027165401
000190 a3 33 ac 3a bd 74 10 3d b3 71 23 3b e9 cf 6b 3a
       0.0013137948 0.03526758 0.0024939596 0.00089955196
0001a0 f2 00 34 3b 99 62 9f 3b 3c ce c4 3b b2 56 86 3a
       0.0027466384 0.0048640487 0.0060060304 0.0010249226
0001b0 67 78 ad 3b 9a 10 88 3a b5 bc 12 3b 21 03 26 3b
       0.005293894 0.0010380924 0.002239031 0.0025331455
0001c0 ec 13 e7 3b 8a 91 33 3b 2b 90 e3 3a 1e f8 26 3a
       0.0070519354 0.002739998 0.0017361691 0.000636937
0001d0 db 92 ec 3b b1 68 08 3c e6 a0 56 3b 33 c5 ae 3b
       0.007219655 0.008325742 0.0032749712 0.0053335666
0001e0 1f ce 6e 3b 6a 9d 94 3b c7 3b a7 3b c2 de 57 3b
       0.0036438776 0.004535367 0.0051035616 0.003293917
0001f0 29 21 1e 3c 87 dc 25 39 6e 25 51 3c 43 2b 2d 3c
       0.009651461 0.00015817779 0.012765272 0.010569396

network.4.weight f4 [64, 128]
000000 8a 32 d6 bc 93 67 81 bb 44 2d c9 bb f8 19 27 bd
       -0.026147146 -0.0039491146 -0.0061394293 -0.04079625
000010 b6 62 a4 3b 1b 6e ad bc e9 20 1d 3d ee 0c 09 3a
       0.00501665 -0.021170666 0.038361464 0.0005228062
000020 ac 1d b3 3b 05 47 e6 ba 36 c6 d1 bd c2 49 9a bc
       0.0054661836 -0.0017568773 -0.10242884 -0.018833999
000030 6a f9 3d bc 94 26 91 bb 1e cd cc bc 59 24 8a bb
       -0.0115951095 -0.0044296477 -0.025000151 -0.0042157588
000040 28 8c 01 3d 73 15 33 bd 6c 7f 79 bc 8b 26 9f bb
       0.031627804 -0.043721627 -0.015228134 -0.0048568896
000050 ba d6 a6 3c 9c d6 e1 ba cf 07 d1 bb 02 3c 2a 3b
       0.020366061 -0.0017230096 -0.0063791047 0.002597571
000060 77 ff 9d bc 1c 4d 9b b7 25 84 18 bd 88 f3 46 3c
       -0.019286854 -1.8513347e-05 -0.037235398 0.012143023
000070 ea bd a3 3a 90 4c 89 bd b6 fc 9a 3b 45 68 ea bc
       0.0012492512 -0.06704056 0.0047298325 -0.028614173
000080 39 d2 10 bb 0f 94 b4 b9 6f bd c6 3c 63 da 8a 3b
       -0.0022097959 -0.00034442588 0.02426025 0.0042374595
000090 54 a4 2b bb e6 7f 9a 3b e9 29 12 3c aa 01 cd bb
       -0.0026190476 0.0047149537 0.008921125 -0.006256302
0000a0 e9 77 73 3b a6 a2 70 bd e7 fe 44 bc fb 67 17 bb
       0.003715033 -0.058748864 -0.012023664 -0.0023102749
0000b0 1c 21 8f 3c 32 76 71 bd b5 a3 ca 3b 2a ca 26 3c
       0.017471842 -0.05895061 0.006184066 0.010180036
0000c0 d0 96 3f bc b7 0f 60 bd 8f b4 63 3a ef 1f 63 3b
       -0.011693671 -0.054702487 0.0008686268 0.0034656485
0000d0 37 b3 33 bc 4d 6a 1e bd 00 8b 06 bd 9b ce 37 bd
       -0.010968021 -0.038675595 -0.032847404 -0.04487477
0000e0 09 f8 1c 3c 9a 94 cd 3a d9 3a 94 bd 29 a1 e6 bc
       0.009580621 0.0015684546 -0.07237787 -0.028153019
0000f0 4a 98 13 3b df 92 a7 ba 80 a1 41 3c 08 76 a5 3b
       0.0022521191 -0.001278486 0.01181829 0.005049471
000100 51 56 d6 3c 2e a1 cb 3b 65 fc 2a bd 12 24 e3 bc
       0.026164206 0.0062142825 -0.04174461 -0.02772716
000110 2a 61 70 bb d1 53 c0 3b 56 57 c7 bb 96 70 99 bc
       -0.0036679008 0.0058693667 -0.0060834093 -0.018730443
000120 1b 01 de bc 18 17 40 3c 03 93 6b 3b c8 1c ad 3a
       -0.027100137 0.011724256 0.003594578 0.001320743
000130 4c 7b b2 bc ba 18 5b bc a7 42 40 bb ac 45 8c 3b
       -0.021787308 -0.0133725945 -0.0029336603 0.0042807665
000140 f7 05 89 bd f2 8a 6d bc d0 b1 23 3b 5d 3b 07 bb
       -0.06690591 -0.014498459 0.002497781 -0.0020634749
000150 8b a1 b1 bc 27 53 49 bd 8c 4b f7 bc e5 57 fe bc
       -0.021683475 -0.049151566 -0.03018739 -0.03104777
000160 f3 18 ad bc 9d ea 11 3c 64 cf b1 bc 51 57 0e 3d
       -0.02113006 0.008906034 -0.021705337 0.03475124
000170 5b 9e 83 3c de f1 f5 bc a6 30 6f bd 93 82 06 3c
       0.01606672 -0.030022558 -0.058396004 0.008209842
000180 f9 b6 86 bb 47 86 cf bb f1 97 f8 bb 11 8f dc 3b
       -0.0041111675 -0.006333146 -0.007586472 0.006730922
000190 4e f9 d8 ba 6f 18 aa bc 06 2d 25 bb 2a 62 51 bd
       -0.0016553791 -0.020763604 -0.0025203838 -0.051119007
0001a0 3f 72 0e bb ae 38 8c bc 24 96 90 bc be 51 85 bb
       -0.0021735576 -0.01711687 -0.017649718 -0.0040685823
0001b0 5a 2c 02 bd 64 32 b0 3b 0c 1b cb 3b 88 df 40 bb
       -0.03178058 0.005377101 0.0061982926 -0.002943011
0001c0 46 cc 08 bd 3e e3 9e bd 54 35 06 bc 78 37 83 3b
       -0.033397935 -0.07758187 -0.008191425 0.004004415
0001d0 ea 0f 17 bc 5e 35 66 bd 61 b1 b5 bd 4c 09 92 bc
       -0.009220103 -0.05620324 -0.08871723 -0.017826699
0001e0 a4 e8 24 3d 33 80 5e bc 67 78 40 bd a3 07 66 bc
       0.040260926 -0.01358037 -0.046989825 -0.014039907
0001f0 81 2a 83 3c 8e eb 80 3b 3d 3e cd 3c 89 4b 98 bc
       0.016011478 0.0039343303 0.025054092 -0.018590705
000200 12 e4 0c 3d ca 26 e9 3a da 9a c6 bb 84 84 17 bb
       0.034397192 0.0017788049 -0.00606094 -0.0023119757
000210 d0 92 a7 3a bb 74 a0 3b fe 38 80 bd 88 7d b2 3a
       0.0012784842 0.004896728 -0.062608704 0.0013617733
000220 7d 7c 47 bb de a9 35 bb 0b ce f3 bb cf b7 e1 bd
       -0.003043919 -0.0027719657 -0.0074403337 -0.11021387
000230 0a 90 27 bd e4 0c a5 3c c5 ab 0c 3d 75 67 63 bc
       -0.04090885 0.020147748 0.0343435 -0.013879647
000240 84 00 c6 bc 29 2a 53 bc eb ca 99 3b 7f c9 22 3d
       -0.024170168 -0.01288847 0.004693379 0.039742943
000250 a5 db 01 3c e3 22 c0 b9 4a 2b 3c bc 41 f8 ed 3b
       0.0079259025 -0.00036647086 -0.01148493 0.00726226
000260 3d 5f cb bc 3e e9 cf 3a 1e 33 3b 3c 32 7b c4 3b
       -0.024825687 0.0015862358 0.0114257615 0.0059961313
000270 64 99 aa 3b 4f c2 ee bd 67 2d 79 3b 46 b2 36 3c
       0.005206274 -0.11658155 0.0038021447 0.011150902
000280 0a fa 1d bb 4b 97 c6 3b d9 9b a5 bd 8f 35 b4 3a
       -0.0024105334 0.006060516 -0.08086366 0.0013748872
000290 f3 c7 b9 3b b4 44 e0 3c 46 c6 08 ba f7 db 11 bb
       0.0056695878 0.02737651 -0.00052175333 -0.0022256353
0002a0 38 cc 99 bc f5 6e e6 3b 3b 55 5a 3c dc eb c2 bb
       -0.018774137 0.00703227 0.013325985 -0.005948527
0002b0 2e 6b 4a 3b 0f cc 36 3d 26 a1 c5 bc bb 67 1c ba
       0.0030886638 0.0446282 -0.024124693 -0.0005966385
0002c0 e4 37 bb bc 06 b6 0d bc f4 e4 a4 bb 96 7d 80 3c
       -0.0228538 -0.008649355 -0.005032176 0.015684884
0002d0 2e 6f c8 ba 79 8b b1 3b 5f 67 f8 ba c4 59 46 bd
       -0.0015291923 0.0054182378 -0.0018951705 -0.04842545
0002e0 1f b6 57 bc e1 a4 de 3b a6 89 aa bc 55 22 8a bc
       -0.01316598 0.0067945574 -0.020817589 -0.016862074
0002f0 18 6b b4 b9 73 fa 86 bc 12 83 18 bd fb 5e 88 bd
       -0.00034412066 -0.016476845 -0.037234373 -0.06658741
000300 64 3e d7 bd 4b eb 5f bd cc 6c f8 bb 02 73 a6 3c
       -0.10509947 -0.054667752 -0.007581329 0.020318512
000310 73 ab 64 bc d6 54 96 3d 84 b3 09 bd 9d 32 90 bb
       -0.013956892 0.073404 -0.033618465 -0.004400565
000320 0a e4 4b 3b 11 f4 85 bd 2b 22 a7 3a 08 c5 8d bb
       0.0031111264 -0.065406926 0.0012751272 -0.0043264665
000330 95 93 58 3c d1 f6 a6 bc b8 ba 27 3c 08 9d 50 bb
       0.01321878 -0.020381363 0.010237388 -0.003183188
000340 72 f3 87 3c f2 88 a2 3b 72 49 91 bd 34 5b 9d 3b
       0.016595576 0.004960173 -0.07094087 0.004802132
000350 26 90 91 bd 8f c1 cb bd 5b 3c c9 bc 90 2e 24 3c
       -0.07107572 -0.09949028 -0.024564913 0.010020867
000360 04 8e 8a bc f5 b8 5f bd 5f 69 15 3d 7c 97 b0 bd
       -0.016913421 -0.05461975 0.036477443 -0.08622643
000370 2e cf 13 bc 0b 2b 6c bc 0e 33 bb bd 5f 43 c6 bb
       -0.009021563 -0.014414559 -0.09140597 -0.0060505117
000380 c2 1e 69 3b c5 ae 65 bd df 85 e8 3a 27 39 c1 bb
       0.0035571312 -0.056074876 0.0017740092 -0.0058967057
000390 75 83 ce bb 73 a5 a1 3c a9 e7 21 bd 84 c4 3a bd
       -0.006302292 0.019732213 -0.03952757 -0.04559757
0003a0 2d 6f 0e bd 4e 36 9e bc 38 de 50 3c 6f d1 5f 3b
       -0.034773994 -0.019313004 0.012748294 0.0034151932
0003b0 6d c1 34 3d 26 44 f5 3b 5f 17 3e 3d 3d 60 21 bc
       0.044129778 0.0074849306 0.046409007 -0.009849605
0003c0 8e 27 54 3c ea f1 46 3c 93 b7 01 3b d3 ec 8a bc
       0.012948884 0.012142638 0.0019793257 -0.01695863
0003d0 8c 1a cc 3a a1 2b cb bc 62 41 44 bc 6e a1 8c bc
       0.0015571876 -0.024801077 -0.011978479 -0.01716682
0003e0 88 cf b9 bd 14 5a a0 3b da 7e 1a 3d 5d 23 a2 bc
       -0.090727866 0.0048935506 0.03771863 -0.019792253
0003f0 81 f6 5a bb e3 68 62 3b f7 9d d6 bc 7e 62 a0 bb
       -0.0033411088 0.003454738 -0.02619837 -0.0048945537

network.4.bias f4 [64]
000000 15 d3 d7 bc f0 6c 0e bc bc d4 f2 3b 76 b0 32 bc
       -0.026345769 -0.008692965 0.007410614 -0.010906329
000010 27 f1 3f bc 72 ba f4 3a 14 cf 73 bc 40 46 a8 bc
       -0.01171521 0.0018671288 -0.014880914 -0.02054131
000020 b2 21 53 bc a2 38 63 bd 8b 3b 38 bd f1 22 ba bb
       -0.012886452 -0.05547393 -0.04497866 -0.005680435
000030 af 57 51 b3 a9 3c 54 bd 70 c5 b0 3a 51 4f 56 bd
       -4.8741352e-08 -0.051815663 0.0013486575 -0.052321736
000040 86 2c ab 3c 4e 69 5b bd 57 a7 05 3d 0b 9f 57 bc
       0.020895254 -0.053567223 0.03263029 -0.013160477
000050 08 23 f6 bc 5f cf b9 bd e6 f0 84 bd 6a b7 14 3d
       -0.030046001 -0.09072756 -0.0649126 0.03630773
000060 65 a9 10 3c 30 14 bc 3b d8 1d aa bc a0 dd 8d 3b
       0.008829449 0.005739711 -0.020766184 0.0043293983
000070 37 18 86 bc 79 85 46 3a 48 94 dd 3c c6 e0 59 bd
       -0.016368968 0.00075729896 0.027048245 -0.053192876
000080 00 2b 70 bd c0 ac 89 ad dc fa e9 3a b7 4f 16 3c
       -0.058634758 -1.5651813e-11 0.0017851251 0.009174279
000090 ad 55 56 bd 87 82 1f 3d 79 d4 f2 ba 7a 84 e4 bc
       -0.0523278 0.03894284 -0.0018526457 -0.027895201
0000a0 79 73 30 bd 24 3f 91 bc dd 44 c3 ba 03 49 50 bc
       -0.043078873 -0.017730303 -0.0014897842 -0.01271272
0000b0 09 6f 58 bd 9e 03 91 3c af ff 32 bd 6f ae 48 3c
       -0.052840266 0.01770192 -0.04370087 0.012248619
0000c0 79 ec 10 bd d2 b6 4b ba 89 12 e8 bc 05 2c 00 b3
       -0.035381768 -0.0007771078 -0.02832915 -2.9842358e-08
0000d0 ec c5 83 bc 24 93 84 3a 31 25 14 bd 9d 9a 79 bd
       -0.016085587 0.0010114652 -0.03616828 -0.060938466
0000e0 1c 8d e3 bb 84 40 d9 ba 1c 6a 5f bc 68 50 44 bd
       -0.006944312 -0.0016575013 -0.013636138 -0.047928244
0000f0 7d 90 94 3c 2d dc 6b bc d7 08 55 bb 4e 17 2d 3c
       0.018135304 -0.014395756 -0.003250649 0.010564638

network.6.weight f4 [64]
000000 fd 61 21 3e 9b 02 c1 3d 0c 0b c6 3d da 25 a7 3c
       0.15760036 0.09424325 0.09670076 0.020403791
000010 8d 0e d0 3d bb 20 c5 bd 61 dc 23 bb 48 83 ef bd
       0.10159025 -0.096253835 -0.0025003182 -0.11694962
000020 00 a2 f2 3d e8 74 cf bd f3 61 07 3e 7c 66 e5 bd
       0.11847305 -0.1012972 0.13220958 -0.11201188
000030 3d 52 cc b9 d7 18 df 3d c6 0a ee bd 05 6c f2 bd
       -0.00038971184 0.1089341 -0.116231486 -0.11837009
000040 2c 74 98 bd 59 a9 b1 3d d6 7d ad 3d c0 40 08 3e
       -0.07444033 0.086748786 0.08471267 0.1330595
000050 56 5a c6 3d 8e 08 4b 3e 6c 05 9b 3d 7c a2 b9 3d
       0.09685199 0.19827482 0.075693935 0.090641946
000060 01 fa a2 bd 6b b9 bb bd de cf f3 bd 54 cc dd 3d
       -0.07957841 -0.09166225 -0.11904882 0.10829988
000070 df 68 db 3d 7d 98 ae 3d fb bb b5 3d 97 ff 2f 3e
       0.10713362 0.085251786 0.08873745 0.17187344
000080 a4 d9 9d 3d 88 4c db b6 51 da dd 3d e4 61 d8 3d
       0.07707527 -6.535618e-06 0.10832656 0.10565546
000090 92 c5 2e be 34 25 42 3d 89 51 a9 3d 45 c2 32 bb
       -0.17067555 0.04739876 0.08267505 -0.0027276438
0000a0 36 b3 0b be 08 23 d5 3d 89 9b ba bd 61 fe dc ba
       -0.13642582 0.10407072 -0.09111697 -0.0016860479
0000b0 ad 49 b6 3d 1b f0 d6 3d 19 55 2c be f8 9e ab bd
       0.08900771 0.10495015 -0.16829337 -0.0837993
0000c0 de 7b 0d be 9e ac 43 b5 85 49 0e 3e 86 c4 37 b9
       -0.13816783 -7.289435e-07 0.13895233 -0.0001752545
0000d0 cc c1 14 3e a2 f5 84 bc ab a9 cc 3d 10 06 2c 3e
       0.14527053 -0.016230408 0.09993299 0.16799188
0000e0 45 2a d6 3d 94 c1 f0 3d ee 1b e2 3d 3a c6 2f 3e
       0.10457281 0.11755672 0.110404834 0.17165461
0000f0 c8 48 a5 3d 3c 9e 8c bd 0f 21 1e bb 6d ce e1 3d
       0.080705225 -0.06866118 -0.0024128591 0.11025701

network.6.bias f4 [64]
000000 4f 2d 67 bc 96 a5 06 3c 47 fd 1d 3c c0 11 c0 3b
       -0.0141099235 0.00821819 0.009642906 0.005861491
000010 e8 6d b9 3c 73 e5 08 bd 70 3b 91 3b 6c 8a 34 3a
       0.022635415 -0.033421945 0.0044321343 0.00068870815
000020 ef ed e2 3c b0 92 7f 3c e6 be 37 3b 27 a8 35 bc
       0.027701346 0.015598938 0.0028037368 -0.011087454
000030 0c 81 72 ba cf a6 25 bc b0 f5 7d bc 40 e6 79 3b
       -0.0009250797 -0.010110571 -0.015500471 0.0038131624
000040 7e c7 42 3d d7 71 b8 3c 38 36 fd 3c 25 6b d3 3c
       0.04755353 0.02251522 0.030909643 0.025807926
000050 9c 95 38 3c dc 2c 65 3c 7d 29 63 3c bb da 56 3c
       0.011266138 0.013987746 0.013864872 0.013113673
000060 19 b1 48 bc 8a 6e aa bc 14 9d 95 bc 8b c0 18 3d
       -0.012249255 -0.020804662 -0.018263377 0.037293
000070 e1 01 d0 3c 66 2d b4 bb 65 37 97 bc e2 e2 ea 3b
       0.025391521 -0.005498576 -0.018459031 0.00716816
000080 c8 0f ae 3c 2f c5 9a 3b ed 35 0b 3d 27 67 d5 3c
       0.02124776 0.004723213 0.033986975 0.026050163
000090 35 cb 4a 3a 02 21 b2 bb 7d 0e 3b 3c e5 24 0c 3d
       0.00077359687 -0.0054360637 0.0114170285 0.034214873
0000a0 42 bf dc 3c 41 5c 18 3d e1 61 9a bc 12 e3 fa 3b
       0.026946668 0.037197355 -0.0188455 0.0076564634
0000b0 90 eb ab bb ff 46 ec 3c 2f 77 4c 3c f7 25 47 bd
       -0.005246587 0.028842447 0.012479587 -0.04862019
0000c0 17 b7 85 bc 29 dc e7 bb 32 db eb 3c dd 80 1d 3c
       -0.016322656 -0.0070758057 0.028791044 0.009613243
0000d0 9f 2f f1 3c 6a c5 91 3c 32 b3 8a 3c df e8 9a bc
       0.029441653 0.01779433 0.01693115 -0.01890987
0000e0 13 97 60 3c d0 7e b5 3c fc 25 c2 3c 6c 4a 18 bd
       0.013707894 0.022155195 0.023699753 -0.03718035
0000f0 cc 0b e6 3c ac a0 85 3c d3 ee 8a 3a d9 5f a1 bc
       0.028081797 0.016311966 0.001059974 -0.019699024

network.6.running_mean f4 [64]
000000 a1 e9 38 3b 1f 98 92 3c 0c f0 1d 3c b3 ec ad 3c
       0.0028215426 0.017894803 0.009639751 0.021231031
000010 d4 c1 45 3c 21 7b 0a 3d 2e 43 0d 39 9e 3c de 3b
       0.012070138 0.03380883 0.00013471834 0.0067821285
000020 77 3d 65 3c 89 ce 97 39 9f f0 4d 3a 89 11 07 3c
       0.013991705 0.00028954845 0.0007855985 0.008243927
000030 04 00 00 00 73 f1 fd 39 8e c4 3c 3c 01 ba f6 39
       6e-45 0.00048435814 0.011521472 0.0004705936
000040 bd 8a 80 3c 99 08 09 3d 30 7f 92 3d f0 d9 71 3c
       0.015691156 0.033455465 0.07153165 0.014761433
000050 ef 83 b5 3b 00 8a 49 3a 27 c3 bc 3c 76 b6 07 3d
       0.0055394094 0.0007688105 0.023042275 0.033132993
000060 d9 c3 68 3c cf 42 49 3c 06 6b d7 3b 08 4b af 3c
       0.01420685 0.012283995 0.0065740375 0.021398082
000070 c5 62 c4 3b 17 50 9c 3c 5a 55 32 3d 54 31 33 39
       0.0059932196 0.019081159 0.04353843 0.00017089146
000080 51 02 6b 3c 04 00 00 00 74 d3 c9 3c 2c 93 97 3c
       0.014343814 6e-45 0.024636962 0.018502794
000090 12 11 27 39 ee 0a d4 3c cb 47 5b 3c 04 00 00 00
       0.0001593272 0.025884118 0.013383816 6e-45
0000a0 95 1e 04 3a 43 4d ed 3c 3e a6 9b 3c 10 ae cb 3a
       0.00050399575 0.028967505 0.019000169 0.0015539546
0000b0 37 b3 b0 3a 8b 4e cb 3c c8 5e 9b 39 87 fd 0a 3d
       0.0013481145 0.024817726 0.0002963452 0.03393319
0000c0 de 4f 8f 3b 04 00 00 00 c8 58 d6 3b ab b3 74 02
       0.0043735346 6e-45 0.0065413453 1.7977851e-37
0000d0 f1 5a ab 3b 34 fa fd 3b ed ce 56 3a 81 8a 49 39
       0.005229347 0.007750774 0.00081942865 0.0001922045
0000e0 13 70 1d 3c 5c 48 6a 3c 38 ed ae 3c 47 5a 9b 39
       0.00960924 0.014299478 0.02135335 0.00029631166
0000f0 c6 2f 38 3d e9 df bf 3b 04 00 00 00 a9 aa 7a 3c
       0.044967435 0.0058555496 6e-45 0.015299478

network.6.running_var f4 [64]
000000 7a de e9 38 26 96 61 3a 77 86 b9 39 a8 bb 95 3a
       0.00011151745 0.00086054427 0.00035386134 0.0011423724
000010 cf be 1d 3a 9b 54 f1 3a f3 68 23 36 dd fd 92 39
       0.00060175074 0.0018412055 2.4349981e-06 0.00028036433
000020 7b c7 0c 3a 43 91 a5 37 b7 81 23 38 ec 3b d4 39
       0.0005370301 1.9737176e-05 3.8983035e-05 0.00040480436
000030 04 00 00 00 ad ae e2 37 48 ee 18 3a 04 f2 07 38
       6e-45 2.702264e-05 0.00058338465 3.2411903e-05
000040 fa 6d 26 3a f5 42 35 3b 93 76 57 3b 4e cb 5e 3a
       0.0006348785 0.0027658318 0.0032877072 0.00084989227
000050 39 4a 8a 39 a8 90 af 37 3c ea bf 3a e8 b5 a9 3a
       0.0002637671 2.0928986e-05 0.0014641951 0.0012947889
000060 31 6d 20 3a d4 09 2b 3a 18 e3 8d 39 e6 59 74 3a
       0.00061197864 0.0006524597 0.00027062814 0.0009321257
000070 ff 72 74 39 44 07 54 3a f7 e9 e8 3a 52 a0 6b 37
       0.00023312493 0.0008088241 0.0017769922 1.4044419e-05
000080 1a 80 6b 3a 04 00 00 00 30 06 a2 3a 2f ad 78 3a
       0.0008983627 6e-45 0.0012361463 0.00094862556
000090 a4 44 47 37 10 a2 6a 3a f9 31 0c 3a 04 00 00 00
       1.1877306e-05 0.0008950541 0.00053480227 6e-45
0000a0 7a 42 a9 37 3a 7a ee 3a 57 12 49 3a 65 2c fc 37
       2.0177325e-05 0.0018194385 0.00076702744 3.0061414e-05
0000b0 58 e4 90 38 93 d4 8f 3a f4 6f 96 37 02 27 14 3b
       6.9089874e-05 0.0010973386 1.7933526e-05 0.0022606258
0000c0 60 15 27 39 04 00 00 00 02 e7 a1 39 af f9 00 00
       0.00015934324 6e-45 0.00030880427 8.957e-41
0000d0 63 b4 2e 39 45 19 3f 39 d7 84 90 37 a5 a3 58 37
       0.00016661132 0.00018224593 1.7227996e-05 1.2912705e-05
0000e0 bd e8 cc 39 42 db 09 3a 3e b9 b0 3a c8 bf 9a 37
       0.00039083316 0.0005258807 0.0013482941 1.8447536e-05
0000f0 5b a7 14 3b 3a 87 49 39 04 00 00 00 d8 00 2b 3a
       0.002268276 0.0001921923 6e-45 0.0006523258

network.8.weight f4 [32, 64]
000000 78 ae fc bc cc e7 c3 bb aa ec 0f 3d 7f 76 ed 3a
       -0.030844912 -0.00597856 0.03513781 0.001811698
000010 16 54 ff 3a 3b 7c 0a 3d af e0 1c 3b 3d f7 c0 bc
       0.0019480016 0.03380988 0.0023937633 -0.023555392
000020 23 6f 8d bd 33 f0 41 3d 71 11 e4 3c ad 9b e9 3b
       -0.06905963 0.047348212 0.027840348 0.0071291537
000030 19 f9 95 3b 4d 3f 30 bd 9c 84 e4 bb c3 70 0d 3d
       0.004576814 -0.04302912 -0.006973816 0.034531366
000040 dd 60 1a bd 40 de 83 bd 7c d0 c9 bb 40 f7 19 3c
       -0.037690032 -0.06438875 -0.0061588865 0.009397328
000050 95 70 ad 3c 7d dc cd 3c 94 87 d2 ba 5c 43 a8 bd
       0.021171847 0.025129551 -0.0016062134 -0.08215973
000060 8d e6 ad bc 6b 62 c5 3d 16 22 c5 3a 98 59 91 bd
       -0.0212281 0.09637912 0.0015040066 -0.07097167
000070 32 32 98 bd b4 cd 34 bd 00 db 8a 3c b1 69 24 bd
       -0.07431449 -0.044141486 0.01695013 -0.040139858
000080 58 0b a9 bd fc 93 d0 3a f1 0a 82 bd e4 47 a3 bd
       -0.08254117 0.0015913243 -0.06349743 -0.079726964
000090 46 a7 73 3c 62 6f cc ba 34 b2 01 3d 30 7d 2a bd
       0.014871424 -0.001559716 0.03166409 -0.041623294
0000a0 35 01 ca 3b 5f 56 d7 bb 63 38 85 3b ad 2b 01 bb
       0.0061646947 -0.0065715755 0.0040655597 -0.001970987
0000b0 66 bb 3b bc bb aa a9 3a 73 34 b1 bc 87 1e f3 3d
       -0.0114582535 0.0012944558 -0.021631455 0.11871057
0000c0 49 a1 f7 3a 57 aa 37 3c 2a 9c e4 3b b8 b8 46 3c
       0.0018892671 0.011210046 0.006976624 0.012129001
0000d0 4b 48 dd bb 0c 79 0d bc 33 82 33 bd 0a 0c 98 bc
       -0.0067530028 -0.008634817 -0.04382534 -0.018560428
0000e0 9a e3 f2 3c 85 d1 1e bd e1 cc 38 bd b2 02 c1 3c
       0.029649545 -0.038774032 -0.045117263 0.023560856
0000f0 64 02 96 bd a8 65 1a 3d e3 7d f9 38 65 c4 98 bc
       -0.07324675 0.037694603 0.000118966935 -0.018648336
000100 89 f6 dd bd 8b 6d 33 bc 28 74 30 3b f3 b9 6b bc
       -0.108380385 -0.01095141 0.0026924703 -0.0143875955
000110 bc 2d 89 3a b2 64 8e 3a fc d3 fd bb 98 c4 4a bc
       0.00104659 0.001086375 -0.007746218 -0.012375973
000120 a0 be a6 bd b0 4c 99 bc b2 96 5f bd ae d9 a6 3c
       -0.081418276 -0.018713325 -0.054587074 0.02036747
000130 1e b5 43 3b 4d 3b df 3b 2c 15 1e 3d fa 68 02 bd
       0.0029862593 0.006812489 0.03859441 -0.031838395
000140 70 01 4e bd cd ae 75 bd 38 2e d4 bd cb e3 9e 3c
       -0.05029434 -0.059981156 -0.10360378 0.01939573
000150 de 05 40 bc 22 6c cd 3d 03 94 61 bd b9 9c c3 3b
       -0.011720149 0.1003039 -0.055072796 0.0059696105
000160 a8 2f c3 3c e8 fc cc 3a 5e 70 19 3c 6e 8a c0 3c
       0.023826435 0.0015639337 0.009365169 0.023503508
000170 92 1a fb 39 9a 16 a3 3c d0 2d d0 3c fe 2b 1f 3d
       0.00047894247 0.019908238 0.02541247 0.038860314
000180 d1 da 2f bd 0a 61 91 3b 81 43 42 3c 36 12 3e 37
       -0.04293329 0.004436617 0.0118569145 1.1329123e-05
000190 89 52 8c bc 08 1f a9 3c 0b 48 bc bd 48 b7 66 3c
       -0.0171292 0.02064468 -0.091934286 0.014081784
0001a0 8d 97 15 3d f1 7e a3 bd 1b 9b b3 3d 99 c2 9f 3b
       0.036521483 -0.079831965 0.087698184 0.004875493
0001b0 82 4c 04 bd a0 28 3b 3c d4 53 1a 3d 65 3f 01 bc
       -0.032299526 0.01142326 0.0376776 -0.00788865
0001c0 38 94 b9 bc 89 85 a6 bc 1c fd da 3c 33 c2 fd bb
       -0.022653684 -0.020327346 0.02673202 -0.0077440976
0001d0 00 53 d5 bc 15 65 00 bc 9b 44 ce bc 1d 6d ab 3c
       -0.026040554 -0.0078366 -0.025179198 0.020926053
0001e0 5a 09 25 bc ff c4 2b bd 07 ef 22 bd a1 18 0d bd
       -0.01007303 -0.041935917 -0.039778735 -0.034447316
0001f0 06 9a dc 3b 1e a0 7c 3c 1f 68 83 38 03 88 fa 3c
       0.006732228 0.015419034 6.265961e-05 0.030582434
000200 f8 15 99 bc 87 38 45 3d 93 7d 88 3c f9 34 a9 bb
       -0.018687233 0.04814961 0.016661441 -0.0051637855
000210 24 eb ec b9 d9 82 78 bc d1 89 31 bc 47 e5 10 bc
       -0.0004518862 -0.015167915 -0.010836081 -0.0088437265
000220 8c 2b 8e bc 06 37 06 3d fa 51 2e bd 53 21 31 3b
       -0.01735475 0.03276732 -0.042558648 0.002702792
000230 30 2a 87 3b 62 9d 3a bd 9f ed 35 bd ef 9f 98 3c
       0.004124902 -0.04556025 -0.044416066 0.01863095
000240 98 ba 63 bd 81 d7 67 bb 82 ad a9 bd b6 c8 c3 3b
       -0.05559787 -0.0035376253 -0.08285047 0.0059748543
000250 e6 73 e1 bc 7e 5b 20 3d 1e 3d 41 bd 2e 13 99 bd
       -0.027521085 0.039149754 -0.047177427 -0.07474361
000260 e0 ec f8 bc 8d fc 98 3d c0 b3 3d bc f2 bd 82 bc
       -0.030386388 0.07470045 -0.0115785 -0.015959714
000270 44 a9 93 bd 9e 11 b1 bc 88 fe 83 3d 65 8d 1b 3d
       -0.07210019 -0.021614846 0.06445032 0.03797664
000280 ed bf 12 3c b0 e5 96 bc 93 11 6e bd 0b 24 4a bd
       0.0089568915 -0.01842007 -0.05812223 -0.04935078
000290 18 29 20 bd 17 7d e5 3c ac 23 83 3c b2 c9 32 bc
       -0.03910169 0.028013749 0.01600822 -0.010912346
0002a0 49 fc ae 3c 80 8a be bc 83 45 1b 3c be a6 88 bb
       0.021360533 -0.023259401 0.009477022 -0.004170268
0002b0 1b a1 89 bc 52 2b a8 3c 62 32 32 bc 5b 35 d9 bb
       -0.016800454 0.02052847 -0.01087627 -0.006628675
0002c0 a8 4b 83 3a f4 e2 29 bc 61 e2 33 3c db ac 47 bb
       0.0010017054 -0.010369051 0.010979266 -0.003046802
0002d0 1d 1f b6 bb 81 ad 35 3b f4 52 08 bd bb f5 17 3d
       -0.005557908 0.0027721825 -0.033282235 0.03709958
0002e0 bf af 1f 3d 41 70 f6 3a 02 44 62 bc ab cf a3 3c
       0.038985964 0.0018801765 -0.01381016 0.019996485
0002f0 a1 c2 aa bb 40 97 10 3d b6 6e b3 b9 6a a9 69 3c
       -0.00521119 0.035300493 -0.00034224027 0.014261583
000300 0a e2 02 3c 19 ac 2e bb aa 34 3c 3c 87 a0 0c bc
       0.007988462 -0.0026652871 0.0114871655 -0.008583195
000310 95 51 4b bc 55 ea 0b 3d d6 a0 71 bb 7e 75 c1 3d
       -0.012409587 0.034159023 -0.0036869547 0.09446238
000320 c6 11 6f bc 7b fc 67 bb 26 0d f1 bc 27 8f e4 bc
       -0.01459164 -0.0035398293 -0.029425215 -0.027900292
000330 f0 ab 9f ba d7 93 a3 3c bc 65 f2 bc 5b 1e 3d bc
       -0.0012181979 0.019967956 -0.029589526 -0.011542882
000340 df ef 22 bd c3 d9 ff bd 00 af 98 bd 68 8a d5 bc
       -0.03977954 -0.124927066 -0.074552536 -0.026066974
000350 c2 f0 40 bd ed f2 d0 3c f0 ad f1 bd e4 56 fb 3c
       -0.047104605 0.025506461 -0.11800754 0.030681081
000360 68 25 b3 3c e1 45 a0 bc 46 3e c5 3a f7 f6 05 bd
       0.021868423 -0.01956457 0.0015048466 -0.032706227
000370 e1 71 3c 3d 82 26 5e 3b 92 d4 c2 bd ef 69 b7 3c
       0.04600704 0.0033897464 -0.09513201 0.02238938
000380 30 39 86 3c 83 e0 be 3c 59 eb 0f 3c 05 25 18 bc
       0.016384691 0.023300415 0.008784139 -0.00928617
000390 c2 7c c3 bc eb a0 d9 3b 25 d9 79 bc e7 96 34 bb
       -0.0238632 0.0066414974 -0.015249525 -0.0027555765
0003a0 f1 ab f5 3b 9a eb af bd 19 21 24 3c d8 22 2a 3c
       0.0074973037 -0.08589859 0.010017657 0.010384284
0003b0 21 97 a8 bd db 01 a7 bc 5d e1 16 bb 16 69 d6 bb
       -0.082319506 -0.020386627 -0.002302251 -0.006543289
0003c0 49 46 a2 3d 0d 15 6d ba fe a3 c5 bd 2a 04 50 3b
       0.07923562 -0.00090439693 -0.0965042 0.0031740763
0003d0 0d fc 18 3b 6f e8 b6 bc 20 8e 84 3a d3 73 c4 3c
       0.0023343593 -0.02232763 0.0010113157 0.02398101
0003e0 9e 87 c6 b9 22 61 21 3a 87 40 b6 bc a9 fc 21 3c
       -0.00037866546 0.00061561365 -0.022247566 0.009886899
0003f0 bb ad a9 3c 52 48 49 bd 86 20 56 3a 17 52 86 ba
       0.020712724 -0.049141236 0.00081682985 -0.0010247853

network.8.bias f4 [32]
000000 e1 e8 ad 3c 3a 36 c4 3c ae e1 07 bc 69 42 42 3c
       0.02122921 0.023951638 -0.008293552 0.011856654
000010 f0 54 69 3d 16 b7 ef 3c c5 a8 c8 3d b0 28 ab 3c
       0.05696577 0.029262107 0.09797815 0.020893425
000020 20 dc 54 3b fc f4 d3 3c 93 3f 1c 3d 92 8d bb 3c
       0.0032479838 0.025873654 0.038146567 0.022894654
000030 ce b4 45 3d ac cd de bb c0 97 ec 3d 4b 86 34 3d
       0.048268132 -0.0067994203 0.115523815 0.044073384
000040 5b 6f c0 3c ad 55 be 3c bc a3 8b 3c e6 b7 90 3c
       0.023490598 0.023234213 0.017045848 0.017665815
000050 6e bd 4a 3d 68 46 b1 3c 83 dc 02 3d 2b 6b eb 3d
       0.04949706 0.021640018 0.031948578 0.1149505
000060 a4 07 07 3d 78 ee 2a 3d 54 26 c8 3c 7a 10 1e 3c
       0.03296627 0.041731328 0.024432339 0.009647483
000070 49 79 09 3d 4f b7 e3 3c 03 20 26 3d 75 c7 e9 3d
       0.033562932 0.02779737 0.040557873 0.114149965

network.10.weight f4 [32]
000000 53 06 1e 3f 8c 10 45 3f 11 bb 21 3f 69 e6 23 3f
       0.617284 0.76978374 0.63176066 0.64023453
000010 cc 7f 1f 3f dc 18 25 3f 68 e7 2f 3f dc 65 11 3f
       0.6230438 0.6449106 0.6871247 0.5679605
000020 46 fc 1d 3f 85 ce 22 3f ba 4f 22 3f 99 e7 0b 3f
       0.61713064 0.63596374 0.63402903 0.54650265
000030 9d 2e 2c 3f 42 60 09 3f 31 0e 59 3f 24 6d 12 3f
       0.67258626 0.536625 0.8478728 0.57197785
000040 70 cf 2b 3f e4 67 2f 3f bc 40 2c 3f ec 7a 2a 3f
       0.671134 0.685179 0.67286277 0.66593814
000050 cd 19 32 3f e2 ca 32 3f ef f1 38 3f ee 63 2a 3f
       0.6957062 0.69840825 0.7224416 0.6655873
000060 73 ab 29 3f 96 b7 1a 3f 63 d9 3d 3f 01 91 16 3f
       0.66277236 0.6043638 0.7415983 0.5881501
000070 a3 a9 39 3f c0 a9 30 3f 89 5d 41 3f 1a a2 29 3f
       0.7252447 0.6900902 0.7553335 0.6626297
